Model: "BiT-S-R152x4"
__________________________________________________________________________________________________
 Layer (type)                Output Shape                 Param #   Connected to                  
==================================================================================================
 input_16 (InputLayer)       [(None, 224, 224, 3)]        0         []                            
                                                                                                  
 padding_from_kernel_size_2  (None, 230, 230, 3)          0         ['input_16[0][0]']            
 28 (PaddingFromKernelSize)                                                                       
                                                                                                  
 conv2d_682 (Conv2D)         (None, 112, 112, 64)         9408      ['padding_from_kernel_size_228
                                                                    [0][0]']                      
                                                                                                  
 padding_from_kernel_size_2  (None, 114, 114, 64)         0         ['conv2d_682[0][0]']          
 29 (PaddingFromKernelSize)                                                                       
                                                                                                  
 max_pooling2d_10 (MaxPooli  (None, 56, 56, 64)           0         ['padding_from_kernel_size_229
 ng2D)                                                              [0][0]']                      
                                                                                                  
 group_normalization_649 (G  (None, 56, 56, 64)           128       ['max_pooling2d_10[0][0]']    
 roupNormalization)                                                                               
                                                                                                  
 activation_671 (Activation  (None, 56, 56, 64)           0         ['group_normalization_649[0][0
 )                                                                  ]']                           
                                                                                                  
 conv2d_684 (Conv2D)         (None, 56, 56, 256)          16384     ['activation_671[0][0]']      
                                                                                                  
 group_normalization_650 (G  (None, 56, 56, 256)          512       ['conv2d_684[0][0]']          
 roupNormalization)                                                                               
                                                                                                  
 activation_672 (Activation  (None, 56, 56, 256)          0         ['group_normalization_650[0][0
 )                                                                  ]']                           
                                                                                                  
 padding_from_kernel_size_2  (None, 58, 58, 256)          0         ['activation_672[0][0]']      
 30 (PaddingFromKernelSize)                                                                       
                                                                                                  
 conv2d_685 (Conv2D)         (None, 56, 56, 256)          589824    ['padding_from_kernel_size_230
                                                                    [0][0]']                      
                                                                                                  
 group_normalization_651 (G  (None, 56, 56, 256)          512       ['conv2d_685[0][0]']          
 roupNormalization)                                                                               
                                                                                                  
 activation_673 (Activation  (None, 56, 56, 256)          0         ['group_normalization_651[0][0
 )                                                                  ]']                           
                                                                                                  
 conv2d_686 (Conv2D)         (None, 56, 56, 1024)         262144    ['activation_673[0][0]']      
                                                                                                  
 conv2d_683 (Conv2D)         (None, 56, 56, 1024)         65536     ['activation_671[0][0]']      
                                                                                                  
 add_214 (Add)               (None, 56, 56, 1024)         0         ['conv2d_686[0][0]',          
                                                                     'conv2d_683[0][0]']          
                                                                                                  
 group_normalization_652 (G  (None, 56, 56, 1024)         2048      ['add_214[0][0]']             
 roupNormalization)                                                                               
                                                                                                  
 activation_674 (Activation  (None, 56, 56, 1024)         0         ['group_normalization_652[0][0
 )                                                                  ]']                           
                                                                                                  
 conv2d_687 (Conv2D)         (None, 56, 56, 256)          262144    ['activation_674[0][0]']      
                                                                                                  
 group_normalization_653 (G  (None, 56, 56, 256)          512       ['conv2d_687[0][0]']          
 roupNormalization)                                                                               
                                                                                                  
 activation_675 (Activation  (None, 56, 56, 256)          0         ['group_normalization_653[0][0
 )                                                                  ]']                           
                                                                                                  
 padding_from_kernel_size_2  (None, 58, 58, 256)          0         ['activation_675[0][0]']      
 31 (PaddingFromKernelSize)                                                                       
                                                                                                  
 conv2d_688 (Conv2D)         (None, 56, 56, 256)          589824    ['padding_from_kernel_size_231
                                                                    [0][0]']                      
                                                                                                  
 group_normalization_654 (G  (None, 56, 56, 256)          512       ['conv2d_688[0][0]']          
 roupNormalization)                                                                               
                                                                                                  
 activation_676 (Activation  (None, 56, 56, 256)          0         ['group_normalization_654[0][0
 )                                                                  ]']                           
                                                                                                  
 conv2d_689 (Conv2D)         (None, 56, 56, 1024)         262144    ['activation_676[0][0]']      
                                                                                                  
 add_215 (Add)               (None, 56, 56, 1024)         0         ['conv2d_689[0][0]',          
                                                                     'add_214[0][0]']             
                                                                                                  
 group_normalization_655 (G  (None, 56, 56, 1024)         2048      ['add_215[0][0]']             
 roupNormalization)                                                                               
                                                                                                  
 activation_677 (Activation  (None, 56, 56, 1024)         0         ['group_normalization_655[0][0
 )                                                                  ]']                           
                                                                                                  
 conv2d_690 (Conv2D)         (None, 56, 56, 256)          262144    ['activation_677[0][0]']      
                                                                                                  
 group_normalization_656 (G  (None, 56, 56, 256)          512       ['conv2d_690[0][0]']          
 roupNormalization)                                                                               
                                                                                                  
 activation_678 (Activation  (None, 56, 56, 256)          0         ['group_normalization_656[0][0
 )                                                                  ]']                           
                                                                                                  
 padding_from_kernel_size_2  (None, 58, 58, 256)          0         ['activation_678[0][0]']      
 32 (PaddingFromKernelSize)                                                                       
                                                                                                  
 conv2d_691 (Conv2D)         (None, 56, 56, 256)          589824    ['padding_from_kernel_size_232
                                                                    [0][0]']                      
                                                                                                  
 group_normalization_657 (G  (None, 56, 56, 256)          512       ['conv2d_691[0][0]']          
 roupNormalization)                                                                               
                                                                                                  
 activation_679 (Activation  (None, 56, 56, 256)          0         ['group_normalization_657[0][0
 )                                                                  ]']                           
                                                                                                  
 conv2d_692 (Conv2D)         (None, 56, 56, 1024)         262144    ['activation_679[0][0]']      
                                                                                                  
 add_216 (Add)               (None, 56, 56, 1024)         0         ['conv2d_692[0][0]',          
                                                                     'add_215[0][0]']             
                                                                                                  
 group_normalization_658 (G  (None, 56, 56, 1024)         2048      ['add_216[0][0]']             
 roupNormalization)                                                                               
                                                                                                  
 activation_680 (Activation  (None, 56, 56, 1024)         0         ['group_normalization_658[0][0
 )                                                                  ]']                           
                                                                                                  
 conv2d_694 (Conv2D)         (None, 56, 56, 512)          524288    ['activation_680[0][0]']      
                                                                                                  
 group_normalization_659 (G  (None, 56, 56, 512)          1024      ['conv2d_694[0][0]']          
 roupNormalization)                                                                               
                                                                                                  
 activation_681 (Activation  (None, 56, 56, 512)          0         ['group_normalization_659[0][0
 )                                                                  ]']                           
                                                                                                  
 padding_from_kernel_size_2  (None, 58, 58, 512)          0         ['activation_681[0][0]']      
 33 (PaddingFromKernelSize)                                                                       
                                                                                                  
 conv2d_695 (Conv2D)         (None, 28, 28, 512)          2359296   ['padding_from_kernel_size_233
                                                                    [0][0]']                      
                                                                                                  
 group_normalization_660 (G  (None, 28, 28, 512)          1024      ['conv2d_695[0][0]']          
 roupNormalization)                                                                               
                                                                                                  
 activation_682 (Activation  (None, 28, 28, 512)          0         ['group_normalization_660[0][0
 )                                                                  ]']                           
                                                                                                  
 conv2d_696 (Conv2D)         (None, 28, 28, 2048)         1048576   ['activation_682[0][0]']      
                                                                                                  
 conv2d_693 (Conv2D)         (None, 28, 28, 2048)         2097152   ['activation_680[0][0]']      
                                                                                                  
 add_217 (Add)               (None, 28, 28, 2048)         0         ['conv2d_696[0][0]',          
                                                                     'conv2d_693[0][0]']          
                                                                                                  
 group_normalization_661 (G  (None, 28, 28, 2048)         4096      ['add_217[0][0]']             
 roupNormalization)                                                                               
                                                                                                  
 activation_683 (Activation  (None, 28, 28, 2048)         0         ['group_normalization_661[0][0
 )                                                                  ]']                           
                                                                                                  
 conv2d_697 (Conv2D)         (None, 28, 28, 512)          1048576   ['activation_683[0][0]']      
                                                                                                  
 group_normalization_662 (G  (None, 28, 28, 512)          1024      ['conv2d_697[0][0]']          
 roupNormalization)                                                                               
                                                                                                  
 activation_684 (Activation  (None, 28, 28, 512)          0         ['group_normalization_662[0][0
 )                                                                  ]']                           
                                                                                                  
 padding_from_kernel_size_2  (None, 30, 30, 512)          0         ['activation_684[0][0]']      
 34 (PaddingFromKernelSize)                                                                       
                                                                                                  
 conv2d_698 (Conv2D)         (None, 28, 28, 512)          2359296   ['padding_from_kernel_size_234
                                                                    [0][0]']                      
                                                                                                  
 group_normalization_663 (G  (None, 28, 28, 512)          1024      ['conv2d_698[0][0]']          
 roupNormalization)                                                                               
                                                                                                  
 activation_685 (Activation  (None, 28, 28, 512)          0         ['group_normalization_663[0][0
 )                                                                  ]']                           
                                                                                                  
 conv2d_699 (Conv2D)         (None, 28, 28, 2048)         1048576   ['activation_685[0][0]']      
                                                                                                  
 add_218 (Add)               (None, 28, 28, 2048)         0         ['conv2d_699[0][0]',          
                                                                     'add_217[0][0]']             
                                                                                                  
 group_normalization_664 (G  (None, 28, 28, 2048)         4096      ['add_218[0][0]']             
 roupNormalization)                                                                               
                                                                                                  
 activation_686 (Activation  (None, 28, 28, 2048)         0         ['group_normalization_664[0][0
 )                                                                  ]']                           
                                                                                                  
 conv2d_700 (Conv2D)         (None, 28, 28, 512)          1048576   ['activation_686[0][0]']      
                                                                                                  
 group_normalization_665 (G  (None, 28, 28, 512)          1024      ['conv2d_700[0][0]']          
 roupNormalization)                                                                               
                                                                                                  
 activation_687 (Activation  (None, 28, 28, 512)          0         ['group_normalization_665[0][0
 )                                                                  ]']                           
                                                                                                  
 padding_from_kernel_size_2  (None, 30, 30, 512)          0         ['activation_687[0][0]']      
 35 (PaddingFromKernelSize)                                                                       
                                                                                                  
 conv2d_701 (Conv2D)         (None, 28, 28, 512)          2359296   ['padding_from_kernel_size_235
                                                                    [0][0]']                      
                                                                                                  
 group_normalization_666 (G  (None, 28, 28, 512)          1024      ['conv2d_701[0][0]']          
 roupNormalization)                                                                               
                                                                                                  
 activation_688 (Activation  (None, 28, 28, 512)          0         ['group_normalization_666[0][0
 )                                                                  ]']                           
                                                                                                  
 conv2d_702 (Conv2D)         (None, 28, 28, 2048)         1048576   ['activation_688[0][0]']      
                                                                                                  
 add_219 (Add)               (None, 28, 28, 2048)         0         ['conv2d_702[0][0]',          
                                                                     'add_218[0][0]']             
                                                                                                  
 group_normalization_667 (G  (None, 28, 28, 2048)         4096      ['add_219[0][0]']             
 roupNormalization)                                                                               
                                                                                                  
 activation_689 (Activation  (None, 28, 28, 2048)         0         ['group_normalization_667[0][0
 )                                                                  ]']                           
                                                                                                  
 conv2d_703 (Conv2D)         (None, 28, 28, 512)          1048576   ['activation_689[0][0]']      
                                                                                                  
 group_normalization_668 (G  (None, 28, 28, 512)          1024      ['conv2d_703[0][0]']          
 roupNormalization)                                                                               
                                                                                                  
 activation_690 (Activation  (None, 28, 28, 512)          0         ['group_normalization_668[0][0
 )                                                                  ]']                           
                                                                                                  
 padding_from_kernel_size_2  (None, 30, 30, 512)          0         ['activation_690[0][0]']      
 36 (PaddingFromKernelSize)                                                                       
                                                                                                  
 conv2d_704 (Conv2D)         (None, 28, 28, 512)          2359296   ['padding_from_kernel_size_236
                                                                    [0][0]']                      
                                                                                                  
 group_normalization_669 (G  (None, 28, 28, 512)          1024      ['conv2d_704[0][0]']          
 roupNormalization)                                                                               
                                                                                                  
 activation_691 (Activation  (None, 28, 28, 512)          0         ['group_normalization_669[0][0
 )                                                                  ]']                           
                                                                                                  
 conv2d_705 (Conv2D)         (None, 28, 28, 2048)         1048576   ['activation_691[0][0]']      
                                                                                                  
 add_220 (Add)               (None, 28, 28, 2048)         0         ['conv2d_705[0][0]',          
                                                                     'add_219[0][0]']             
                                                                                                  
 group_normalization_670 (G  (None, 28, 28, 2048)         4096      ['add_220[0][0]']             
 roupNormalization)                                                                               
                                                                                                  
 activation_692 (Activation  (None, 28, 28, 2048)         0         ['group_normalization_670[0][0
 )                                                                  ]']                           
                                                                                                  
 conv2d_706 (Conv2D)         (None, 28, 28, 512)          1048576   ['activation_692[0][0]']      
                                                                                                  
 group_normalization_671 (G  (None, 28, 28, 512)          1024      ['conv2d_706[0][0]']          
 roupNormalization)                                                                               
                                                                                                  
 activation_693 (Activation  (None, 28, 28, 512)          0         ['group_normalization_671[0][0
 )                                                                  ]']                           
                                                                                                  
 padding_from_kernel_size_2  (None, 30, 30, 512)          0         ['activation_693[0][0]']      
 37 (PaddingFromKernelSize)                                                                       
                                                                                                  
 conv2d_707 (Conv2D)         (None, 28, 28, 512)          2359296   ['padding_from_kernel_size_237
                                                                    [0][0]']                      
                                                                                                  
 group_normalization_672 (G  (None, 28, 28, 512)          1024      ['conv2d_707[0][0]']          
 roupNormalization)                                                                               
                                                                                                  
 activation_694 (Activation  (None, 28, 28, 512)          0         ['group_normalization_672[0][0
 )                                                                  ]']                           
                                                                                                  
 conv2d_708 (Conv2D)         (None, 28, 28, 2048)         1048576   ['activation_694[0][0]']      
                                                                                                  
 add_221 (Add)               (None, 28, 28, 2048)         0         ['conv2d_708[0][0]',          
                                                                     'add_220[0][0]']             
                                                                                                  
 group_normalization_673 (G  (None, 28, 28, 2048)         4096      ['add_221[0][0]']             
 roupNormalization)                                                                               
                                                                                                  
 activation_695 (Activation  (None, 28, 28, 2048)         0         ['group_normalization_673[0][0
 )                                                                  ]']                           
                                                                                                  
 conv2d_709 (Conv2D)         (None, 28, 28, 512)          1048576   ['activation_695[0][0]']      
                                                                                                  
 group_normalization_674 (G  (None, 28, 28, 512)          1024      ['conv2d_709[0][0]']          
 roupNormalization)                                                                               
                                                                                                  
 activation_696 (Activation  (None, 28, 28, 512)          0         ['group_normalization_674[0][0
 )                                                                  ]']                           
                                                                                                  
 padding_from_kernel_size_2  (None, 30, 30, 512)          0         ['activation_696[0][0]']      
 38 (PaddingFromKernelSize)                                                                       
                                                                                                  
 conv2d_710 (Conv2D)         (None, 28, 28, 512)          2359296   ['padding_from_kernel_size_238
                                                                    [0][0]']                      
                                                                                                  
 group_normalization_675 (G  (None, 28, 28, 512)          1024      ['conv2d_710[0][0]']          
 roupNormalization)                                                                               
                                                                                                  
 activation_697 (Activation  (None, 28, 28, 512)          0         ['group_normalization_675[0][0
 )                                                                  ]']                           
                                                                                                  
 conv2d_711 (Conv2D)         (None, 28, 28, 2048)         1048576   ['activation_697[0][0]']      
                                                                                                  
 add_222 (Add)               (None, 28, 28, 2048)         0         ['conv2d_711[0][0]',          
                                                                     'add_221[0][0]']             
                                                                                                  
 group_normalization_676 (G  (None, 28, 28, 2048)         4096      ['add_222[0][0]']             
 roupNormalization)                                                                               
                                                                                                  
 activation_698 (Activation  (None, 28, 28, 2048)         0         ['group_normalization_676[0][0
 )                                                                  ]']                           
                                                                                                  
 conv2d_712 (Conv2D)         (None, 28, 28, 512)          1048576   ['activation_698[0][0]']      
                                                                                                  
 group_normalization_677 (G  (None, 28, 28, 512)          1024      ['conv2d_712[0][0]']          
 roupNormalization)                                                                               
                                                                                                  
 activation_699 (Activation  (None, 28, 28, 512)          0         ['group_normalization_677[0][0
 )                                                                  ]']                           
                                                                                                  
 padding_from_kernel_size_2  (None, 30, 30, 512)          0         ['activation_699[0][0]']      
 39 (PaddingFromKernelSize)                                                                       
                                                                                                  
 conv2d_713 (Conv2D)         (None, 28, 28, 512)          2359296   ['padding_from_kernel_size_239
                                                                    [0][0]']                      
                                                                                                  
 group_normalization_678 (G  (None, 28, 28, 512)          1024      ['conv2d_713[0][0]']          
 roupNormalization)                                                                               
                                                                                                  
 activation_700 (Activation  (None, 28, 28, 512)          0         ['group_normalization_678[0][0
 )                                                                  ]']                           
                                                                                                  
 conv2d_714 (Conv2D)         (None, 28, 28, 2048)         1048576   ['activation_700[0][0]']      
                                                                                                  
 add_223 (Add)               (None, 28, 28, 2048)         0         ['conv2d_714[0][0]',          
                                                                     'add_222[0][0]']             
                                                                                                  
 group_normalization_679 (G  (None, 28, 28, 2048)         4096      ['add_223[0][0]']             
 roupNormalization)                                                                               
                                                                                                  
 activation_701 (Activation  (None, 28, 28, 2048)         0         ['group_normalization_679[0][0
 )                                                                  ]']                           
                                                                                                  
 conv2d_715 (Conv2D)         (None, 28, 28, 512)          1048576   ['activation_701[0][0]']      
                                                                                                  
 group_normalization_680 (G  (None, 28, 28, 512)          1024      ['conv2d_715[0][0]']          
 roupNormalization)                                                                               
                                                                                                  
 activation_702 (Activation  (None, 28, 28, 512)          0         ['group_normalization_680[0][0
 )                                                                  ]']                           
                                                                                                  
 padding_from_kernel_size_2  (None, 30, 30, 512)          0         ['activation_702[0][0]']      
 40 (PaddingFromKernelSize)                                                                       
                                                                                                  
 conv2d_716 (Conv2D)         (None, 28, 28, 512)          2359296   ['padding_from_kernel_size_240
                                                                    [0][0]']                      
                                                                                                  
 group_normalization_681 (G  (None, 28, 28, 512)          1024      ['conv2d_716[0][0]']          
 roupNormalization)                                                                               
                                                                                                  
 activation_703 (Activation  (None, 28, 28, 512)          0         ['group_normalization_681[0][0
 )                                                                  ]']                           
                                                                                                  
 conv2d_717 (Conv2D)         (None, 28, 28, 2048)         1048576   ['activation_703[0][0]']      
                                                                                                  
 add_224 (Add)               (None, 28, 28, 2048)         0         ['conv2d_717[0][0]',          
                                                                     'add_223[0][0]']             
                                                                                                  
 group_normalization_682 (G  (None, 28, 28, 2048)         4096      ['add_224[0][0]']             
 roupNormalization)                                                                               
                                                                                                  
 activation_704 (Activation  (None, 28, 28, 2048)         0         ['group_normalization_682[0][0
 )                                                                  ]']                           
                                                                                                  
 conv2d_719 (Conv2D)         (None, 28, 28, 1024)         2097152   ['activation_704[0][0]']      
                                                                                                  
 group_normalization_683 (G  (None, 28, 28, 1024)         2048      ['conv2d_719[0][0]']          
 roupNormalization)                                                                               
                                                                                                  
 activation_705 (Activation  (None, 28, 28, 1024)         0         ['group_normalization_683[0][0
 )                                                                  ]']                           
                                                                                                  
 padding_from_kernel_size_2  (None, 30, 30, 1024)         0         ['activation_705[0][0]']      
 41 (PaddingFromKernelSize)                                                                       
                                                                                                  
 conv2d_720 (Conv2D)         (None, 14, 14, 1024)         9437184   ['padding_from_kernel_size_241
                                                                    [0][0]']                      
                                                                                                  
 group_normalization_684 (G  (None, 14, 14, 1024)         2048      ['conv2d_720[0][0]']          
 roupNormalization)                                                                               
                                                                                                  
 activation_706 (Activation  (None, 14, 14, 1024)         0         ['group_normalization_684[0][0
 )                                                                  ]']                           
                                                                                                  
 conv2d_721 (Conv2D)         (None, 14, 14, 4096)         4194304   ['activation_706[0][0]']      
                                                                                                  
 conv2d_718 (Conv2D)         (None, 14, 14, 4096)         8388608   ['activation_704[0][0]']      
                                                                                                  
 add_225 (Add)               (None, 14, 14, 4096)         0         ['conv2d_721[0][0]',          
                                                                     'conv2d_718[0][0]']          
                                                                                                  
 group_normalization_685 (G  (None, 14, 14, 4096)         8192      ['add_225[0][0]']             
 roupNormalization)                                                                               
                                                                                                  
 activation_707 (Activation  (None, 14, 14, 4096)         0         ['group_normalization_685[0][0
 )                                                                  ]']                           
                                                                                                  
 conv2d_722 (Conv2D)         (None, 14, 14, 1024)         4194304   ['activation_707[0][0]']      
                                                                                                  
 group_normalization_686 (G  (None, 14, 14, 1024)         2048      ['conv2d_722[0][0]']          
 roupNormalization)                                                                               
                                                                                                  
 activation_708 (Activation  (None, 14, 14, 1024)         0         ['group_normalization_686[0][0
 )                                                                  ]']                           
                                                                                                  
 padding_from_kernel_size_2  (None, 16, 16, 1024)         0         ['activation_708[0][0]']      
 42 (PaddingFromKernelSize)                                                                       
                                                                                                  
 conv2d_723 (Conv2D)         (None, 14, 14, 1024)         9437184   ['padding_from_kernel_size_242
                                                                    [0][0]']                      
                                                                                                  
 group_normalization_687 (G  (None, 14, 14, 1024)         2048      ['conv2d_723[0][0]']          
 roupNormalization)                                                                               
                                                                                                  
 activation_709 (Activation  (None, 14, 14, 1024)         0         ['group_normalization_687[0][0
 )                                                                  ]']                           
                                                                                                  
 conv2d_724 (Conv2D)         (None, 14, 14, 4096)         4194304   ['activation_709[0][0]']      
                                                                                                  
 add_226 (Add)               (None, 14, 14, 4096)         0         ['conv2d_724[0][0]',          
                                                                     'add_225[0][0]']             
                                                                                                  
 group_normalization_688 (G  (None, 14, 14, 4096)         8192      ['add_226[0][0]']             
 roupNormalization)                                                                               
                                                                                                  
 activation_710 (Activation  (None, 14, 14, 4096)         0         ['group_normalization_688[0][0
 )                                                                  ]']                           
                                                                                                  
 conv2d_725 (Conv2D)         (None, 14, 14, 1024)         4194304   ['activation_710[0][0]']      
                                                                                                  
 group_normalization_689 (G  (None, 14, 14, 1024)         2048      ['conv2d_725[0][0]']          
 roupNormalization)                                                                               
                                                                                                  
 activation_711 (Activation  (None, 14, 14, 1024)         0         ['group_normalization_689[0][0
 )                                                                  ]']                           
                                                                                                  
 padding_from_kernel_size_2  (None, 16, 16, 1024)         0         ['activation_711[0][0]']      
 43 (PaddingFromKernelSize)                                                                       
                                                                                                  
 conv2d_726 (Conv2D)         (None, 14, 14, 1024)         9437184   ['padding_from_kernel_size_243
                                                                    [0][0]']                      
                                                                                                  
 group_normalization_690 (G  (None, 14, 14, 1024)         2048      ['conv2d_726[0][0]']          
 roupNormalization)                                                                               
                                                                                                  
 activation_712 (Activation  (None, 14, 14, 1024)         0         ['group_normalization_690[0][0
 )                                                                  ]']                           
                                                                                                  
 conv2d_727 (Conv2D)         (None, 14, 14, 4096)         4194304   ['activation_712[0][0]']      
                                                                                                  
 add_227 (Add)               (None, 14, 14, 4096)         0         ['conv2d_727[0][0]',          
                                                                     'add_226[0][0]']             
                                                                                                  
 group_normalization_691 (G  (None, 14, 14, 4096)         8192      ['add_227[0][0]']             
 roupNormalization)                                                                               
                                                                                                  
 activation_713 (Activation  (None, 14, 14, 4096)         0         ['group_normalization_691[0][0
 )                                                                  ]']                           
                                                                                                  
 conv2d_728 (Conv2D)         (None, 14, 14, 1024)         4194304   ['activation_713[0][0]']      
                                                                                                  
 group_normalization_692 (G  (None, 14, 14, 1024)         2048      ['conv2d_728[0][0]']          
 roupNormalization)                                                                               
                                                                                                  
 activation_714 (Activation  (None, 14, 14, 1024)         0         ['group_normalization_692[0][0
 )                                                                  ]']                           
                                                                                                  
 padding_from_kernel_size_2  (None, 16, 16, 1024)         0         ['activation_714[0][0]']      
 44 (PaddingFromKernelSize)                                                                       
                                                                                                  
 conv2d_729 (Conv2D)         (None, 14, 14, 1024)         9437184   ['padding_from_kernel_size_244
                                                                    [0][0]']                      
                                                                                                  
 group_normalization_693 (G  (None, 14, 14, 1024)         2048      ['conv2d_729[0][0]']          
 roupNormalization)                                                                               
                                                                                                  
 activation_715 (Activation  (None, 14, 14, 1024)         0         ['group_normalization_693[0][0
 )                                                                  ]']                           
                                                                                                  
 conv2d_730 (Conv2D)         (None, 14, 14, 4096)         4194304   ['activation_715[0][0]']      
                                                                                                  
 add_228 (Add)               (None, 14, 14, 4096)         0         ['conv2d_730[0][0]',          
                                                                     'add_227[0][0]']             
                                                                                                  
 group_normalization_694 (G  (None, 14, 14, 4096)         8192      ['add_228[0][0]']             
 roupNormalization)                                                                               
                                                                                                  
 activation_716 (Activation  (None, 14, 14, 4096)         0         ['group_normalization_694[0][0
 )                                                                  ]']                           
                                                                                                  
 conv2d_731 (Conv2D)         (None, 14, 14, 1024)         4194304   ['activation_716[0][0]']      
                                                                                                  
 group_normalization_695 (G  (None, 14, 14, 1024)         2048      ['conv2d_731[0][0]']          
 roupNormalization)                                                                               
                                                                                                  
 activation_717 (Activation  (None, 14, 14, 1024)         0         ['group_normalization_695[0][0
 )                                                                  ]']                           
                                                                                                  
 padding_from_kernel_size_2  (None, 16, 16, 1024)         0         ['activation_717[0][0]']      
 45 (PaddingFromKernelSize)                                                                       
                                                                                                  
 conv2d_732 (Conv2D)         (None, 14, 14, 1024)         9437184   ['padding_from_kernel_size_245
                                                                    [0][0]']                      
                                                                                                  
 group_normalization_696 (G  (None, 14, 14, 1024)         2048      ['conv2d_732[0][0]']          
 roupNormalization)                                                                               
                                                                                                  
 activation_718 (Activation  (None, 14, 14, 1024)         0         ['group_normalization_696[0][0
 )                                                                  ]']                           
                                                                                                  
 conv2d_733 (Conv2D)         (None, 14, 14, 4096)         4194304   ['activation_718[0][0]']      
                                                                                                  
 add_229 (Add)               (None, 14, 14, 4096)         0         ['conv2d_733[0][0]',          
                                                                     'add_228[0][0]']             
                                                                                                  
 group_normalization_697 (G  (None, 14, 14, 4096)         8192      ['add_229[0][0]']             
 roupNormalization)                                                                               
                                                                                                  
 activation_719 (Activation  (None, 14, 14, 4096)         0         ['group_normalization_697[0][0
 )                                                                  ]']                           
                                                                                                  
 conv2d_734 (Conv2D)         (None, 14, 14, 1024)         4194304   ['activation_719[0][0]']      
                                                                                                  
 group_normalization_698 (G  (None, 14, 14, 1024)         2048      ['conv2d_734[0][0]']          
 roupNormalization)                                                                               
                                                                                                  
 activation_720 (Activation  (None, 14, 14, 1024)         0         ['group_normalization_698[0][0
 )                                                                  ]']                           
                                                                                                  
 padding_from_kernel_size_2  (None, 16, 16, 1024)         0         ['activation_720[0][0]']      
 46 (PaddingFromKernelSize)                                                                       
                                                                                                  
 conv2d_735 (Conv2D)         (None, 14, 14, 1024)         9437184   ['padding_from_kernel_size_246
                                                                    [0][0]']                      
                                                                                                  
 group_normalization_699 (G  (None, 14, 14, 1024)         2048      ['conv2d_735[0][0]']          
 roupNormalization)                                                                               
                                                                                                  
 activation_721 (Activation  (None, 14, 14, 1024)         0         ['group_normalization_699[0][0
 )                                                                  ]']                           
                                                                                                  
 conv2d_736 (Conv2D)         (None, 14, 14, 4096)         4194304   ['activation_721[0][0]']      
                                                                                                  
 add_230 (Add)               (None, 14, 14, 4096)         0         ['conv2d_736[0][0]',          
                                                                     'add_229[0][0]']             
                                                                                                  
 group_normalization_700 (G  (None, 14, 14, 4096)         8192      ['add_230[0][0]']             
 roupNormalization)                                                                               
                                                                                                  
 activation_722 (Activation  (None, 14, 14, 4096)         0         ['group_normalization_700[0][0
 )                                                                  ]']                           
                                                                                                  
 conv2d_737 (Conv2D)         (None, 14, 14, 1024)         4194304   ['activation_722[0][0]']      
                                                                                                  
 group_normalization_701 (G  (None, 14, 14, 1024)         2048      ['conv2d_737[0][0]']          
 roupNormalization)                                                                               
                                                                                                  
 activation_723 (Activation  (None, 14, 14, 1024)         0         ['group_normalization_701[0][0
 )                                                                  ]']                           
                                                                                                  
 padding_from_kernel_size_2  (None, 16, 16, 1024)         0         ['activation_723[0][0]']      
 47 (PaddingFromKernelSize)                                                                       
                                                                                                  
 conv2d_738 (Conv2D)         (None, 14, 14, 1024)         9437184   ['padding_from_kernel_size_247
                                                                    [0][0]']                      
                                                                                                  
 group_normalization_702 (G  (None, 14, 14, 1024)         2048      ['conv2d_738[0][0]']          
 roupNormalization)                                                                               
                                                                                                  
 activation_724 (Activation  (None, 14, 14, 1024)         0         ['group_normalization_702[0][0
 )                                                                  ]']                           
                                                                                                  
 conv2d_739 (Conv2D)         (None, 14, 14, 4096)         4194304   ['activation_724[0][0]']      
                                                                                                  
 add_231 (Add)               (None, 14, 14, 4096)         0         ['conv2d_739[0][0]',          
                                                                     'add_230[0][0]']             
                                                                                                  
 group_normalization_703 (G  (None, 14, 14, 4096)         8192      ['add_231[0][0]']             
 roupNormalization)                                                                               
                                                                                                  
 activation_725 (Activation  (None, 14, 14, 4096)         0         ['group_normalization_703[0][0
 )                                                                  ]']                           
                                                                                                  
 conv2d_740 (Conv2D)         (None, 14, 14, 1024)         4194304   ['activation_725[0][0]']      
                                                                                                  
 group_normalization_704 (G  (None, 14, 14, 1024)         2048      ['conv2d_740[0][0]']          
 roupNormalization)                                                                               
                                                                                                  
 activation_726 (Activation  (None, 14, 14, 1024)         0         ['group_normalization_704[0][0
 )                                                                  ]']                           
                                                                                                  
 padding_from_kernel_size_2  (None, 16, 16, 1024)         0         ['activation_726[0][0]']      
 48 (PaddingFromKernelSize)                                                                       
                                                                                                  
 conv2d_741 (Conv2D)         (None, 14, 14, 1024)         9437184   ['padding_from_kernel_size_248
                                                                    [0][0]']                      
                                                                                                  
 group_normalization_705 (G  (None, 14, 14, 1024)         2048      ['conv2d_741[0][0]']          
 roupNormalization)                                                                               
                                                                                                  
 activation_727 (Activation  (None, 14, 14, 1024)         0         ['group_normalization_705[0][0
 )                                                                  ]']                           
                                                                                                  
 conv2d_742 (Conv2D)         (None, 14, 14, 4096)         4194304   ['activation_727[0][0]']      
                                                                                                  
 add_232 (Add)               (None, 14, 14, 4096)         0         ['conv2d_742[0][0]',          
                                                                     'add_231[0][0]']             
                                                                                                  
 group_normalization_706 (G  (None, 14, 14, 4096)         8192      ['add_232[0][0]']             
 roupNormalization)                                                                               
                                                                                                  
 activation_728 (Activation  (None, 14, 14, 4096)         0         ['group_normalization_706[0][0
 )                                                                  ]']                           
                                                                                                  
 conv2d_743 (Conv2D)         (None, 14, 14, 1024)         4194304   ['activation_728[0][0]']      
                                                                                                  
 group_normalization_707 (G  (None, 14, 14, 1024)         2048      ['conv2d_743[0][0]']          
 roupNormalization)                                                                               
                                                                                                  
 activation_729 (Activation  (None, 14, 14, 1024)         0         ['group_normalization_707[0][0
 )                                                                  ]']                           
                                                                                                  
 padding_from_kernel_size_2  (None, 16, 16, 1024)         0         ['activation_729[0][0]']      
 49 (PaddingFromKernelSize)                                                                       
                                                                                                  
 conv2d_744 (Conv2D)         (None, 14, 14, 1024)         9437184   ['padding_from_kernel_size_249
                                                                    [0][0]']                      
                                                                                                  
 group_normalization_708 (G  (None, 14, 14, 1024)         2048      ['conv2d_744[0][0]']          
 roupNormalization)                                                                               
                                                                                                  
 activation_730 (Activation  (None, 14, 14, 1024)         0         ['group_normalization_708[0][0
 )                                                                  ]']                           
                                                                                                  
 conv2d_745 (Conv2D)         (None, 14, 14, 4096)         4194304   ['activation_730[0][0]']      
                                                                                                  
 add_233 (Add)               (None, 14, 14, 4096)         0         ['conv2d_745[0][0]',          
                                                                     'add_232[0][0]']             
                                                                                                  
 group_normalization_709 (G  (None, 14, 14, 4096)         8192      ['add_233[0][0]']             
 roupNormalization)                                                                               
                                                                                                  
 activation_731 (Activation  (None, 14, 14, 4096)         0         ['group_normalization_709[0][0
 )                                                                  ]']                           
                                                                                                  
 conv2d_746 (Conv2D)         (None, 14, 14, 1024)         4194304   ['activation_731[0][0]']      
                                                                                                  
 group_normalization_710 (G  (None, 14, 14, 1024)         2048      ['conv2d_746[0][0]']          
 roupNormalization)                                                                               
                                                                                                  
 activation_732 (Activation  (None, 14, 14, 1024)         0         ['group_normalization_710[0][0
 )                                                                  ]']                           
                                                                                                  
 padding_from_kernel_size_2  (None, 16, 16, 1024)         0         ['activation_732[0][0]']      
 50 (PaddingFromKernelSize)                                                                       
                                                                                                  
 conv2d_747 (Conv2D)         (None, 14, 14, 1024)         9437184   ['padding_from_kernel_size_250
                                                                    [0][0]']                      
                                                                                                  
 group_normalization_711 (G  (None, 14, 14, 1024)         2048      ['conv2d_747[0][0]']          
 roupNormalization)                                                                               
                                                                                                  
 activation_733 (Activation  (None, 14, 14, 1024)         0         ['group_normalization_711[0][0
 )                                                                  ]']                           
                                                                                                  
 conv2d_748 (Conv2D)         (None, 14, 14, 4096)         4194304   ['activation_733[0][0]']      
                                                                                                  
 add_234 (Add)               (None, 14, 14, 4096)         0         ['conv2d_748[0][0]',          
                                                                     'add_233[0][0]']             
                                                                                                  
 group_normalization_712 (G  (None, 14, 14, 4096)         8192      ['add_234[0][0]']             
 roupNormalization)                                                                               
                                                                                                  
 activation_734 (Activation  (None, 14, 14, 4096)         0         ['group_normalization_712[0][0
 )                                                                  ]']                           
                                                                                                  
 conv2d_749 (Conv2D)         (None, 14, 14, 1024)         4194304   ['activation_734[0][0]']      
                                                                                                  
 group_normalization_713 (G  (None, 14, 14, 1024)         2048      ['conv2d_749[0][0]']          
 roupNormalization)                                                                               
                                                                                                  
 activation_735 (Activation  (None, 14, 14, 1024)         0         ['group_normalization_713[0][0
 )                                                                  ]']                           
                                                                                                  
 padding_from_kernel_size_2  (None, 16, 16, 1024)         0         ['activation_735[0][0]']      
 51 (PaddingFromKernelSize)                                                                       
                                                                                                  
 conv2d_750 (Conv2D)         (None, 14, 14, 1024)         9437184   ['padding_from_kernel_size_251
                                                                    [0][0]']                      
                                                                                                  
 group_normalization_714 (G  (None, 14, 14, 1024)         2048      ['conv2d_750[0][0]']          
 roupNormalization)                                                                               
                                                                                                  
 activation_736 (Activation  (None, 14, 14, 1024)         0         ['group_normalization_714[0][0
 )                                                                  ]']                           
                                                                                                  
 conv2d_751 (Conv2D)         (None, 14, 14, 4096)         4194304   ['activation_736[0][0]']      
                                                                                                  
 add_235 (Add)               (None, 14, 14, 4096)         0         ['conv2d_751[0][0]',          
                                                                     'add_234[0][0]']             
                                                                                                  
 group_normalization_715 (G  (None, 14, 14, 4096)         8192      ['add_235[0][0]']             
 roupNormalization)                                                                               
                                                                                                  
 activation_737 (Activation  (None, 14, 14, 4096)         0         ['group_normalization_715[0][0
 )                                                                  ]']                           
                                                                                                  
 conv2d_752 (Conv2D)         (None, 14, 14, 1024)         4194304   ['activation_737[0][0]']      
                                                                                                  
 group_normalization_716 (G  (None, 14, 14, 1024)         2048      ['conv2d_752[0][0]']          
 roupNormalization)                                                                               
                                                                                                  
 activation_738 (Activation  (None, 14, 14, 1024)         0         ['group_normalization_716[0][0
 )                                                                  ]']                           
                                                                                                  
 padding_from_kernel_size_2  (None, 16, 16, 1024)         0         ['activation_738[0][0]']      
 52 (PaddingFromKernelSize)                                                                       
                                                                                                  
 conv2d_753 (Conv2D)         (None, 14, 14, 1024)         9437184   ['padding_from_kernel_size_252
                                                                    [0][0]']                      
                                                                                                  
 group_normalization_717 (G  (None, 14, 14, 1024)         2048      ['conv2d_753[0][0]']          
 roupNormalization)                                                                               
                                                                                                  
 activation_739 (Activation  (None, 14, 14, 1024)         0         ['group_normalization_717[0][0
 )                                                                  ]']                           
                                                                                                  
 conv2d_754 (Conv2D)         (None, 14, 14, 4096)         4194304   ['activation_739[0][0]']      
                                                                                                  
 add_236 (Add)               (None, 14, 14, 4096)         0         ['conv2d_754[0][0]',          
                                                                     'add_235[0][0]']             
                                                                                                  
 group_normalization_718 (G  (None, 14, 14, 4096)         8192      ['add_236[0][0]']             
 roupNormalization)                                                                               
                                                                                                  
 activation_740 (Activation  (None, 14, 14, 4096)         0         ['group_normalization_718[0][0
 )                                                                  ]']                           
                                                                                                  
 conv2d_755 (Conv2D)         (None, 14, 14, 1024)         4194304   ['activation_740[0][0]']      
                                                                                                  
 group_normalization_719 (G  (None, 14, 14, 1024)         2048      ['conv2d_755[0][0]']          
 roupNormalization)                                                                               
                                                                                                  
 activation_741 (Activation  (None, 14, 14, 1024)         0         ['group_normalization_719[0][0
 )                                                                  ]']                           
                                                                                                  
 padding_from_kernel_size_2  (None, 16, 16, 1024)         0         ['activation_741[0][0]']      
 53 (PaddingFromKernelSize)                                                                       
                                                                                                  
 conv2d_756 (Conv2D)         (None, 14, 14, 1024)         9437184   ['padding_from_kernel_size_253
                                                                    [0][0]']                      
                                                                                                  
 group_normalization_720 (G  (None, 14, 14, 1024)         2048      ['conv2d_756[0][0]']          
 roupNormalization)                                                                               
                                                                                                  
 activation_742 (Activation  (None, 14, 14, 1024)         0         ['group_normalization_720[0][0
 )                                                                  ]']                           
                                                                                                  
 conv2d_757 (Conv2D)         (None, 14, 14, 4096)         4194304   ['activation_742[0][0]']      
                                                                                                  
 add_237 (Add)               (None, 14, 14, 4096)         0         ['conv2d_757[0][0]',          
                                                                     'add_236[0][0]']             
                                                                                                  
 group_normalization_721 (G  (None, 14, 14, 4096)         8192      ['add_237[0][0]']             
 roupNormalization)                                                                               
                                                                                                  
 activation_743 (Activation  (None, 14, 14, 4096)         0         ['group_normalization_721[0][0
 )                                                                  ]']                           
                                                                                                  
 conv2d_758 (Conv2D)         (None, 14, 14, 1024)         4194304   ['activation_743[0][0]']      
                                                                                                  
 group_normalization_722 (G  (None, 14, 14, 1024)         2048      ['conv2d_758[0][0]']          
 roupNormalization)                                                                               
                                                                                                  
 activation_744 (Activation  (None, 14, 14, 1024)         0         ['group_normalization_722[0][0
 )                                                                  ]']                           
                                                                                                  
 padding_from_kernel_size_2  (None, 16, 16, 1024)         0         ['activation_744[0][0]']      
 54 (PaddingFromKernelSize)                                                                       
                                                                                                  
 conv2d_759 (Conv2D)         (None, 14, 14, 1024)         9437184   ['padding_from_kernel_size_254
                                                                    [0][0]']                      
                                                                                                  
 group_normalization_723 (G  (None, 14, 14, 1024)         2048      ['conv2d_759[0][0]']          
 roupNormalization)                                                                               
                                                                                                  
 activation_745 (Activation  (None, 14, 14, 1024)         0         ['group_normalization_723[0][0
 )                                                                  ]']                           
                                                                                                  
 conv2d_760 (Conv2D)         (None, 14, 14, 4096)         4194304   ['activation_745[0][0]']      
                                                                                                  
 add_238 (Add)               (None, 14, 14, 4096)         0         ['conv2d_760[0][0]',          
                                                                     'add_237[0][0]']             
                                                                                                  
 group_normalization_724 (G  (None, 14, 14, 4096)         8192      ['add_238[0][0]']             
 roupNormalization)                                                                               
                                                                                                  
 activation_746 (Activation  (None, 14, 14, 4096)         0         ['group_normalization_724[0][0
 )                                                                  ]']                           
                                                                                                  
 conv2d_761 (Conv2D)         (None, 14, 14, 1024)         4194304   ['activation_746[0][0]']      
                                                                                                  
 group_normalization_725 (G  (None, 14, 14, 1024)         2048      ['conv2d_761[0][0]']          
 roupNormalization)                                                                               
                                                                                                  
 activation_747 (Activation  (None, 14, 14, 1024)         0         ['group_normalization_725[0][0
 )                                                                  ]']                           
                                                                                                  
 padding_from_kernel_size_2  (None, 16, 16, 1024)         0         ['activation_747[0][0]']      
 55 (PaddingFromKernelSize)                                                                       
                                                                                                  
 conv2d_762 (Conv2D)         (None, 14, 14, 1024)         9437184   ['padding_from_kernel_size_255
                                                                    [0][0]']                      
                                                                                                  
 group_normalization_726 (G  (None, 14, 14, 1024)         2048      ['conv2d_762[0][0]']          
 roupNormalization)                                                                               
                                                                                                  
 activation_748 (Activation  (None, 14, 14, 1024)         0         ['group_normalization_726[0][0
 )                                                                  ]']                           
                                                                                                  
 conv2d_763 (Conv2D)         (None, 14, 14, 4096)         4194304   ['activation_748[0][0]']      
                                                                                                  
 add_239 (Add)               (None, 14, 14, 4096)         0         ['conv2d_763[0][0]',          
                                                                     'add_238[0][0]']             
                                                                                                  
 group_normalization_727 (G  (None, 14, 14, 4096)         8192      ['add_239[0][0]']             
 roupNormalization)                                                                               
                                                                                                  
 activation_749 (Activation  (None, 14, 14, 4096)         0         ['group_normalization_727[0][0
 )                                                                  ]']                           
                                                                                                  
 conv2d_764 (Conv2D)         (None, 14, 14, 1024)         4194304   ['activation_749[0][0]']      
                                                                                                  
 group_normalization_728 (G  (None, 14, 14, 1024)         2048      ['conv2d_764[0][0]']          
 roupNormalization)                                                                               
                                                                                                  
 activation_750 (Activation  (None, 14, 14, 1024)         0         ['group_normalization_728[0][0
 )                                                                  ]']                           
                                                                                                  
 padding_from_kernel_size_2  (None, 16, 16, 1024)         0         ['activation_750[0][0]']      
 56 (PaddingFromKernelSize)                                                                       
                                                                                                  
 conv2d_765 (Conv2D)         (None, 14, 14, 1024)         9437184   ['padding_from_kernel_size_256
                                                                    [0][0]']                      
                                                                                                  
 group_normalization_729 (G  (None, 14, 14, 1024)         2048      ['conv2d_765[0][0]']          
 roupNormalization)                                                                               
                                                                                                  
 activation_751 (Activation  (None, 14, 14, 1024)         0         ['group_normalization_729[0][0
 )                                                                  ]']                           
                                                                                                  
 conv2d_766 (Conv2D)         (None, 14, 14, 4096)         4194304   ['activation_751[0][0]']      
                                                                                                  
 add_240 (Add)               (None, 14, 14, 4096)         0         ['conv2d_766[0][0]',          
                                                                     'add_239[0][0]']             
                                                                                                  
 group_normalization_730 (G  (None, 14, 14, 4096)         8192      ['add_240[0][0]']             
 roupNormalization)                                                                               
                                                                                                  
 activation_752 (Activation  (None, 14, 14, 4096)         0         ['group_normalization_730[0][0
 )                                                                  ]']                           
                                                                                                  
 conv2d_767 (Conv2D)         (None, 14, 14, 1024)         4194304   ['activation_752[0][0]']      
                                                                                                  
 group_normalization_731 (G  (None, 14, 14, 1024)         2048      ['conv2d_767[0][0]']          
 roupNormalization)                                                                               
                                                                                                  
 activation_753 (Activation  (None, 14, 14, 1024)         0         ['group_normalization_731[0][0
 )                                                                  ]']                           
                                                                                                  
 padding_from_kernel_size_2  (None, 16, 16, 1024)         0         ['activation_753[0][0]']      
 57 (PaddingFromKernelSize)                                                                       
                                                                                                  
 conv2d_768 (Conv2D)         (None, 14, 14, 1024)         9437184   ['padding_from_kernel_size_257
                                                                    [0][0]']                      
                                                                                                  
 group_normalization_732 (G  (None, 14, 14, 1024)         2048      ['conv2d_768[0][0]']          
 roupNormalization)                                                                               
                                                                                                  
 activation_754 (Activation  (None, 14, 14, 1024)         0         ['group_normalization_732[0][0
 )                                                                  ]']                           
                                                                                                  
 conv2d_769 (Conv2D)         (None, 14, 14, 4096)         4194304   ['activation_754[0][0]']      
                                                                                                  
 add_241 (Add)               (None, 14, 14, 4096)         0         ['conv2d_769[0][0]',          
                                                                     'add_240[0][0]']             
                                                                                                  
 group_normalization_733 (G  (None, 14, 14, 4096)         8192      ['add_241[0][0]']             
 roupNormalization)                                                                               
                                                                                                  
 activation_755 (Activation  (None, 14, 14, 4096)         0         ['group_normalization_733[0][0
 )                                                                  ]']                           
                                                                                                  
 conv2d_770 (Conv2D)         (None, 14, 14, 1024)         4194304   ['activation_755[0][0]']      
                                                                                                  
 group_normalization_734 (G  (None, 14, 14, 1024)         2048      ['conv2d_770[0][0]']          
 roupNormalization)                                                                               
                                                                                                  
 activation_756 (Activation  (None, 14, 14, 1024)         0         ['group_normalization_734[0][0
 )                                                                  ]']                           
                                                                                                  
 padding_from_kernel_size_2  (None, 16, 16, 1024)         0         ['activation_756[0][0]']      
 58 (PaddingFromKernelSize)                                                                       
                                                                                                  
 conv2d_771 (Conv2D)         (None, 14, 14, 1024)         9437184   ['padding_from_kernel_size_258
                                                                    [0][0]']                      
                                                                                                  
 group_normalization_735 (G  (None, 14, 14, 1024)         2048      ['conv2d_771[0][0]']          
 roupNormalization)                                                                               
                                                                                                  
 activation_757 (Activation  (None, 14, 14, 1024)         0         ['group_normalization_735[0][0
 )                                                                  ]']                           
                                                                                                  
 conv2d_772 (Conv2D)         (None, 14, 14, 4096)         4194304   ['activation_757[0][0]']      
                                                                                                  
 add_242 (Add)               (None, 14, 14, 4096)         0         ['conv2d_772[0][0]',          
                                                                     'add_241[0][0]']             
                                                                                                  
 group_normalization_736 (G  (None, 14, 14, 4096)         8192      ['add_242[0][0]']             
 roupNormalization)                                                                               
                                                                                                  
 activation_758 (Activation  (None, 14, 14, 4096)         0         ['group_normalization_736[0][0
 )                                                                  ]']                           
                                                                                                  
 conv2d_773 (Conv2D)         (None, 14, 14, 1024)         4194304   ['activation_758[0][0]']      
                                                                                                  
 group_normalization_737 (G  (None, 14, 14, 1024)         2048      ['conv2d_773[0][0]']          
 roupNormalization)                                                                               
                                                                                                  
 activation_759 (Activation  (None, 14, 14, 1024)         0         ['group_normalization_737[0][0
 )                                                                  ]']                           
                                                                                                  
 padding_from_kernel_size_2  (None, 16, 16, 1024)         0         ['activation_759[0][0]']      
 59 (PaddingFromKernelSize)                                                                       
                                                                                                  
 conv2d_774 (Conv2D)         (None, 14, 14, 1024)         9437184   ['padding_from_kernel_size_259
                                                                    [0][0]']                      
                                                                                                  
 group_normalization_738 (G  (None, 14, 14, 1024)         2048      ['conv2d_774[0][0]']          
 roupNormalization)                                                                               
                                                                                                  
 activation_760 (Activation  (None, 14, 14, 1024)         0         ['group_normalization_738[0][0
 )                                                                  ]']                           
                                                                                                  
 conv2d_775 (Conv2D)         (None, 14, 14, 4096)         4194304   ['activation_760[0][0]']      
                                                                                                  
 add_243 (Add)               (None, 14, 14, 4096)         0         ['conv2d_775[0][0]',          
                                                                     'add_242[0][0]']             
                                                                                                  
 group_normalization_739 (G  (None, 14, 14, 4096)         8192      ['add_243[0][0]']             
 roupNormalization)                                                                               
                                                                                                  
 activation_761 (Activation  (None, 14, 14, 4096)         0         ['group_normalization_739[0][0
 )                                                                  ]']                           
                                                                                                  
 conv2d_776 (Conv2D)         (None, 14, 14, 1024)         4194304   ['activation_761[0][0]']      
                                                                                                  
 group_normalization_740 (G  (None, 14, 14, 1024)         2048      ['conv2d_776[0][0]']          
 roupNormalization)                                                                               
                                                                                                  
 activation_762 (Activation  (None, 14, 14, 1024)         0         ['group_normalization_740[0][0
 )                                                                  ]']                           
                                                                                                  
 padding_from_kernel_size_2  (None, 16, 16, 1024)         0         ['activation_762[0][0]']      
 60 (PaddingFromKernelSize)                                                                       
                                                                                                  
 conv2d_777 (Conv2D)         (None, 14, 14, 1024)         9437184   ['padding_from_kernel_size_260
                                                                    [0][0]']                      
                                                                                                  
 group_normalization_741 (G  (None, 14, 14, 1024)         2048      ['conv2d_777[0][0]']          
 roupNormalization)                                                                               
                                                                                                  
 activation_763 (Activation  (None, 14, 14, 1024)         0         ['group_normalization_741[0][0
 )                                                                  ]']                           
                                                                                                  
 conv2d_778 (Conv2D)         (None, 14, 14, 4096)         4194304   ['activation_763[0][0]']      
                                                                                                  
 add_244 (Add)               (None, 14, 14, 4096)         0         ['conv2d_778[0][0]',          
                                                                     'add_243[0][0]']             
                                                                                                  
 group_normalization_742 (G  (None, 14, 14, 4096)         8192      ['add_244[0][0]']             
 roupNormalization)                                                                               
                                                                                                  
 activation_764 (Activation  (None, 14, 14, 4096)         0         ['group_normalization_742[0][0
 )                                                                  ]']                           
                                                                                                  
 conv2d_779 (Conv2D)         (None, 14, 14, 1024)         4194304   ['activation_764[0][0]']      
                                                                                                  
 group_normalization_743 (G  (None, 14, 14, 1024)         2048      ['conv2d_779[0][0]']          
 roupNormalization)                                                                               
                                                                                                  
 activation_765 (Activation  (None, 14, 14, 1024)         0         ['group_normalization_743[0][0
 )                                                                  ]']                           
                                                                                                  
 padding_from_kernel_size_2  (None, 16, 16, 1024)         0         ['activation_765[0][0]']      
 61 (PaddingFromKernelSize)                                                                       
                                                                                                  
 conv2d_780 (Conv2D)         (None, 14, 14, 1024)         9437184   ['padding_from_kernel_size_261
                                                                    [0][0]']                      
                                                                                                  
 group_normalization_744 (G  (None, 14, 14, 1024)         2048      ['conv2d_780[0][0]']          
 roupNormalization)                                                                               
                                                                                                  
 activation_766 (Activation  (None, 14, 14, 1024)         0         ['group_normalization_744[0][0
 )                                                                  ]']                           
                                                                                                  
 conv2d_781 (Conv2D)         (None, 14, 14, 4096)         4194304   ['activation_766[0][0]']      
                                                                                                  
 add_245 (Add)               (None, 14, 14, 4096)         0         ['conv2d_781[0][0]',          
                                                                     'add_244[0][0]']             
                                                                                                  
 group_normalization_745 (G  (None, 14, 14, 4096)         8192      ['add_245[0][0]']             
 roupNormalization)                                                                               
                                                                                                  
 activation_767 (Activation  (None, 14, 14, 4096)         0         ['group_normalization_745[0][0
 )                                                                  ]']                           
                                                                                                  
 conv2d_782 (Conv2D)         (None, 14, 14, 1024)         4194304   ['activation_767[0][0]']      
                                                                                                  
 group_normalization_746 (G  (None, 14, 14, 1024)         2048      ['conv2d_782[0][0]']          
 roupNormalization)                                                                               
                                                                                                  
 activation_768 (Activation  (None, 14, 14, 1024)         0         ['group_normalization_746[0][0
 )                                                                  ]']                           
                                                                                                  
 padding_from_kernel_size_2  (None, 16, 16, 1024)         0         ['activation_768[0][0]']      
 62 (PaddingFromKernelSize)                                                                       
                                                                                                  
 conv2d_783 (Conv2D)         (None, 14, 14, 1024)         9437184   ['padding_from_kernel_size_262
                                                                    [0][0]']                      
                                                                                                  
 group_normalization_747 (G  (None, 14, 14, 1024)         2048      ['conv2d_783[0][0]']          
 roupNormalization)                                                                               
                                                                                                  
 activation_769 (Activation  (None, 14, 14, 1024)         0         ['group_normalization_747[0][0
 )                                                                  ]']                           
                                                                                                  
 conv2d_784 (Conv2D)         (None, 14, 14, 4096)         4194304   ['activation_769[0][0]']      
                                                                                                  
 add_246 (Add)               (None, 14, 14, 4096)         0         ['conv2d_784[0][0]',          
                                                                     'add_245[0][0]']             
                                                                                                  
 group_normalization_748 (G  (None, 14, 14, 4096)         8192      ['add_246[0][0]']             
 roupNormalization)                                                                               
                                                                                                  
 activation_770 (Activation  (None, 14, 14, 4096)         0         ['group_normalization_748[0][0
 )                                                                  ]']                           
                                                                                                  
 conv2d_785 (Conv2D)         (None, 14, 14, 1024)         4194304   ['activation_770[0][0]']      
                                                                                                  
 group_normalization_749 (G  (None, 14, 14, 1024)         2048      ['conv2d_785[0][0]']          
 roupNormalization)                                                                               
                                                                                                  
 activation_771 (Activation  (None, 14, 14, 1024)         0         ['group_normalization_749[0][0
 )                                                                  ]']                           
                                                                                                  
 padding_from_kernel_size_2  (None, 16, 16, 1024)         0         ['activation_771[0][0]']      
 63 (PaddingFromKernelSize)                                                                       
                                                                                                  
 conv2d_786 (Conv2D)         (None, 14, 14, 1024)         9437184   ['padding_from_kernel_size_263
                                                                    [0][0]']                      
                                                                                                  
 group_normalization_750 (G  (None, 14, 14, 1024)         2048      ['conv2d_786[0][0]']          
 roupNormalization)                                                                               
                                                                                                  
 activation_772 (Activation  (None, 14, 14, 1024)         0         ['group_normalization_750[0][0
 )                                                                  ]']                           
                                                                                                  
 conv2d_787 (Conv2D)         (None, 14, 14, 4096)         4194304   ['activation_772[0][0]']      
                                                                                                  
 add_247 (Add)               (None, 14, 14, 4096)         0         ['conv2d_787[0][0]',          
                                                                     'add_246[0][0]']             
                                                                                                  
 group_normalization_751 (G  (None, 14, 14, 4096)         8192      ['add_247[0][0]']             
 roupNormalization)                                                                               
                                                                                                  
 activation_773 (Activation  (None, 14, 14, 4096)         0         ['group_normalization_751[0][0
 )                                                                  ]']                           
                                                                                                  
 conv2d_788 (Conv2D)         (None, 14, 14, 1024)         4194304   ['activation_773[0][0]']      
                                                                                                  
 group_normalization_752 (G  (None, 14, 14, 1024)         2048      ['conv2d_788[0][0]']          
 roupNormalization)                                                                               
                                                                                                  
 activation_774 (Activation  (None, 14, 14, 1024)         0         ['group_normalization_752[0][0
 )                                                                  ]']                           
                                                                                                  
 padding_from_kernel_size_2  (None, 16, 16, 1024)         0         ['activation_774[0][0]']      
 64 (PaddingFromKernelSize)                                                                       
                                                                                                  
 conv2d_789 (Conv2D)         (None, 14, 14, 1024)         9437184   ['padding_from_kernel_size_264
                                                                    [0][0]']                      
                                                                                                  
 group_normalization_753 (G  (None, 14, 14, 1024)         2048      ['conv2d_789[0][0]']          
 roupNormalization)                                                                               
                                                                                                  
 activation_775 (Activation  (None, 14, 14, 1024)         0         ['group_normalization_753[0][0
 )                                                                  ]']                           
                                                                                                  
 conv2d_790 (Conv2D)         (None, 14, 14, 4096)         4194304   ['activation_775[0][0]']      
                                                                                                  
 add_248 (Add)               (None, 14, 14, 4096)         0         ['conv2d_790[0][0]',          
                                                                     'add_247[0][0]']             
                                                                                                  
 group_normalization_754 (G  (None, 14, 14, 4096)         8192      ['add_248[0][0]']             
 roupNormalization)                                                                               
                                                                                                  
 activation_776 (Activation  (None, 14, 14, 4096)         0         ['group_normalization_754[0][0
 )                                                                  ]']                           
                                                                                                  
 conv2d_791 (Conv2D)         (None, 14, 14, 1024)         4194304   ['activation_776[0][0]']      
                                                                                                  
 group_normalization_755 (G  (None, 14, 14, 1024)         2048      ['conv2d_791[0][0]']          
 roupNormalization)                                                                               
                                                                                                  
 activation_777 (Activation  (None, 14, 14, 1024)         0         ['group_normalization_755[0][0
 )                                                                  ]']                           
                                                                                                  
 padding_from_kernel_size_2  (None, 16, 16, 1024)         0         ['activation_777[0][0]']      
 65 (PaddingFromKernelSize)                                                                       
                                                                                                  
 conv2d_792 (Conv2D)         (None, 14, 14, 1024)         9437184   ['padding_from_kernel_size_265
                                                                    [0][0]']                      
                                                                                                  
 group_normalization_756 (G  (None, 14, 14, 1024)         2048      ['conv2d_792[0][0]']          
 roupNormalization)                                                                               
                                                                                                  
 activation_778 (Activation  (None, 14, 14, 1024)         0         ['group_normalization_756[0][0
 )                                                                  ]']                           
                                                                                                  
 conv2d_793 (Conv2D)         (None, 14, 14, 4096)         4194304   ['activation_778[0][0]']      
                                                                                                  
 add_249 (Add)               (None, 14, 14, 4096)         0         ['conv2d_793[0][0]',          
                                                                     'add_248[0][0]']             
                                                                                                  
 group_normalization_757 (G  (None, 14, 14, 4096)         8192      ['add_249[0][0]']             
 roupNormalization)                                                                               
                                                                                                  
 activation_779 (Activation  (None, 14, 14, 4096)         0         ['group_normalization_757[0][0
 )                                                                  ]']                           
                                                                                                  
 conv2d_794 (Conv2D)         (None, 14, 14, 1024)         4194304   ['activation_779[0][0]']      
                                                                                                  
 group_normalization_758 (G  (None, 14, 14, 1024)         2048      ['conv2d_794[0][0]']          
 roupNormalization)                                                                               
                                                                                                  
 activation_780 (Activation  (None, 14, 14, 1024)         0         ['group_normalization_758[0][0
 )                                                                  ]']                           
                                                                                                  
 padding_from_kernel_size_2  (None, 16, 16, 1024)         0         ['activation_780[0][0]']      
 66 (PaddingFromKernelSize)                                                                       
                                                                                                  
 conv2d_795 (Conv2D)         (None, 14, 14, 1024)         9437184   ['padding_from_kernel_size_266
                                                                    [0][0]']                      
                                                                                                  
 group_normalization_759 (G  (None, 14, 14, 1024)         2048      ['conv2d_795[0][0]']          
 roupNormalization)                                                                               
                                                                                                  
 activation_781 (Activation  (None, 14, 14, 1024)         0         ['group_normalization_759[0][0
 )                                                                  ]']                           
                                                                                                  
 conv2d_796 (Conv2D)         (None, 14, 14, 4096)         4194304   ['activation_781[0][0]']      
                                                                                                  
 add_250 (Add)               (None, 14, 14, 4096)         0         ['conv2d_796[0][0]',          
                                                                     'add_249[0][0]']             
                                                                                                  
 group_normalization_760 (G  (None, 14, 14, 4096)         8192      ['add_250[0][0]']             
 roupNormalization)                                                                               
                                                                                                  
 activation_782 (Activation  (None, 14, 14, 4096)         0         ['group_normalization_760[0][0
 )                                                                  ]']                           
                                                                                                  
 conv2d_797 (Conv2D)         (None, 14, 14, 1024)         4194304   ['activation_782[0][0]']      
                                                                                                  
 group_normalization_761 (G  (None, 14, 14, 1024)         2048      ['conv2d_797[0][0]']          
 roupNormalization)                                                                               
                                                                                                  
 activation_783 (Activation  (None, 14, 14, 1024)         0         ['group_normalization_761[0][0
 )                                                                  ]']                           
                                                                                                  
 padding_from_kernel_size_2  (None, 16, 16, 1024)         0         ['activation_783[0][0]']      
 67 (PaddingFromKernelSize)                                                                       
                                                                                                  
 conv2d_798 (Conv2D)         (None, 14, 14, 1024)         9437184   ['padding_from_kernel_size_267
                                                                    [0][0]']                      
                                                                                                  
 group_normalization_762 (G  (None, 14, 14, 1024)         2048      ['conv2d_798[0][0]']          
 roupNormalization)                                                                               
                                                                                                  
 activation_784 (Activation  (None, 14, 14, 1024)         0         ['group_normalization_762[0][0
 )                                                                  ]']                           
                                                                                                  
 conv2d_799 (Conv2D)         (None, 14, 14, 4096)         4194304   ['activation_784[0][0]']      
                                                                                                  
 add_251 (Add)               (None, 14, 14, 4096)         0         ['conv2d_799[0][0]',          
                                                                     'add_250[0][0]']             
                                                                                                  
 group_normalization_763 (G  (None, 14, 14, 4096)         8192      ['add_251[0][0]']             
 roupNormalization)                                                                               
                                                                                                  
 activation_785 (Activation  (None, 14, 14, 4096)         0         ['group_normalization_763[0][0
 )                                                                  ]']                           
                                                                                                  
 conv2d_800 (Conv2D)         (None, 14, 14, 1024)         4194304   ['activation_785[0][0]']      
                                                                                                  
 group_normalization_764 (G  (None, 14, 14, 1024)         2048      ['conv2d_800[0][0]']          
 roupNormalization)                                                                               
                                                                                                  
 activation_786 (Activation  (None, 14, 14, 1024)         0         ['group_normalization_764[0][0
 )                                                                  ]']                           
                                                                                                  
 padding_from_kernel_size_2  (None, 16, 16, 1024)         0         ['activation_786[0][0]']      
 68 (PaddingFromKernelSize)                                                                       
                                                                                                  
 conv2d_801 (Conv2D)         (None, 14, 14, 1024)         9437184   ['padding_from_kernel_size_268
                                                                    [0][0]']                      
                                                                                                  
 group_normalization_765 (G  (None, 14, 14, 1024)         2048      ['conv2d_801[0][0]']          
 roupNormalization)                                                                               
                                                                                                  
 activation_787 (Activation  (None, 14, 14, 1024)         0         ['group_normalization_765[0][0
 )                                                                  ]']                           
                                                                                                  
 conv2d_802 (Conv2D)         (None, 14, 14, 4096)         4194304   ['activation_787[0][0]']      
                                                                                                  
 add_252 (Add)               (None, 14, 14, 4096)         0         ['conv2d_802[0][0]',          
                                                                     'add_251[0][0]']             
                                                                                                  
 group_normalization_766 (G  (None, 14, 14, 4096)         8192      ['add_252[0][0]']             
 roupNormalization)                                                                               
                                                                                                  
 activation_788 (Activation  (None, 14, 14, 4096)         0         ['group_normalization_766[0][0
 )                                                                  ]']                           
                                                                                                  
 conv2d_803 (Conv2D)         (None, 14, 14, 1024)         4194304   ['activation_788[0][0]']      
                                                                                                  
 group_normalization_767 (G  (None, 14, 14, 1024)         2048      ['conv2d_803[0][0]']          
 roupNormalization)                                                                               
                                                                                                  
 activation_789 (Activation  (None, 14, 14, 1024)         0         ['group_normalization_767[0][0
 )                                                                  ]']                           
                                                                                                  
 padding_from_kernel_size_2  (None, 16, 16, 1024)         0         ['activation_789[0][0]']      
 69 (PaddingFromKernelSize)                                                                       
                                                                                                  
 conv2d_804 (Conv2D)         (None, 14, 14, 1024)         9437184   ['padding_from_kernel_size_269
                                                                    [0][0]']                      
                                                                                                  
 group_normalization_768 (G  (None, 14, 14, 1024)         2048      ['conv2d_804[0][0]']          
 roupNormalization)                                                                               
                                                                                                  
 activation_790 (Activation  (None, 14, 14, 1024)         0         ['group_normalization_768[0][0
 )                                                                  ]']                           
                                                                                                  
 conv2d_805 (Conv2D)         (None, 14, 14, 4096)         4194304   ['activation_790[0][0]']      
                                                                                                  
 add_253 (Add)               (None, 14, 14, 4096)         0         ['conv2d_805[0][0]',          
                                                                     'add_252[0][0]']             
                                                                                                  
 group_normalization_769 (G  (None, 14, 14, 4096)         8192      ['add_253[0][0]']             
 roupNormalization)                                                                               
                                                                                                  
 activation_791 (Activation  (None, 14, 14, 4096)         0         ['group_normalization_769[0][0
 )                                                                  ]']                           
                                                                                                  
 conv2d_806 (Conv2D)         (None, 14, 14, 1024)         4194304   ['activation_791[0][0]']      
                                                                                                  
 group_normalization_770 (G  (None, 14, 14, 1024)         2048      ['conv2d_806[0][0]']          
 roupNormalization)                                                                               
                                                                                                  
 activation_792 (Activation  (None, 14, 14, 1024)         0         ['group_normalization_770[0][0
 )                                                                  ]']                           
                                                                                                  
 padding_from_kernel_size_2  (None, 16, 16, 1024)         0         ['activation_792[0][0]']      
 70 (PaddingFromKernelSize)                                                                       
                                                                                                  
 conv2d_807 (Conv2D)         (None, 14, 14, 1024)         9437184   ['padding_from_kernel_size_270
                                                                    [0][0]']                      
                                                                                                  
 group_normalization_771 (G  (None, 14, 14, 1024)         2048      ['conv2d_807[0][0]']          
 roupNormalization)                                                                               
                                                                                                  
 activation_793 (Activation  (None, 14, 14, 1024)         0         ['group_normalization_771[0][0
 )                                                                  ]']                           
                                                                                                  
 conv2d_808 (Conv2D)         (None, 14, 14, 4096)         4194304   ['activation_793[0][0]']      
                                                                                                  
 add_254 (Add)               (None, 14, 14, 4096)         0         ['conv2d_808[0][0]',          
                                                                     'add_253[0][0]']             
                                                                                                  
 group_normalization_772 (G  (None, 14, 14, 4096)         8192      ['add_254[0][0]']             
 roupNormalization)                                                                               
                                                                                                  
 activation_794 (Activation  (None, 14, 14, 4096)         0         ['group_normalization_772[0][0
 )                                                                  ]']                           
                                                                                                  
 conv2d_809 (Conv2D)         (None, 14, 14, 1024)         4194304   ['activation_794[0][0]']      
                                                                                                  
 group_normalization_773 (G  (None, 14, 14, 1024)         2048      ['conv2d_809[0][0]']          
 roupNormalization)                                                                               
                                                                                                  
 activation_795 (Activation  (None, 14, 14, 1024)         0         ['group_normalization_773[0][0
 )                                                                  ]']                           
                                                                                                  
 padding_from_kernel_size_2  (None, 16, 16, 1024)         0         ['activation_795[0][0]']      
 71 (PaddingFromKernelSize)                                                                       
                                                                                                  
 conv2d_810 (Conv2D)         (None, 14, 14, 1024)         9437184   ['padding_from_kernel_size_271
                                                                    [0][0]']                      
                                                                                                  
 group_normalization_774 (G  (None, 14, 14, 1024)         2048      ['conv2d_810[0][0]']          
 roupNormalization)                                                                               
                                                                                                  
 activation_796 (Activation  (None, 14, 14, 1024)         0         ['group_normalization_774[0][0
 )                                                                  ]']                           
                                                                                                  
 conv2d_811 (Conv2D)         (None, 14, 14, 4096)         4194304   ['activation_796[0][0]']      
                                                                                                  
 add_255 (Add)               (None, 14, 14, 4096)         0         ['conv2d_811[0][0]',          
                                                                     'add_254[0][0]']             
                                                                                                  
 group_normalization_775 (G  (None, 14, 14, 4096)         8192      ['add_255[0][0]']             
 roupNormalization)                                                                               
                                                                                                  
 activation_797 (Activation  (None, 14, 14, 4096)         0         ['group_normalization_775[0][0
 )                                                                  ]']                           
                                                                                                  
 conv2d_812 (Conv2D)         (None, 14, 14, 1024)         4194304   ['activation_797[0][0]']      
                                                                                                  
 group_normalization_776 (G  (None, 14, 14, 1024)         2048      ['conv2d_812[0][0]']          
 roupNormalization)                                                                               
                                                                                                  
 activation_798 (Activation  (None, 14, 14, 1024)         0         ['group_normalization_776[0][0
 )                                                                  ]']                           
                                                                                                  
 padding_from_kernel_size_2  (None, 16, 16, 1024)         0         ['activation_798[0][0]']      
 72 (PaddingFromKernelSize)                                                                       
                                                                                                  
 conv2d_813 (Conv2D)         (None, 14, 14, 1024)         9437184   ['padding_from_kernel_size_272
                                                                    [0][0]']                      
                                                                                                  
 group_normalization_777 (G  (None, 14, 14, 1024)         2048      ['conv2d_813[0][0]']          
 roupNormalization)                                                                               
                                                                                                  
 activation_799 (Activation  (None, 14, 14, 1024)         0         ['group_normalization_777[0][0
 )                                                                  ]']                           
                                                                                                  
 conv2d_814 (Conv2D)         (None, 14, 14, 4096)         4194304   ['activation_799[0][0]']      
                                                                                                  
 add_256 (Add)               (None, 14, 14, 4096)         0         ['conv2d_814[0][0]',          
                                                                     'add_255[0][0]']             
                                                                                                  
 group_normalization_778 (G  (None, 14, 14, 4096)         8192      ['add_256[0][0]']             
 roupNormalization)                                                                               
                                                                                                  
 activation_800 (Activation  (None, 14, 14, 4096)         0         ['group_normalization_778[0][0
 )                                                                  ]']                           
                                                                                                  
 conv2d_815 (Conv2D)         (None, 14, 14, 1024)         4194304   ['activation_800[0][0]']      
                                                                                                  
 group_normalization_779 (G  (None, 14, 14, 1024)         2048      ['conv2d_815[0][0]']          
 roupNormalization)                                                                               
                                                                                                  
 activation_801 (Activation  (None, 14, 14, 1024)         0         ['group_normalization_779[0][0
 )                                                                  ]']                           
                                                                                                  
 padding_from_kernel_size_2  (None, 16, 16, 1024)         0         ['activation_801[0][0]']      
 73 (PaddingFromKernelSize)                                                                       
                                                                                                  
 conv2d_816 (Conv2D)         (None, 14, 14, 1024)         9437184   ['padding_from_kernel_size_273
                                                                    [0][0]']                      
                                                                                                  
 group_normalization_780 (G  (None, 14, 14, 1024)         2048      ['conv2d_816[0][0]']          
 roupNormalization)                                                                               
                                                                                                  
 activation_802 (Activation  (None, 14, 14, 1024)         0         ['group_normalization_780[0][0
 )                                                                  ]']                           
                                                                                                  
 conv2d_817 (Conv2D)         (None, 14, 14, 4096)         4194304   ['activation_802[0][0]']      
                                                                                                  
 add_257 (Add)               (None, 14, 14, 4096)         0         ['conv2d_817[0][0]',          
                                                                     'add_256[0][0]']             
                                                                                                  
 group_normalization_781 (G  (None, 14, 14, 4096)         8192      ['add_257[0][0]']             
 roupNormalization)                                                                               
                                                                                                  
 activation_803 (Activation  (None, 14, 14, 4096)         0         ['group_normalization_781[0][0
 )                                                                  ]']                           
                                                                                                  
 conv2d_818 (Conv2D)         (None, 14, 14, 1024)         4194304   ['activation_803[0][0]']      
                                                                                                  
 group_normalization_782 (G  (None, 14, 14, 1024)         2048      ['conv2d_818[0][0]']          
 roupNormalization)                                                                               
                                                                                                  
 activation_804 (Activation  (None, 14, 14, 1024)         0         ['group_normalization_782[0][0
 )                                                                  ]']                           
                                                                                                  
 padding_from_kernel_size_2  (None, 16, 16, 1024)         0         ['activation_804[0][0]']      
 74 (PaddingFromKernelSize)                                                                       
                                                                                                  
 conv2d_819 (Conv2D)         (None, 14, 14, 1024)         9437184   ['padding_from_kernel_size_274
                                                                    [0][0]']                      
                                                                                                  
 group_normalization_783 (G  (None, 14, 14, 1024)         2048      ['conv2d_819[0][0]']          
 roupNormalization)                                                                               
                                                                                                  
 activation_805 (Activation  (None, 14, 14, 1024)         0         ['group_normalization_783[0][0
 )                                                                  ]']                           
                                                                                                  
 conv2d_820 (Conv2D)         (None, 14, 14, 4096)         4194304   ['activation_805[0][0]']      
                                                                                                  
 add_258 (Add)               (None, 14, 14, 4096)         0         ['conv2d_820[0][0]',          
                                                                     'add_257[0][0]']             
                                                                                                  
 group_normalization_784 (G  (None, 14, 14, 4096)         8192      ['add_258[0][0]']             
 roupNormalization)                                                                               
                                                                                                  
 activation_806 (Activation  (None, 14, 14, 4096)         0         ['group_normalization_784[0][0
 )                                                                  ]']                           
                                                                                                  
 conv2d_821 (Conv2D)         (None, 14, 14, 1024)         4194304   ['activation_806[0][0]']      
                                                                                                  
 group_normalization_785 (G  (None, 14, 14, 1024)         2048      ['conv2d_821[0][0]']          
 roupNormalization)                                                                               
                                                                                                  
 activation_807 (Activation  (None, 14, 14, 1024)         0         ['group_normalization_785[0][0
 )                                                                  ]']                           
                                                                                                  
 padding_from_kernel_size_2  (None, 16, 16, 1024)         0         ['activation_807[0][0]']      
 75 (PaddingFromKernelSize)                                                                       
                                                                                                  
 conv2d_822 (Conv2D)         (None, 14, 14, 1024)         9437184   ['padding_from_kernel_size_275
                                                                    [0][0]']                      
                                                                                                  
 group_normalization_786 (G  (None, 14, 14, 1024)         2048      ['conv2d_822[0][0]']          
 roupNormalization)                                                                               
                                                                                                  
 activation_808 (Activation  (None, 14, 14, 1024)         0         ['group_normalization_786[0][0
 )                                                                  ]']                           
                                                                                                  
 conv2d_823 (Conv2D)         (None, 14, 14, 4096)         4194304   ['activation_808[0][0]']      
                                                                                                  
 add_259 (Add)               (None, 14, 14, 4096)         0         ['conv2d_823[0][0]',          
                                                                     'add_258[0][0]']             
                                                                                                  
 group_normalization_787 (G  (None, 14, 14, 4096)         8192      ['add_259[0][0]']             
 roupNormalization)                                                                               
                                                                                                  
 activation_809 (Activation  (None, 14, 14, 4096)         0         ['group_normalization_787[0][0
 )                                                                  ]']                           
                                                                                                  
 conv2d_824 (Conv2D)         (None, 14, 14, 1024)         4194304   ['activation_809[0][0]']      
                                                                                                  
 group_normalization_788 (G  (None, 14, 14, 1024)         2048      ['conv2d_824[0][0]']          
 roupNormalization)                                                                               
                                                                                                  
 activation_810 (Activation  (None, 14, 14, 1024)         0         ['group_normalization_788[0][0
 )                                                                  ]']                           
                                                                                                  
 padding_from_kernel_size_2  (None, 16, 16, 1024)         0         ['activation_810[0][0]']      
 76 (PaddingFromKernelSize)                                                                       
                                                                                                  
 conv2d_825 (Conv2D)         (None, 14, 14, 1024)         9437184   ['padding_from_kernel_size_276
                                                                    [0][0]']                      
                                                                                                  
 group_normalization_789 (G  (None, 14, 14, 1024)         2048      ['conv2d_825[0][0]']          
 roupNormalization)                                                                               
                                                                                                  
 activation_811 (Activation  (None, 14, 14, 1024)         0         ['group_normalization_789[0][0
 )                                                                  ]']                           
                                                                                                  
 conv2d_826 (Conv2D)         (None, 14, 14, 4096)         4194304   ['activation_811[0][0]']      
                                                                                                  
 add_260 (Add)               (None, 14, 14, 4096)         0         ['conv2d_826[0][0]',          
                                                                     'add_259[0][0]']             
                                                                                                  
 group_normalization_790 (G  (None, 14, 14, 4096)         8192      ['add_260[0][0]']             
 roupNormalization)                                                                               
                                                                                                  
 activation_812 (Activation  (None, 14, 14, 4096)         0         ['group_normalization_790[0][0
 )                                                                  ]']                           
                                                                                                  
 conv2d_828 (Conv2D)         (None, 14, 14, 2048)         8388608   ['activation_812[0][0]']      
                                                                                                  
 group_normalization_791 (G  (None, 14, 14, 2048)         4096      ['conv2d_828[0][0]']          
 roupNormalization)                                                                               
                                                                                                  
 activation_813 (Activation  (None, 14, 14, 2048)         0         ['group_normalization_791[0][0
 )                                                                  ]']                           
                                                                                                  
 padding_from_kernel_size_2  (None, 16, 16, 2048)         0         ['activation_813[0][0]']      
 77 (PaddingFromKernelSize)                                                                       
                                                                                                  
 conv2d_829 (Conv2D)         (None, 7, 7, 2048)           3774873   ['padding_from_kernel_size_277
                                                          6         [0][0]']                      
                                                                                                  
 group_normalization_792 (G  (None, 7, 7, 2048)           4096      ['conv2d_829[0][0]']          
 roupNormalization)                                                                               
                                                                                                  
 activation_814 (Activation  (None, 7, 7, 2048)           0         ['group_normalization_792[0][0
 )                                                                  ]']                           
                                                                                                  
 conv2d_830 (Conv2D)         (None, 7, 7, 8192)           1677721   ['activation_814[0][0]']      
                                                          6                                       
                                                                                                  
 conv2d_827 (Conv2D)         (None, 7, 7, 8192)           3355443   ['activation_812[0][0]']      
                                                          2                                       
                                                                                                  
 add_261 (Add)               (None, 7, 7, 8192)           0         ['conv2d_830[0][0]',          
                                                                     'conv2d_827[0][0]']          
                                                                                                  
 group_normalization_793 (G  (None, 7, 7, 8192)           16384     ['add_261[0][0]']             
 roupNormalization)                                                                               
                                                                                                  
 activation_815 (Activation  (None, 7, 7, 8192)           0         ['group_normalization_793[0][0
 )                                                                  ]']                           
                                                                                                  
 conv2d_831 (Conv2D)         (None, 7, 7, 2048)           1677721   ['activation_815[0][0]']      
                                                          6                                       
                                                                                                  
 group_normalization_794 (G  (None, 7, 7, 2048)           4096      ['conv2d_831[0][0]']          
 roupNormalization)                                                                               
                                                                                                  
 activation_816 (Activation  (None, 7, 7, 2048)           0         ['group_normalization_794[0][0
 )                                                                  ]']                           
                                                                                                  
 padding_from_kernel_size_2  (None, 9, 9, 2048)           0         ['activation_816[0][0]']      
 78 (PaddingFromKernelSize)                                                                       
                                                                                                  
 conv2d_832 (Conv2D)         (None, 7, 7, 2048)           3774873   ['padding_from_kernel_size_278
                                                          6         [0][0]']                      
                                                                                                  
 group_normalization_795 (G  (None, 7, 7, 2048)           4096      ['conv2d_832[0][0]']          
 roupNormalization)                                                                               
                                                                                                  
 activation_817 (Activation  (None, 7, 7, 2048)           0         ['group_normalization_795[0][0
 )                                                                  ]']                           
                                                                                                  
 conv2d_833 (Conv2D)         (None, 7, 7, 8192)           1677721   ['activation_817[0][0]']      
                                                          6                                       
                                                                                                  
 add_262 (Add)               (None, 7, 7, 8192)           0         ['conv2d_833[0][0]',          
                                                                     'add_261[0][0]']             
                                                                                                  
 group_normalization_796 (G  (None, 7, 7, 8192)           16384     ['add_262[0][0]']             
 roupNormalization)                                                                               
                                                                                                  
 activation_818 (Activation  (None, 7, 7, 8192)           0         ['group_normalization_796[0][0
 )                                                                  ]']                           
                                                                                                  
 conv2d_834 (Conv2D)         (None, 7, 7, 2048)           1677721   ['activation_818[0][0]']      
                                                          6                                       
                                                                                                  
 group_normalization_797 (G  (None, 7, 7, 2048)           4096      ['conv2d_834[0][0]']          
 roupNormalization)                                                                               
                                                                                                  
 activation_819 (Activation  (None, 7, 7, 2048)           0         ['group_normalization_797[0][0
 )                                                                  ]']                           
                                                                                                  
 padding_from_kernel_size_2  (None, 9, 9, 2048)           0         ['activation_819[0][0]']      
 79 (PaddingFromKernelSize)                                                                       
                                                                                                  
 conv2d_835 (Conv2D)         (None, 7, 7, 2048)           3774873   ['padding_from_kernel_size_279
                                                          6         [0][0]']                      
                                                                                                  
 group_normalization_798 (G  (None, 7, 7, 2048)           4096      ['conv2d_835[0][0]']          
 roupNormalization)                                                                               
                                                                                                  
 activation_820 (Activation  (None, 7, 7, 2048)           0         ['group_normalization_798[0][0
 )                                                                  ]']                           
                                                                                                  
 conv2d_836 (Conv2D)         (None, 7, 7, 8192)           1677721   ['activation_820[0][0]']      
                                                          6                                       
                                                                                                  
 add_263 (Add)               (None, 7, 7, 8192)           0         ['conv2d_836[0][0]',          
                                                                     'add_262[0][0]']             
                                                                                                  
 activation_821 (Activation  (None, 7, 7, 8192)           0         ['add_263[0][0]']             
 )                                                                                                
                                                                                                  
 group_normalization_799 (G  (None, 7, 7, 8192)           16384     ['activation_821[0][0]']      
 roupNormalization)                                                                               
                                                                                                  
 global_average_pooling2d_7  (None, 8192)                 0         ['group_normalization_799[0][0
  (GlobalAveragePooling2D)                                          ]']                           
                                                                                                  
 predictions (Dense)         (None, 1000)                 8193000   ['global_average_pooling2d_7[0
                                                                    ][0]']                        
                                                                                                  
 activation_822 (Activation  (None, 1000)                 0         ['predictions[0][0]']         
 )                                                                                                
                                                                                                  
==================================================================================================
Total params: 936258856 (-549931872.00 Byte)
Trainable params: 936258856 (-549931872.00 Byte)
…
