Model: "BiT-M-R152x4"
__________________________________________________________________________________________________
 Layer (type)                Output Shape                 Param #   Connected to                  
==================================================================================================
 input_11 (InputLayer)       [(None, 224, 224, 3)]        0         []                            
                                                                                                  
 padding_from_kernel_size_7  (None, 230, 230, 3)          0         ['input_11[0][0]']            
 0 (PaddingFromKernelSize)                                                                        
                                                                                                  
 conv2d_213 (Conv2D)         (None, 112, 112, 64)         9408      ['padding_from_kernel_size_70[
                                                                    0][0]']                       
                                                                                                  
 padding_from_kernel_size_7  (None, 114, 114, 64)         0         ['conv2d_213[0][0]']          
 1 (PaddingFromKernelSize)                                                                        
                                                                                                  
 max_pooling2d_5 (MaxPoolin  (None, 56, 56, 64)           0         ['padding_from_kernel_size_71[
 g2D)                                                               0][0]']                       
                                                                                                  
 group_normalization_200 (G  (None, 56, 56, 64)           128       ['max_pooling2d_5[0][0]']     
 roupNormalization)                                                                               
                                                                                                  
 activation_217 (Activation  (None, 56, 56, 64)           0         ['group_normalization_200[0][0
 )                                                                  ]']                           
                                                                                                  
 conv2d_215 (Conv2D)         (None, 56, 56, 256)          16384     ['activation_217[0][0]']      
                                                                                                  
 group_normalization_201 (G  (None, 56, 56, 256)          512       ['conv2d_215[0][0]']          
 roupNormalization)                                                                               
                                                                                                  
 activation_218 (Activation  (None, 56, 56, 256)          0         ['group_normalization_201[0][0
 )                                                                  ]']                           
                                                                                                  
 padding_from_kernel_size_7  (None, 58, 58, 256)          0         ['activation_218[0][0]']      
 2 (PaddingFromKernelSize)                                                                        
                                                                                                  
 conv2d_216 (Conv2D)         (None, 56, 56, 256)          589824    ['padding_from_kernel_size_72[
                                                                    0][0]']                       
                                                                                                  
 group_normalization_202 (G  (None, 56, 56, 256)          512       ['conv2d_216[0][0]']          
 roupNormalization)                                                                               
                                                                                                  
 activation_219 (Activation  (None, 56, 56, 256)          0         ['group_normalization_202[0][0
 )                                                                  ]']                           
                                                                                                  
 conv2d_217 (Conv2D)         (None, 56, 56, 1024)         262144    ['activation_219[0][0]']      
                                                                                                  
 conv2d_214 (Conv2D)         (None, 56, 56, 1024)         65536     ['activation_217[0][0]']      
                                                                                                  
 add_66 (Add)                (None, 56, 56, 1024)         0         ['conv2d_217[0][0]',          
                                                                     'conv2d_214[0][0]']          
                                                                                                  
 group_normalization_203 (G  (None, 56, 56, 1024)         2048      ['add_66[0][0]']              
 roupNormalization)                                                                               
                                                                                                  
 activation_220 (Activation  (None, 56, 56, 1024)         0         ['group_normalization_203[0][0
 )                                                                  ]']                           
                                                                                                  
 conv2d_218 (Conv2D)         (None, 56, 56, 256)          262144    ['activation_220[0][0]']      
                                                                                                  
 group_normalization_204 (G  (None, 56, 56, 256)          512       ['conv2d_218[0][0]']          
 roupNormalization)                                                                               
                                                                                                  
 activation_221 (Activation  (None, 56, 56, 256)          0         ['group_normalization_204[0][0
 )                                                                  ]']                           
                                                                                                  
 padding_from_kernel_size_7  (None, 58, 58, 256)          0         ['activation_221[0][0]']      
 3 (PaddingFromKernelSize)                                                                        
                                                                                                  
 conv2d_219 (Conv2D)         (None, 56, 56, 256)          589824    ['padding_from_kernel_size_73[
                                                                    0][0]']                       
                                                                                                  
 group_normalization_205 (G  (None, 56, 56, 256)          512       ['conv2d_219[0][0]']          
 roupNormalization)                                                                               
                                                                                                  
 activation_222 (Activation  (None, 56, 56, 256)          0         ['group_normalization_205[0][0
 )                                                                  ]']                           
                                                                                                  
 conv2d_220 (Conv2D)         (None, 56, 56, 1024)         262144    ['activation_222[0][0]']      
                                                                                                  
 add_67 (Add)                (None, 56, 56, 1024)         0         ['conv2d_220[0][0]',          
                                                                     'add_66[0][0]']              
                                                                                                  
 group_normalization_206 (G  (None, 56, 56, 1024)         2048      ['add_67[0][0]']              
 roupNormalization)                                                                               
                                                                                                  
 activation_223 (Activation  (None, 56, 56, 1024)         0         ['group_normalization_206[0][0
 )                                                                  ]']                           
                                                                                                  
 conv2d_221 (Conv2D)         (None, 56, 56, 256)          262144    ['activation_223[0][0]']      
                                                                                                  
 group_normalization_207 (G  (None, 56, 56, 256)          512       ['conv2d_221[0][0]']          
 roupNormalization)                                                                               
                                                                                                  
 activation_224 (Activation  (None, 56, 56, 256)          0         ['group_normalization_207[0][0
 )                                                                  ]']                           
                                                                                                  
 padding_from_kernel_size_7  (None, 58, 58, 256)          0         ['activation_224[0][0]']      
 4 (PaddingFromKernelSize)                                                                        
                                                                                                  
 conv2d_222 (Conv2D)         (None, 56, 56, 256)          589824    ['padding_from_kernel_size_74[
                                                                    0][0]']                       
                                                                                                  
 group_normalization_208 (G  (None, 56, 56, 256)          512       ['conv2d_222[0][0]']          
 roupNormalization)                                                                               
                                                                                                  
 activation_225 (Activation  (None, 56, 56, 256)          0         ['group_normalization_208[0][0
 )                                                                  ]']                           
                                                                                                  
 conv2d_223 (Conv2D)         (None, 56, 56, 1024)         262144    ['activation_225[0][0]']      
                                                                                                  
 add_68 (Add)                (None, 56, 56, 1024)         0         ['conv2d_223[0][0]',          
                                                                     'add_67[0][0]']              
                                                                                                  
 group_normalization_209 (G  (None, 56, 56, 1024)         2048      ['add_68[0][0]']              
 roupNormalization)                                                                               
                                                                                                  
 activation_226 (Activation  (None, 56, 56, 1024)         0         ['group_normalization_209[0][0
 )                                                                  ]']                           
                                                                                                  
 conv2d_225 (Conv2D)         (None, 56, 56, 512)          524288    ['activation_226[0][0]']      
                                                                                                  
 group_normalization_210 (G  (None, 56, 56, 512)          1024      ['conv2d_225[0][0]']          
 roupNormalization)                                                                               
                                                                                                  
 activation_227 (Activation  (None, 56, 56, 512)          0         ['group_normalization_210[0][0
 )                                                                  ]']                           
                                                                                                  
 padding_from_kernel_size_7  (None, 58, 58, 512)          0         ['activation_227[0][0]']      
 5 (PaddingFromKernelSize)                                                                        
                                                                                                  
 conv2d_226 (Conv2D)         (None, 28, 28, 512)          2359296   ['padding_from_kernel_size_75[
                                                                    0][0]']                       
                                                                                                  
 group_normalization_211 (G  (None, 28, 28, 512)          1024      ['conv2d_226[0][0]']          
 roupNormalization)                                                                               
                                                                                                  
 activation_228 (Activation  (None, 28, 28, 512)          0         ['group_normalization_211[0][0
 )                                                                  ]']                           
                                                                                                  
 conv2d_227 (Conv2D)         (None, 28, 28, 2048)         1048576   ['activation_228[0][0]']      
                                                                                                  
 conv2d_224 (Conv2D)         (None, 28, 28, 2048)         2097152   ['activation_226[0][0]']      
                                                                                                  
 add_69 (Add)                (None, 28, 28, 2048)         0         ['conv2d_227[0][0]',          
                                                                     'conv2d_224[0][0]']          
                                                                                                  
 group_normalization_212 (G  (None, 28, 28, 2048)         4096      ['add_69[0][0]']              
 roupNormalization)                                                                               
                                                                                                  
 activation_229 (Activation  (None, 28, 28, 2048)         0         ['group_normalization_212[0][0
 )                                                                  ]']                           
                                                                                                  
 conv2d_228 (Conv2D)         (None, 28, 28, 512)          1048576   ['activation_229[0][0]']      
                                                                                                  
 group_normalization_213 (G  (None, 28, 28, 512)          1024      ['conv2d_228[0][0]']          
 roupNormalization)                                                                               
                                                                                                  
 activation_230 (Activation  (None, 28, 28, 512)          0         ['group_normalization_213[0][0
 )                                                                  ]']                           
                                                                                                  
 padding_from_kernel_size_7  (None, 30, 30, 512)          0         ['activation_230[0][0]']      
 6 (PaddingFromKernelSize)                                                                        
                                                                                                  
 conv2d_229 (Conv2D)         (None, 28, 28, 512)          2359296   ['padding_from_kernel_size_76[
                                                                    0][0]']                       
                                                                                                  
 group_normalization_214 (G  (None, 28, 28, 512)          1024      ['conv2d_229[0][0]']          
 roupNormalization)                                                                               
                                                                                                  
 activation_231 (Activation  (None, 28, 28, 512)          0         ['group_normalization_214[0][0
 )                                                                  ]']                           
                                                                                                  
 conv2d_230 (Conv2D)         (None, 28, 28, 2048)         1048576   ['activation_231[0][0]']      
                                                                                                  
 add_70 (Add)                (None, 28, 28, 2048)         0         ['conv2d_230[0][0]',          
                                                                     'add_69[0][0]']              
                                                                                                  
 group_normalization_215 (G  (None, 28, 28, 2048)         4096      ['add_70[0][0]']              
 roupNormalization)                                                                               
                                                                                                  
 activation_232 (Activation  (None, 28, 28, 2048)         0         ['group_normalization_215[0][0
 )                                                                  ]']                           
                                                                                                  
 conv2d_231 (Conv2D)         (None, 28, 28, 512)          1048576   ['activation_232[0][0]']      
                                                                                                  
 group_normalization_216 (G  (None, 28, 28, 512)          1024      ['conv2d_231[0][0]']          
 roupNormalization)                                                                               
                                                                                                  
 activation_233 (Activation  (None, 28, 28, 512)          0         ['group_normalization_216[0][0
 )                                                                  ]']                           
                                                                                                  
 padding_from_kernel_size_7  (None, 30, 30, 512)          0         ['activation_233[0][0]']      
 7 (PaddingFromKernelSize)                                                                        
                                                                                                  
 conv2d_232 (Conv2D)         (None, 28, 28, 512)          2359296   ['padding_from_kernel_size_77[
                                                                    0][0]']                       
                                                                                                  
 group_normalization_217 (G  (None, 28, 28, 512)          1024      ['conv2d_232[0][0]']          
 roupNormalization)                                                                               
                                                                                                  
 activation_234 (Activation  (None, 28, 28, 512)          0         ['group_normalization_217[0][0
 )                                                                  ]']                           
                                                                                                  
 conv2d_233 (Conv2D)         (None, 28, 28, 2048)         1048576   ['activation_234[0][0]']      
                                                                                                  
 add_71 (Add)                (None, 28, 28, 2048)         0         ['conv2d_233[0][0]',          
                                                                     'add_70[0][0]']              
                                                                                                  
 group_normalization_218 (G  (None, 28, 28, 2048)         4096      ['add_71[0][0]']              
 roupNormalization)                                                                               
                                                                                                  
 activation_235 (Activation  (None, 28, 28, 2048)         0         ['group_normalization_218[0][0
 )                                                                  ]']                           
                                                                                                  
 conv2d_234 (Conv2D)         (None, 28, 28, 512)          1048576   ['activation_235[0][0]']      
                                                                                                  
 group_normalization_219 (G  (None, 28, 28, 512)          1024      ['conv2d_234[0][0]']          
 roupNormalization)                                                                               
                                                                                                  
 activation_236 (Activation  (None, 28, 28, 512)          0         ['group_normalization_219[0][0
 )                                                                  ]']                           
                                                                                                  
 padding_from_kernel_size_7  (None, 30, 30, 512)          0         ['activation_236[0][0]']      
 8 (PaddingFromKernelSize)                                                                        
                                                                                                  
 conv2d_235 (Conv2D)         (None, 28, 28, 512)          2359296   ['padding_from_kernel_size_78[
                                                                    0][0]']                       
                                                                                                  
 group_normalization_220 (G  (None, 28, 28, 512)          1024      ['conv2d_235[0][0]']          
 roupNormalization)                                                                               
                                                                                                  
 activation_237 (Activation  (None, 28, 28, 512)          0         ['group_normalization_220[0][0
 )                                                                  ]']                           
                                                                                                  
 conv2d_236 (Conv2D)         (None, 28, 28, 2048)         1048576   ['activation_237[0][0]']      
                                                                                                  
 add_72 (Add)                (None, 28, 28, 2048)         0         ['conv2d_236[0][0]',          
                                                                     'add_71[0][0]']              
                                                                                                  
 group_normalization_221 (G  (None, 28, 28, 2048)         4096      ['add_72[0][0]']              
 roupNormalization)                                                                               
                                                                                                  
 activation_238 (Activation  (None, 28, 28, 2048)         0         ['group_normalization_221[0][0
 )                                                                  ]']                           
                                                                                                  
 conv2d_237 (Conv2D)         (None, 28, 28, 512)          1048576   ['activation_238[0][0]']      
                                                                                                  
 group_normalization_222 (G  (None, 28, 28, 512)          1024      ['conv2d_237[0][0]']          
 roupNormalization)                                                                               
                                                                                                  
 activation_239 (Activation  (None, 28, 28, 512)          0         ['group_normalization_222[0][0
 )                                                                  ]']                           
                                                                                                  
 padding_from_kernel_size_7  (None, 30, 30, 512)          0         ['activation_239[0][0]']      
 9 (PaddingFromKernelSize)                                                                        
                                                                                                  
 conv2d_238 (Conv2D)         (None, 28, 28, 512)          2359296   ['padding_from_kernel_size_79[
                                                                    0][0]']                       
                                                                                                  
 group_normalization_223 (G  (None, 28, 28, 512)          1024      ['conv2d_238[0][0]']          
 roupNormalization)                                                                               
                                                                                                  
 activation_240 (Activation  (None, 28, 28, 512)          0         ['group_normalization_223[0][0
 )                                                                  ]']                           
                                                                                                  
 conv2d_239 (Conv2D)         (None, 28, 28, 2048)         1048576   ['activation_240[0][0]']      
                                                                                                  
 add_73 (Add)                (None, 28, 28, 2048)         0         ['conv2d_239[0][0]',          
                                                                     'add_72[0][0]']              
                                                                                                  
 group_normalization_224 (G  (None, 28, 28, 2048)         4096      ['add_73[0][0]']              
 roupNormalization)                                                                               
                                                                                                  
 activation_241 (Activation  (None, 28, 28, 2048)         0         ['group_normalization_224[0][0
 )                                                                  ]']                           
                                                                                                  
 conv2d_240 (Conv2D)         (None, 28, 28, 512)          1048576   ['activation_241[0][0]']      
                                                                                                  
 group_normalization_225 (G  (None, 28, 28, 512)          1024      ['conv2d_240[0][0]']          
 roupNormalization)                                                                               
                                                                                                  
 activation_242 (Activation  (None, 28, 28, 512)          0         ['group_normalization_225[0][0
 )                                                                  ]']                           
                                                                                                  
 padding_from_kernel_size_8  (None, 30, 30, 512)          0         ['activation_242[0][0]']      
 0 (PaddingFromKernelSize)                                                                        
                                                                                                  
 conv2d_241 (Conv2D)         (None, 28, 28, 512)          2359296   ['padding_from_kernel_size_80[
                                                                    0][0]']                       
                                                                                                  
 group_normalization_226 (G  (None, 28, 28, 512)          1024      ['conv2d_241[0][0]']          
 roupNormalization)                                                                               
                                                                                                  
 activation_243 (Activation  (None, 28, 28, 512)          0         ['group_normalization_226[0][0
 )                                                                  ]']                           
                                                                                                  
 conv2d_242 (Conv2D)         (None, 28, 28, 2048)         1048576   ['activation_243[0][0]']      
                                                                                                  
 add_74 (Add)                (None, 28, 28, 2048)         0         ['conv2d_242[0][0]',          
                                                                     'add_73[0][0]']              
                                                                                                  
 group_normalization_227 (G  (None, 28, 28, 2048)         4096      ['add_74[0][0]']              
 roupNormalization)                                                                               
                                                                                                  
 activation_244 (Activation  (None, 28, 28, 2048)         0         ['group_normalization_227[0][0
 )                                                                  ]']                           
                                                                                                  
 conv2d_243 (Conv2D)         (None, 28, 28, 512)          1048576   ['activation_244[0][0]']      
                                                                                                  
 group_normalization_228 (G  (None, 28, 28, 512)          1024      ['conv2d_243[0][0]']          
 roupNormalization)                                                                               
                                                                                                  
 activation_245 (Activation  (None, 28, 28, 512)          0         ['group_normalization_228[0][0
 )                                                                  ]']                           
                                                                                                  
 padding_from_kernel_size_8  (None, 30, 30, 512)          0         ['activation_245[0][0]']      
 1 (PaddingFromKernelSize)                                                                        
                                                                                                  
 conv2d_244 (Conv2D)         (None, 28, 28, 512)          2359296   ['padding_from_kernel_size_81[
                                                                    0][0]']                       
                                                                                                  
 group_normalization_229 (G  (None, 28, 28, 512)          1024      ['conv2d_244[0][0]']          
 roupNormalization)                                                                               
                                                                                                  
 activation_246 (Activation  (None, 28, 28, 512)          0         ['group_normalization_229[0][0
 )                                                                  ]']                           
                                                                                                  
 conv2d_245 (Conv2D)         (None, 28, 28, 2048)         1048576   ['activation_246[0][0]']      
                                                                                                  
 add_75 (Add)                (None, 28, 28, 2048)         0         ['conv2d_245[0][0]',          
                                                                     'add_74[0][0]']              
                                                                                                  
 group_normalization_230 (G  (None, 28, 28, 2048)         4096      ['add_75[0][0]']              
 roupNormalization)                                                                               
                                                                                                  
 activation_247 (Activation  (None, 28, 28, 2048)         0         ['group_normalization_230[0][0
 )                                                                  ]']                           
                                                                                                  
 conv2d_246 (Conv2D)         (None, 28, 28, 512)          1048576   ['activation_247[0][0]']      
                                                                                                  
 group_normalization_231 (G  (None, 28, 28, 512)          1024      ['conv2d_246[0][0]']          
 roupNormalization)                                                                               
                                                                                                  
 activation_248 (Activation  (None, 28, 28, 512)          0         ['group_normalization_231[0][0
 )                                                                  ]']                           
                                                                                                  
 padding_from_kernel_size_8  (None, 30, 30, 512)          0         ['activation_248[0][0]']      
 2 (PaddingFromKernelSize)                                                                        
                                                                                                  
 conv2d_247 (Conv2D)         (None, 28, 28, 512)          2359296   ['padding_from_kernel_size_82[
                                                                    0][0]']                       
                                                                                                  
 group_normalization_232 (G  (None, 28, 28, 512)          1024      ['conv2d_247[0][0]']          
 roupNormalization)                                                                               
                                                                                                  
 activation_249 (Activation  (None, 28, 28, 512)          0         ['group_normalization_232[0][0
 )                                                                  ]']                           
                                                                                                  
 conv2d_248 (Conv2D)         (None, 28, 28, 2048)         1048576   ['activation_249[0][0]']      
                                                                                                  
 add_76 (Add)                (None, 28, 28, 2048)         0         ['conv2d_248[0][0]',          
                                                                     'add_75[0][0]']              
                                                                                                  
 group_normalization_233 (G  (None, 28, 28, 2048)         4096      ['add_76[0][0]']              
 roupNormalization)                                                                               
                                                                                                  
 activation_250 (Activation  (None, 28, 28, 2048)         0         ['group_normalization_233[0][0
 )                                                                  ]']                           
                                                                                                  
 conv2d_250 (Conv2D)         (None, 28, 28, 1024)         2097152   ['activation_250[0][0]']      
                                                                                                  
 group_normalization_234 (G  (None, 28, 28, 1024)         2048      ['conv2d_250[0][0]']          
 roupNormalization)                                                                               
                                                                                                  
 activation_251 (Activation  (None, 28, 28, 1024)         0         ['group_normalization_234[0][0
 )                                                                  ]']                           
                                                                                                  
 padding_from_kernel_size_8  (None, 30, 30, 1024)         0         ['activation_251[0][0]']      
 3 (PaddingFromKernelSize)                                                                        
                                                                                                  
 conv2d_251 (Conv2D)         (None, 14, 14, 1024)         9437184   ['padding_from_kernel_size_83[
                                                                    0][0]']                       
                                                                                                  
 group_normalization_235 (G  (None, 14, 14, 1024)         2048      ['conv2d_251[0][0]']          
 roupNormalization)                                                                               
                                                                                                  
 activation_252 (Activation  (None, 14, 14, 1024)         0         ['group_normalization_235[0][0
 )                                                                  ]']                           
                                                                                                  
 conv2d_252 (Conv2D)         (None, 14, 14, 4096)         4194304   ['activation_252[0][0]']      
                                                                                                  
 conv2d_249 (Conv2D)         (None, 14, 14, 4096)         8388608   ['activation_250[0][0]']      
                                                                                                  
 add_77 (Add)                (None, 14, 14, 4096)         0         ['conv2d_252[0][0]',          
                                                                     'conv2d_249[0][0]']          
                                                                                                  
 group_normalization_236 (G  (None, 14, 14, 4096)         8192      ['add_77[0][0]']              
 roupNormalization)                                                                               
                                                                                                  
 activation_253 (Activation  (None, 14, 14, 4096)         0         ['group_normalization_236[0][0
 )                                                                  ]']                           
                                                                                                  
 conv2d_253 (Conv2D)         (None, 14, 14, 1024)         4194304   ['activation_253[0][0]']      
                                                                                                  
 group_normalization_237 (G  (None, 14, 14, 1024)         2048      ['conv2d_253[0][0]']          
 roupNormalization)                                                                               
                                                                                                  
 activation_254 (Activation  (None, 14, 14, 1024)         0         ['group_normalization_237[0][0
 )                                                                  ]']                           
                                                                                                  
 padding_from_kernel_size_8  (None, 16, 16, 1024)         0         ['activation_254[0][0]']      
 4 (PaddingFromKernelSize)                                                                        
                                                                                                  
 conv2d_254 (Conv2D)         (None, 14, 14, 1024)         9437184   ['padding_from_kernel_size_84[
                                                                    0][0]']                       
                                                                                                  
 group_normalization_238 (G  (None, 14, 14, 1024)         2048      ['conv2d_254[0][0]']          
 roupNormalization)                                                                               
                                                                                                  
 activation_255 (Activation  (None, 14, 14, 1024)         0         ['group_normalization_238[0][0
 )                                                                  ]']                           
                                                                                                  
 conv2d_255 (Conv2D)         (None, 14, 14, 4096)         4194304   ['activation_255[0][0]']      
                                                                                                  
 add_78 (Add)                (None, 14, 14, 4096)         0         ['conv2d_255[0][0]',          
                                                                     'add_77[0][0]']              
                                                                                                  
 group_normalization_239 (G  (None, 14, 14, 4096)         8192      ['add_78[0][0]']              
 roupNormalization)                                                                               
                                                                                                  
 activation_256 (Activation  (None, 14, 14, 4096)         0         ['group_normalization_239[0][0
 )                                                                  ]']                           
                                                                                                  
 conv2d_256 (Conv2D)         (None, 14, 14, 1024)         4194304   ['activation_256[0][0]']      
                                                                                                  
 group_normalization_240 (G  (None, 14, 14, 1024)         2048      ['conv2d_256[0][0]']          
 roupNormalization)                                                                               
                                                                                                  
 activation_257 (Activation  (None, 14, 14, 1024)         0         ['group_normalization_240[0][0
 )                                                                  ]']                           
                                                                                                  
 padding_from_kernel_size_8  (None, 16, 16, 1024)         0         ['activation_257[0][0]']      
 5 (PaddingFromKernelSize)                                                                        
                                                                                                  
 conv2d_257 (Conv2D)         (None, 14, 14, 1024)         9437184   ['padding_from_kernel_size_85[
                                                                    0][0]']                       
                                                                                                  
 group_normalization_241 (G  (None, 14, 14, 1024)         2048      ['conv2d_257[0][0]']          
 roupNormalization)                                                                               
                                                                                                  
 activation_258 (Activation  (None, 14, 14, 1024)         0         ['group_normalization_241[0][0
 )                                                                  ]']                           
                                                                                                  
 conv2d_258 (Conv2D)         (None, 14, 14, 4096)         4194304   ['activation_258[0][0]']      
                                                                                                  
 add_79 (Add)                (None, 14, 14, 4096)         0         ['conv2d_258[0][0]',          
                                                                     'add_78[0][0]']              
                                                                                                  
 group_normalization_242 (G  (None, 14, 14, 4096)         8192      ['add_79[0][0]']              
 roupNormalization)                                                                               
                                                                                                  
 activation_259 (Activation  (None, 14, 14, 4096)         0         ['group_normalization_242[0][0
 )                                                                  ]']                           
                                                                                                  
 conv2d_259 (Conv2D)         (None, 14, 14, 1024)         4194304   ['activation_259[0][0]']      
                                                                                                  
 group_normalization_243 (G  (None, 14, 14, 1024)         2048      ['conv2d_259[0][0]']          
 roupNormalization)                                                                               
                                                                                                  
 activation_260 (Activation  (None, 14, 14, 1024)         0         ['group_normalization_243[0][0
 )                                                                  ]']                           
                                                                                                  
 padding_from_kernel_size_8  (None, 16, 16, 1024)         0         ['activation_260[0][0]']      
 6 (PaddingFromKernelSize)                                                                        
                                                                                                  
 conv2d_260 (Conv2D)         (None, 14, 14, 1024)         9437184   ['padding_from_kernel_size_86[
                                                                    0][0]']                       
                                                                                                  
 group_normalization_244 (G  (None, 14, 14, 1024)         2048      ['conv2d_260[0][0]']          
 roupNormalization)                                                                               
                                                                                                  
 activation_261 (Activation  (None, 14, 14, 1024)         0         ['group_normalization_244[0][0
 )                                                                  ]']                           
                                                                                                  
 conv2d_261 (Conv2D)         (None, 14, 14, 4096)         4194304   ['activation_261[0][0]']      
                                                                                                  
 add_80 (Add)                (None, 14, 14, 4096)         0         ['conv2d_261[0][0]',          
                                                                     'add_79[0][0]']              
                                                                                                  
 group_normalization_245 (G  (None, 14, 14, 4096)         8192      ['add_80[0][0]']              
 roupNormalization)                                                                               
                                                                                                  
 activation_262 (Activation  (None, 14, 14, 4096)         0         ['group_normalization_245[0][0
 )                                                                  ]']                           
                                                                                                  
 conv2d_262 (Conv2D)         (None, 14, 14, 1024)         4194304   ['activation_262[0][0]']      
                                                                                                  
 group_normalization_246 (G  (None, 14, 14, 1024)         2048      ['conv2d_262[0][0]']          
 roupNormalization)                                                                               
                                                                                                  
 activation_263 (Activation  (None, 14, 14, 1024)         0         ['group_normalization_246[0][0
 )                                                                  ]']                           
                                                                                                  
 padding_from_kernel_size_8  (None, 16, 16, 1024)         0         ['activation_263[0][0]']      
 7 (PaddingFromKernelSize)                                                                        
                                                                                                  
 conv2d_263 (Conv2D)         (None, 14, 14, 1024)         9437184   ['padding_from_kernel_size_87[
                                                                    0][0]']                       
                                                                                                  
 group_normalization_247 (G  (None, 14, 14, 1024)         2048      ['conv2d_263[0][0]']          
 roupNormalization)                                                                               
                                                                                                  
 activation_264 (Activation  (None, 14, 14, 1024)         0         ['group_normalization_247[0][0
 )                                                                  ]']                           
                                                                                                  
 conv2d_264 (Conv2D)         (None, 14, 14, 4096)         4194304   ['activation_264[0][0]']      
                                                                                                  
 add_81 (Add)                (None, 14, 14, 4096)         0         ['conv2d_264[0][0]',          
                                                                     'add_80[0][0]']              
                                                                                                  
 group_normalization_248 (G  (None, 14, 14, 4096)         8192      ['add_81[0][0]']              
 roupNormalization)                                                                               
                                                                                                  
 activation_265 (Activation  (None, 14, 14, 4096)         0         ['group_normalization_248[0][0
 )                                                                  ]']                           
                                                                                                  
 conv2d_265 (Conv2D)         (None, 14, 14, 1024)         4194304   ['activation_265[0][0]']      
                                                                                                  
 group_normalization_249 (G  (None, 14, 14, 1024)         2048      ['conv2d_265[0][0]']          
 roupNormalization)                                                                               
                                                                                                  
 activation_266 (Activation  (None, 14, 14, 1024)         0         ['group_normalization_249[0][0
 )                                                                  ]']                           
                                                                                                  
 padding_from_kernel_size_8  (None, 16, 16, 1024)         0         ['activation_266[0][0]']      
 8 (PaddingFromKernelSize)                                                                        
                                                                                                  
 conv2d_266 (Conv2D)         (None, 14, 14, 1024)         9437184   ['padding_from_kernel_size_88[
                                                                    0][0]']                       
                                                                                                  
 group_normalization_250 (G  (None, 14, 14, 1024)         2048      ['conv2d_266[0][0]']          
 roupNormalization)                                                                               
                                                                                                  
 activation_267 (Activation  (None, 14, 14, 1024)         0         ['group_normalization_250[0][0
 )                                                                  ]']                           
                                                                                                  
 conv2d_267 (Conv2D)         (None, 14, 14, 4096)         4194304   ['activation_267[0][0]']      
                                                                                                  
 add_82 (Add)                (None, 14, 14, 4096)         0         ['conv2d_267[0][0]',          
                                                                     'add_81[0][0]']              
                                                                                                  
 group_normalization_251 (G  (None, 14, 14, 4096)         8192      ['add_82[0][0]']              
 roupNormalization)                                                                               
                                                                                                  
 activation_268 (Activation  (None, 14, 14, 4096)         0         ['group_normalization_251[0][0
 )                                                                  ]']                           
                                                                                                  
 conv2d_268 (Conv2D)         (None, 14, 14, 1024)         4194304   ['activation_268[0][0]']      
                                                                                                  
 group_normalization_252 (G  (None, 14, 14, 1024)         2048      ['conv2d_268[0][0]']          
 roupNormalization)                                                                               
                                                                                                  
 activation_269 (Activation  (None, 14, 14, 1024)         0         ['group_normalization_252[0][0
 )                                                                  ]']                           
                                                                                                  
 padding_from_kernel_size_8  (None, 16, 16, 1024)         0         ['activation_269[0][0]']      
 9 (PaddingFromKernelSize)                                                                        
                                                                                                  
 conv2d_269 (Conv2D)         (None, 14, 14, 1024)         9437184   ['padding_from_kernel_size_89[
                                                                    0][0]']                       
                                                                                                  
 group_normalization_253 (G  (None, 14, 14, 1024)         2048      ['conv2d_269[0][0]']          
 roupNormalization)                                                                               
                                                                                                  
 activation_270 (Activation  (None, 14, 14, 1024)         0         ['group_normalization_253[0][0
 )                                                                  ]']                           
                                                                                                  
 conv2d_270 (Conv2D)         (None, 14, 14, 4096)         4194304   ['activation_270[0][0]']      
                                                                                                  
 add_83 (Add)                (None, 14, 14, 4096)         0         ['conv2d_270[0][0]',          
                                                                     'add_82[0][0]']              
                                                                                                  
 group_normalization_254 (G  (None, 14, 14, 4096)         8192      ['add_83[0][0]']              
 roupNormalization)                                                                               
                                                                                                  
 activation_271 (Activation  (None, 14, 14, 4096)         0         ['group_normalization_254[0][0
 )                                                                  ]']                           
                                                                                                  
 conv2d_271 (Conv2D)         (None, 14, 14, 1024)         4194304   ['activation_271[0][0]']      
                                                                                                  
 group_normalization_255 (G  (None, 14, 14, 1024)         2048      ['conv2d_271[0][0]']          
 roupNormalization)                                                                               
                                                                                                  
 activation_272 (Activation  (None, 14, 14, 1024)         0         ['group_normalization_255[0][0
 )                                                                  ]']                           
                                                                                                  
 padding_from_kernel_size_9  (None, 16, 16, 1024)         0         ['activation_272[0][0]']      
 0 (PaddingFromKernelSize)                                                                        
                                                                                                  
 conv2d_272 (Conv2D)         (None, 14, 14, 1024)         9437184   ['padding_from_kernel_size_90[
                                                                    0][0]']                       
                                                                                                  
 group_normalization_256 (G  (None, 14, 14, 1024)         2048      ['conv2d_272[0][0]']          
 roupNormalization)                                                                               
                                                                                                  
 activation_273 (Activation  (None, 14, 14, 1024)         0         ['group_normalization_256[0][0
 )                                                                  ]']                           
                                                                                                  
 conv2d_273 (Conv2D)         (None, 14, 14, 4096)         4194304   ['activation_273[0][0]']      
                                                                                                  
 add_84 (Add)                (None, 14, 14, 4096)         0         ['conv2d_273[0][0]',          
                                                                     'add_83[0][0]']              
                                                                                                  
 group_normalization_257 (G  (None, 14, 14, 4096)         8192      ['add_84[0][0]']              
 roupNormalization)                                                                               
                                                                                                  
 activation_274 (Activation  (None, 14, 14, 4096)         0         ['group_normalization_257[0][0
 )                                                                  ]']                           
                                                                                                  
 conv2d_274 (Conv2D)         (None, 14, 14, 1024)         4194304   ['activation_274[0][0]']      
                                                                                                  
 group_normalization_258 (G  (None, 14, 14, 1024)         2048      ['conv2d_274[0][0]']          
 roupNormalization)                                                                               
                                                                                                  
 activation_275 (Activation  (None, 14, 14, 1024)         0         ['group_normalization_258[0][0
 )                                                                  ]']                           
                                                                                                  
 padding_from_kernel_size_9  (None, 16, 16, 1024)         0         ['activation_275[0][0]']      
 1 (PaddingFromKernelSize)                                                                        
                                                                                                  
 conv2d_275 (Conv2D)         (None, 14, 14, 1024)         9437184   ['padding_from_kernel_size_91[
                                                                    0][0]']                       
                                                                                                  
 group_normalization_259 (G  (None, 14, 14, 1024)         2048      ['conv2d_275[0][0]']          
 roupNormalization)                                                                               
                                                                                                  
 activation_276 (Activation  (None, 14, 14, 1024)         0         ['group_normalization_259[0][0
 )                                                                  ]']                           
                                                                                                  
 conv2d_276 (Conv2D)         (None, 14, 14, 4096)         4194304   ['activation_276[0][0]']      
                                                                                                  
 add_85 (Add)                (None, 14, 14, 4096)         0         ['conv2d_276[0][0]',          
                                                                     'add_84[0][0]']              
                                                                                                  
 group_normalization_260 (G  (None, 14, 14, 4096)         8192      ['add_85[0][0]']              
 roupNormalization)                                                                               
                                                                                                  
 activation_277 (Activation  (None, 14, 14, 4096)         0         ['group_normalization_260[0][0
 )                                                                  ]']                           
                                                                                                  
 conv2d_277 (Conv2D)         (None, 14, 14, 1024)         4194304   ['activation_277[0][0]']      
                                                                                                  
 group_normalization_261 (G  (None, 14, 14, 1024)         2048      ['conv2d_277[0][0]']          
 roupNormalization)                                                                               
                                                                                                  
 activation_278 (Activation  (None, 14, 14, 1024)         0         ['group_normalization_261[0][0
 )                                                                  ]']                           
                                                                                                  
 padding_from_kernel_size_9  (None, 16, 16, 1024)         0         ['activation_278[0][0]']      
 2 (PaddingFromKernelSize)                                                                        
                                                                                                  
 conv2d_278 (Conv2D)         (None, 14, 14, 1024)         9437184   ['padding_from_kernel_size_92[
                                                                    0][0]']                       
                                                                                                  
 group_normalization_262 (G  (None, 14, 14, 1024)         2048      ['conv2d_278[0][0]']          
 roupNormalization)                                                                               
                                                                                                  
 activation_279 (Activation  (None, 14, 14, 1024)         0         ['group_normalization_262[0][0
 )                                                                  ]']                           
                                                                                                  
 conv2d_279 (Conv2D)         (None, 14, 14, 4096)         4194304   ['activation_279[0][0]']      
                                                                                                  
 add_86 (Add)                (None, 14, 14, 4096)         0         ['conv2d_279[0][0]',          
                                                                     'add_85[0][0]']              
                                                                                                  
 group_normalization_263 (G  (None, 14, 14, 4096)         8192      ['add_86[0][0]']              
 roupNormalization)                                                                               
                                                                                                  
 activation_280 (Activation  (None, 14, 14, 4096)         0         ['group_normalization_263[0][0
 )                                                                  ]']                           
                                                                                                  
 conv2d_280 (Conv2D)         (None, 14, 14, 1024)         4194304   ['activation_280[0][0]']      
                                                                                                  
 group_normalization_264 (G  (None, 14, 14, 1024)         2048      ['conv2d_280[0][0]']          
 roupNormalization)                                                                               
                                                                                                  
 activation_281 (Activation  (None, 14, 14, 1024)         0         ['group_normalization_264[0][0
 )                                                                  ]']                           
                                                                                                  
 padding_from_kernel_size_9  (None, 16, 16, 1024)         0         ['activation_281[0][0]']      
 3 (PaddingFromKernelSize)                                                                        
                                                                                                  
 conv2d_281 (Conv2D)         (None, 14, 14, 1024)         9437184   ['padding_from_kernel_size_93[
                                                                    0][0]']                       
                                                                                                  
 group_normalization_265 (G  (None, 14, 14, 1024)         2048      ['conv2d_281[0][0]']          
 roupNormalization)                                                                               
                                                                                                  
 activation_282 (Activation  (None, 14, 14, 1024)         0         ['group_normalization_265[0][0
 )                                                                  ]']                           
                                                                                                  
 conv2d_282 (Conv2D)         (None, 14, 14, 4096)         4194304   ['activation_282[0][0]']      
                                                                                                  
 add_87 (Add)                (None, 14, 14, 4096)         0         ['conv2d_282[0][0]',          
                                                                     'add_86[0][0]']              
                                                                                                  
 group_normalization_266 (G  (None, 14, 14, 4096)         8192      ['add_87[0][0]']              
 roupNormalization)                                                                               
                                                                                                  
 activation_283 (Activation  (None, 14, 14, 4096)         0         ['group_normalization_266[0][0
 )                                                                  ]']                           
                                                                                                  
 conv2d_283 (Conv2D)         (None, 14, 14, 1024)         4194304   ['activation_283[0][0]']      
                                                                                                  
 group_normalization_267 (G  (None, 14, 14, 1024)         2048      ['conv2d_283[0][0]']          
 roupNormalization)                                                                               
                                                                                                  
 activation_284 (Activation  (None, 14, 14, 1024)         0         ['group_normalization_267[0][0
 )                                                                  ]']                           
                                                                                                  
 padding_from_kernel_size_9  (None, 16, 16, 1024)         0         ['activation_284[0][0]']      
 4 (PaddingFromKernelSize)                                                                        
                                                                                                  
 conv2d_284 (Conv2D)         (None, 14, 14, 1024)         9437184   ['padding_from_kernel_size_94[
                                                                    0][0]']                       
                                                                                                  
 group_normalization_268 (G  (None, 14, 14, 1024)         2048      ['conv2d_284[0][0]']          
 roupNormalization)                                                                               
                                                                                                  
 activation_285 (Activation  (None, 14, 14, 1024)         0         ['group_normalization_268[0][0
 )                                                                  ]']                           
                                                                                                  
 conv2d_285 (Conv2D)         (None, 14, 14, 4096)         4194304   ['activation_285[0][0]']      
                                                                                                  
 add_88 (Add)                (None, 14, 14, 4096)         0         ['conv2d_285[0][0]',          
                                                                     'add_87[0][0]']              
                                                                                                  
 group_normalization_269 (G  (None, 14, 14, 4096)         8192      ['add_88[0][0]']              
 roupNormalization)                                                                               
                                                                                                  
 activation_286 (Activation  (None, 14, 14, 4096)         0         ['group_normalization_269[0][0
 )                                                                  ]']                           
                                                                                                  
 conv2d_286 (Conv2D)         (None, 14, 14, 1024)         4194304   ['activation_286[0][0]']      
                                                                                                  
 group_normalization_270 (G  (None, 14, 14, 1024)         2048      ['conv2d_286[0][0]']          
 roupNormalization)                                                                               
                                                                                                  
 activation_287 (Activation  (None, 14, 14, 1024)         0         ['group_normalization_270[0][0
 )                                                                  ]']                           
                                                                                                  
 padding_from_kernel_size_9  (None, 16, 16, 1024)         0         ['activation_287[0][0]']      
 5 (PaddingFromKernelSize)                                                                        
                                                                                                  
 conv2d_287 (Conv2D)         (None, 14, 14, 1024)         9437184   ['padding_from_kernel_size_95[
                                                                    0][0]']                       
                                                                                                  
 group_normalization_271 (G  (None, 14, 14, 1024)         2048      ['conv2d_287[0][0]']          
 roupNormalization)                                                                               
                                                                                                  
 activation_288 (Activation  (None, 14, 14, 1024)         0         ['group_normalization_271[0][0
 )                                                                  ]']                           
                                                                                                  
 conv2d_288 (Conv2D)         (None, 14, 14, 4096)         4194304   ['activation_288[0][0]']      
                                                                                                  
 add_89 (Add)                (None, 14, 14, 4096)         0         ['conv2d_288[0][0]',          
                                                                     'add_88[0][0]']              
                                                                                                  
 group_normalization_272 (G  (None, 14, 14, 4096)         8192      ['add_89[0][0]']              
 roupNormalization)                                                                               
                                                                                                  
 activation_289 (Activation  (None, 14, 14, 4096)         0         ['group_normalization_272[0][0
 )                                                                  ]']                           
                                                                                                  
 conv2d_289 (Conv2D)         (None, 14, 14, 1024)         4194304   ['activation_289[0][0]']      
                                                                                                  
 group_normalization_273 (G  (None, 14, 14, 1024)         2048      ['conv2d_289[0][0]']          
 roupNormalization)                                                                               
                                                                                                  
 activation_290 (Activation  (None, 14, 14, 1024)         0         ['group_normalization_273[0][0
 )                                                                  ]']                           
                                                                                                  
 padding_from_kernel_size_9  (None, 16, 16, 1024)         0         ['activation_290[0][0]']      
 6 (PaddingFromKernelSize)                                                                        
                                                                                                  
 conv2d_290 (Conv2D)         (None, 14, 14, 1024)         9437184   ['padding_from_kernel_size_96[
                                                                    0][0]']                       
                                                                                                  
 group_normalization_274 (G  (None, 14, 14, 1024)         2048      ['conv2d_290[0][0]']          
 roupNormalization)                                                                               
                                                                                                  
 activation_291 (Activation  (None, 14, 14, 1024)         0         ['group_normalization_274[0][0
 )                                                                  ]']                           
                                                                                                  
 conv2d_291 (Conv2D)         (None, 14, 14, 4096)         4194304   ['activation_291[0][0]']      
                                                                                                  
 add_90 (Add)                (None, 14, 14, 4096)         0         ['conv2d_291[0][0]',          
                                                                     'add_89[0][0]']              
                                                                                                  
 group_normalization_275 (G  (None, 14, 14, 4096)         8192      ['add_90[0][0]']              
 roupNormalization)                                                                               
                                                                                                  
 activation_292 (Activation  (None, 14, 14, 4096)         0         ['group_normalization_275[0][0
 )                                                                  ]']                           
                                                                                                  
 conv2d_292 (Conv2D)         (None, 14, 14, 1024)         4194304   ['activation_292[0][0]']      
                                                                                                  
 group_normalization_276 (G  (None, 14, 14, 1024)         2048      ['conv2d_292[0][0]']          
 roupNormalization)                                                                               
                                                                                                  
 activation_293 (Activation  (None, 14, 14, 1024)         0         ['group_normalization_276[0][0
 )                                                                  ]']                           
                                                                                                  
 padding_from_kernel_size_9  (None, 16, 16, 1024)         0         ['activation_293[0][0]']      
 7 (PaddingFromKernelSize)                                                                        
                                                                                                  
 conv2d_293 (Conv2D)         (None, 14, 14, 1024)         9437184   ['padding_from_kernel_size_97[
                                                                    0][0]']                       
                                                                                                  
 group_normalization_277 (G  (None, 14, 14, 1024)         2048      ['conv2d_293[0][0]']          
 roupNormalization)                                                                               
                                                                                                  
 activation_294 (Activation  (None, 14, 14, 1024)         0         ['group_normalization_277[0][0
 )                                                                  ]']                           
                                                                                                  
 conv2d_294 (Conv2D)         (None, 14, 14, 4096)         4194304   ['activation_294[0][0]']      
                                                                                                  
 add_91 (Add)                (None, 14, 14, 4096)         0         ['conv2d_294[0][0]',          
                                                                     'add_90[0][0]']              
                                                                                                  
 group_normalization_278 (G  (None, 14, 14, 4096)         8192      ['add_91[0][0]']              
 roupNormalization)                                                                               
                                                                                                  
 activation_295 (Activation  (None, 14, 14, 4096)         0         ['group_normalization_278[0][0
 )                                                                  ]']                           
                                                                                                  
 conv2d_295 (Conv2D)         (None, 14, 14, 1024)         4194304   ['activation_295[0][0]']      
                                                                                                  
 group_normalization_279 (G  (None, 14, 14, 1024)         2048      ['conv2d_295[0][0]']          
 roupNormalization)                                                                               
                                                                                                  
 activation_296 (Activation  (None, 14, 14, 1024)         0         ['group_normalization_279[0][0
 )                                                                  ]']                           
                                                                                                  
 padding_from_kernel_size_9  (None, 16, 16, 1024)         0         ['activation_296[0][0]']      
 8 (PaddingFromKernelSize)                                                                        
                                                                                                  
 conv2d_296 (Conv2D)         (None, 14, 14, 1024)         9437184   ['padding_from_kernel_size_98[
                                                                    0][0]']                       
                                                                                                  
 group_normalization_280 (G  (None, 14, 14, 1024)         2048      ['conv2d_296[0][0]']          
 roupNormalization)                                                                               
                                                                                                  
 activation_297 (Activation  (None, 14, 14, 1024)         0         ['group_normalization_280[0][0
 )                                                                  ]']                           
                                                                                                  
 conv2d_297 (Conv2D)         (None, 14, 14, 4096)         4194304   ['activation_297[0][0]']      
                                                                                                  
 add_92 (Add)                (None, 14, 14, 4096)         0         ['conv2d_297[0][0]',          
                                                                     'add_91[0][0]']              
                                                                                                  
 group_normalization_281 (G  (None, 14, 14, 4096)         8192      ['add_92[0][0]']              
 roupNormalization)                                                                               
                                                                                                  
 activation_298 (Activation  (None, 14, 14, 4096)         0         ['group_normalization_281[0][0
 )                                                                  ]']                           
                                                                                                  
 conv2d_298 (Conv2D)         (None, 14, 14, 1024)         4194304   ['activation_298[0][0]']      
                                                                                                  
 group_normalization_282 (G  (None, 14, 14, 1024)         2048      ['conv2d_298[0][0]']          
 roupNormalization)                                                                               
                                                                                                  
 activation_299 (Activation  (None, 14, 14, 1024)         0         ['group_normalization_282[0][0
 )                                                                  ]']                           
                                                                                                  
 padding_from_kernel_size_9  (None, 16, 16, 1024)         0         ['activation_299[0][0]']      
 9 (PaddingFromKernelSize)                                                                        
                                                                                                  
 conv2d_299 (Conv2D)         (None, 14, 14, 1024)         9437184   ['padding_from_kernel_size_99[
                                                                    0][0]']                       
                                                                                                  
 group_normalization_283 (G  (None, 14, 14, 1024)         2048      ['conv2d_299[0][0]']          
 roupNormalization)                                                                               
                                                                                                  
 activation_300 (Activation  (None, 14, 14, 1024)         0         ['group_normalization_283[0][0
 )                                                                  ]']                           
                                                                                                  
 conv2d_300 (Conv2D)         (None, 14, 14, 4096)         4194304   ['activation_300[0][0]']      
                                                                                                  
 add_93 (Add)                (None, 14, 14, 4096)         0         ['conv2d_300[0][0]',          
                                                                     'add_92[0][0]']              
                                                                                                  
 group_normalization_284 (G  (None, 14, 14, 4096)         8192      ['add_93[0][0]']              
 roupNormalization)                                                                               
                                                                                                  
 activation_301 (Activation  (None, 14, 14, 4096)         0         ['group_normalization_284[0][0
 )                                                                  ]']                           
                                                                                                  
 conv2d_301 (Conv2D)         (None, 14, 14, 1024)         4194304   ['activation_301[0][0]']      
                                                                                                  
 group_normalization_285 (G  (None, 14, 14, 1024)         2048      ['conv2d_301[0][0]']          
 roupNormalization)                                                                               
                                                                                                  
 activation_302 (Activation  (None, 14, 14, 1024)         0         ['group_normalization_285[0][0
 )                                                                  ]']                           
                                                                                                  
 padding_from_kernel_size_1  (None, 16, 16, 1024)         0         ['activation_302[0][0]']      
 00 (PaddingFromKernelSize)                                                                       
                                                                                                  
 conv2d_302 (Conv2D)         (None, 14, 14, 1024)         9437184   ['padding_from_kernel_size_100
                                                                    [0][0]']                      
                                                                                                  
 group_normalization_286 (G  (None, 14, 14, 1024)         2048      ['conv2d_302[0][0]']          
 roupNormalization)                                                                               
                                                                                                  
 activation_303 (Activation  (None, 14, 14, 1024)         0         ['group_normalization_286[0][0
 )                                                                  ]']                           
                                                                                                  
 conv2d_303 (Conv2D)         (None, 14, 14, 4096)         4194304   ['activation_303[0][0]']      
                                                                                                  
 add_94 (Add)                (None, 14, 14, 4096)         0         ['conv2d_303[0][0]',          
                                                                     'add_93[0][0]']              
                                                                                                  
 group_normalization_287 (G  (None, 14, 14, 4096)         8192      ['add_94[0][0]']              
 roupNormalization)                                                                               
                                                                                                  
 activation_304 (Activation  (None, 14, 14, 4096)         0         ['group_normalization_287[0][0
 )                                                                  ]']                           
                                                                                                  
 conv2d_304 (Conv2D)         (None, 14, 14, 1024)         4194304   ['activation_304[0][0]']      
                                                                                                  
 group_normalization_288 (G  (None, 14, 14, 1024)         2048      ['conv2d_304[0][0]']          
 roupNormalization)                                                                               
                                                                                                  
 activation_305 (Activation  (None, 14, 14, 1024)         0         ['group_normalization_288[0][0
 )                                                                  ]']                           
                                                                                                  
 padding_from_kernel_size_1  (None, 16, 16, 1024)         0         ['activation_305[0][0]']      
 01 (PaddingFromKernelSize)                                                                       
                                                                                                  
 conv2d_305 (Conv2D)         (None, 14, 14, 1024)         9437184   ['padding_from_kernel_size_101
                                                                    [0][0]']                      
                                                                                                  
 group_normalization_289 (G  (None, 14, 14, 1024)         2048      ['conv2d_305[0][0]']          
 roupNormalization)                                                                               
                                                                                                  
 activation_306 (Activation  (None, 14, 14, 1024)         0         ['group_normalization_289[0][0
 )                                                                  ]']                           
                                                                                                  
 conv2d_306 (Conv2D)         (None, 14, 14, 4096)         4194304   ['activation_306[0][0]']      
                                                                                                  
 add_95 (Add)                (None, 14, 14, 4096)         0         ['conv2d_306[0][0]',          
                                                                     'add_94[0][0]']              
                                                                                                  
 group_normalization_290 (G  (None, 14, 14, 4096)         8192      ['add_95[0][0]']              
 roupNormalization)                                                                               
                                                                                                  
 activation_307 (Activation  (None, 14, 14, 4096)         0         ['group_normalization_290[0][0
 )                                                                  ]']                           
                                                                                                  
 conv2d_307 (Conv2D)         (None, 14, 14, 1024)         4194304   ['activation_307[0][0]']      
                                                                                                  
 group_normalization_291 (G  (None, 14, 14, 1024)         2048      ['conv2d_307[0][0]']          
 roupNormalization)                                                                               
                                                                                                  
 activation_308 (Activation  (None, 14, 14, 1024)         0         ['group_normalization_291[0][0
 )                                                                  ]']                           
                                                                                                  
 padding_from_kernel_size_1  (None, 16, 16, 1024)         0         ['activation_308[0][0]']      
 02 (PaddingFromKernelSize)                                                                       
                                                                                                  
 conv2d_308 (Conv2D)         (None, 14, 14, 1024)         9437184   ['padding_from_kernel_size_102
                                                                    [0][0]']                      
                                                                                                  
 group_normalization_292 (G  (None, 14, 14, 1024)         2048      ['conv2d_308[0][0]']          
 roupNormalization)                                                                               
                                                                                                  
 activation_309 (Activation  (None, 14, 14, 1024)         0         ['group_normalization_292[0][0
 )                                                                  ]']                           
                                                                                                  
 conv2d_309 (Conv2D)         (None, 14, 14, 4096)         4194304   ['activation_309[0][0]']      
                                                                                                  
 add_96 (Add)                (None, 14, 14, 4096)         0         ['conv2d_309[0][0]',          
                                                                     'add_95[0][0]']              
                                                                                                  
 group_normalization_293 (G  (None, 14, 14, 4096)         8192      ['add_96[0][0]']              
 roupNormalization)                                                                               
                                                                                                  
 activation_310 (Activation  (None, 14, 14, 4096)         0         ['group_normalization_293[0][0
 )                                                                  ]']                           
                                                                                                  
 conv2d_310 (Conv2D)         (None, 14, 14, 1024)         4194304   ['activation_310[0][0]']      
                                                                                                  
 group_normalization_294 (G  (None, 14, 14, 1024)         2048      ['conv2d_310[0][0]']          
 roupNormalization)                                                                               
                                                                                                  
 activation_311 (Activation  (None, 14, 14, 1024)         0         ['group_normalization_294[0][0
 )                                                                  ]']                           
                                                                                                  
 padding_from_kernel_size_1  (None, 16, 16, 1024)         0         ['activation_311[0][0]']      
 03 (PaddingFromKernelSize)                                                                       
                                                                                                  
 conv2d_311 (Conv2D)         (None, 14, 14, 1024)         9437184   ['padding_from_kernel_size_103
                                                                    [0][0]']                      
                                                                                                  
 group_normalization_295 (G  (None, 14, 14, 1024)         2048      ['conv2d_311[0][0]']          
 roupNormalization)                                                                               
                                                                                                  
 activation_312 (Activation  (None, 14, 14, 1024)         0         ['group_normalization_295[0][0
 )                                                                  ]']                           
                                                                                                  
 conv2d_312 (Conv2D)         (None, 14, 14, 4096)         4194304   ['activation_312[0][0]']      
                                                                                                  
 add_97 (Add)                (None, 14, 14, 4096)         0         ['conv2d_312[0][0]',          
                                                                     'add_96[0][0]']              
                                                                                                  
 group_normalization_296 (G  (None, 14, 14, 4096)         8192      ['add_97[0][0]']              
 roupNormalization)                                                                               
                                                                                                  
 activation_313 (Activation  (None, 14, 14, 4096)         0         ['group_normalization_296[0][0
 )                                                                  ]']                           
                                                                                                  
 conv2d_313 (Conv2D)         (None, 14, 14, 1024)         4194304   ['activation_313[0][0]']      
                                                                                                  
 group_normalization_297 (G  (None, 14, 14, 1024)         2048      ['conv2d_313[0][0]']          
 roupNormalization)                                                                               
                                                                                                  
 activation_314 (Activation  (None, 14, 14, 1024)         0         ['group_normalization_297[0][0
 )                                                                  ]']                           
                                                                                                  
 padding_from_kernel_size_1  (None, 16, 16, 1024)         0         ['activation_314[0][0]']      
 04 (PaddingFromKernelSize)                                                                       
                                                                                                  
 conv2d_314 (Conv2D)         (None, 14, 14, 1024)         9437184   ['padding_from_kernel_size_104
                                                                    [0][0]']                      
                                                                                                  
 group_normalization_298 (G  (None, 14, 14, 1024)         2048      ['conv2d_314[0][0]']          
 roupNormalization)                                                                               
                                                                                                  
 activation_315 (Activation  (None, 14, 14, 1024)         0         ['group_normalization_298[0][0
 )                                                                  ]']                           
                                                                                                  
 conv2d_315 (Conv2D)         (None, 14, 14, 4096)         4194304   ['activation_315[0][0]']      
                                                                                                  
 add_98 (Add)                (None, 14, 14, 4096)         0         ['conv2d_315[0][0]',          
                                                                     'add_97[0][0]']              
                                                                                                  
 group_normalization_299 (G  (None, 14, 14, 4096)         8192      ['add_98[0][0]']              
 roupNormalization)                                                                               
                                                                                                  
 activation_316 (Activation  (None, 14, 14, 4096)         0         ['group_normalization_299[0][0
 )                                                                  ]']                           
                                                                                                  
 conv2d_316 (Conv2D)         (None, 14, 14, 1024)         4194304   ['activation_316[0][0]']      
                                                                                                  
 group_normalization_300 (G  (None, 14, 14, 1024)         2048      ['conv2d_316[0][0]']          
 roupNormalization)                                                                               
                                                                                                  
 activation_317 (Activation  (None, 14, 14, 1024)         0         ['group_normalization_300[0][0
 )                                                                  ]']                           
                                                                                                  
 padding_from_kernel_size_1  (None, 16, 16, 1024)         0         ['activation_317[0][0]']      
 05 (PaddingFromKernelSize)                                                                       
                                                                                                  
 conv2d_317 (Conv2D)         (None, 14, 14, 1024)         9437184   ['padding_from_kernel_size_105
                                                                    [0][0]']                      
                                                                                                  
 group_normalization_301 (G  (None, 14, 14, 1024)         2048      ['conv2d_317[0][0]']          
 roupNormalization)                                                                               
                                                                                                  
 activation_318 (Activation  (None, 14, 14, 1024)         0         ['group_normalization_301[0][0
 )                                                                  ]']                           
                                                                                                  
 conv2d_318 (Conv2D)         (None, 14, 14, 4096)         4194304   ['activation_318[0][0]']      
                                                                                                  
 add_99 (Add)                (None, 14, 14, 4096)         0         ['conv2d_318[0][0]',          
                                                                     'add_98[0][0]']              
                                                                                                  
 group_normalization_302 (G  (None, 14, 14, 4096)         8192      ['add_99[0][0]']              
 roupNormalization)                                                                               
                                                                                                  
 activation_319 (Activation  (None, 14, 14, 4096)         0         ['group_normalization_302[0][0
 )                                                                  ]']                           
                                                                                                  
 conv2d_319 (Conv2D)         (None, 14, 14, 1024)         4194304   ['activation_319[0][0]']      
                                                                                                  
 group_normalization_303 (G  (None, 14, 14, 1024)         2048      ['conv2d_319[0][0]']          
 roupNormalization)                                                                               
                                                                                                  
 activation_320 (Activation  (None, 14, 14, 1024)         0         ['group_normalization_303[0][0
 )                                                                  ]']                           
                                                                                                  
 padding_from_kernel_size_1  (None, 16, 16, 1024)         0         ['activation_320[0][0]']      
 06 (PaddingFromKernelSize)                                                                       
                                                                                                  
 conv2d_320 (Conv2D)         (None, 14, 14, 1024)         9437184   ['padding_from_kernel_size_106
                                                                    [0][0]']                      
                                                                                                  
 group_normalization_304 (G  (None, 14, 14, 1024)         2048      ['conv2d_320[0][0]']          
 roupNormalization)                                                                               
                                                                                                  
 activation_321 (Activation  (None, 14, 14, 1024)         0         ['group_normalization_304[0][0
 )                                                                  ]']                           
                                                                                                  
 conv2d_321 (Conv2D)         (None, 14, 14, 4096)         4194304   ['activation_321[0][0]']      
                                                                                                  
 add_100 (Add)               (None, 14, 14, 4096)         0         ['conv2d_321[0][0]',          
                                                                     'add_99[0][0]']              
                                                                                                  
 group_normalization_305 (G  (None, 14, 14, 4096)         8192      ['add_100[0][0]']             
 roupNormalization)                                                                               
                                                                                                  
 activation_322 (Activation  (None, 14, 14, 4096)         0         ['group_normalization_305[0][0
 )                                                                  ]']                           
                                                                                                  
 conv2d_322 (Conv2D)         (None, 14, 14, 1024)         4194304   ['activation_322[0][0]']      
                                                                                                  
 group_normalization_306 (G  (None, 14, 14, 1024)         2048      ['conv2d_322[0][0]']          
 roupNormalization)                                                                               
                                                                                                  
 activation_323 (Activation  (None, 14, 14, 1024)         0         ['group_normalization_306[0][0
 )                                                                  ]']                           
                                                                                                  
 padding_from_kernel_size_1  (None, 16, 16, 1024)         0         ['activation_323[0][0]']      
 07 (PaddingFromKernelSize)                                                                       
                                                                                                  
 conv2d_323 (Conv2D)         (None, 14, 14, 1024)         9437184   ['padding_from_kernel_size_107
                                                                    [0][0]']                      
                                                                                                  
 group_normalization_307 (G  (None, 14, 14, 1024)         2048      ['conv2d_323[0][0]']          
 roupNormalization)                                                                               
                                                                                                  
 activation_324 (Activation  (None, 14, 14, 1024)         0         ['group_normalization_307[0][0
 )                                                                  ]']                           
                                                                                                  
 conv2d_324 (Conv2D)         (None, 14, 14, 4096)         4194304   ['activation_324[0][0]']      
                                                                                                  
 add_101 (Add)               (None, 14, 14, 4096)         0         ['conv2d_324[0][0]',          
                                                                     'add_100[0][0]']             
                                                                                                  
 group_normalization_308 (G  (None, 14, 14, 4096)         8192      ['add_101[0][0]']             
 roupNormalization)                                                                               
                                                                                                  
 activation_325 (Activation  (None, 14, 14, 4096)         0         ['group_normalization_308[0][0
 )                                                                  ]']                           
                                                                                                  
 conv2d_325 (Conv2D)         (None, 14, 14, 1024)         4194304   ['activation_325[0][0]']      
                                                                                                  
 group_normalization_309 (G  (None, 14, 14, 1024)         2048      ['conv2d_325[0][0]']          
 roupNormalization)                                                                               
                                                                                                  
 activation_326 (Activation  (None, 14, 14, 1024)         0         ['group_normalization_309[0][0
 )                                                                  ]']                           
                                                                                                  
 padding_from_kernel_size_1  (None, 16, 16, 1024)         0         ['activation_326[0][0]']      
 08 (PaddingFromKernelSize)                                                                       
                                                                                                  
 conv2d_326 (Conv2D)         (None, 14, 14, 1024)         9437184   ['padding_from_kernel_size_108
                                                                    [0][0]']                      
                                                                                                  
 group_normalization_310 (G  (None, 14, 14, 1024)         2048      ['conv2d_326[0][0]']          
 roupNormalization)                                                                               
                                                                                                  
 activation_327 (Activation  (None, 14, 14, 1024)         0         ['group_normalization_310[0][0
 )                                                                  ]']                           
                                                                                                  
 conv2d_327 (Conv2D)         (None, 14, 14, 4096)         4194304   ['activation_327[0][0]']      
                                                                                                  
 add_102 (Add)               (None, 14, 14, 4096)         0         ['conv2d_327[0][0]',          
                                                                     'add_101[0][0]']             
                                                                                                  
 group_normalization_311 (G  (None, 14, 14, 4096)         8192      ['add_102[0][0]']             
 roupNormalization)                                                                               
                                                                                                  
 activation_328 (Activation  (None, 14, 14, 4096)         0         ['group_normalization_311[0][0
 )                                                                  ]']                           
                                                                                                  
 conv2d_328 (Conv2D)         (None, 14, 14, 1024)         4194304   ['activation_328[0][0]']      
                                                                                                  
 group_normalization_312 (G  (None, 14, 14, 1024)         2048      ['conv2d_328[0][0]']          
 roupNormalization)                                                                               
                                                                                                  
 activation_329 (Activation  (None, 14, 14, 1024)         0         ['group_normalization_312[0][0
 )                                                                  ]']                           
                                                                                                  
 padding_from_kernel_size_1  (None, 16, 16, 1024)         0         ['activation_329[0][0]']      
 09 (PaddingFromKernelSize)                                                                       
                                                                                                  
 conv2d_329 (Conv2D)         (None, 14, 14, 1024)         9437184   ['padding_from_kernel_size_109
                                                                    [0][0]']                      
                                                                                                  
 group_normalization_313 (G  (None, 14, 14, 1024)         2048      ['conv2d_329[0][0]']          
 roupNormalization)                                                                               
                                                                                                  
 activation_330 (Activation  (None, 14, 14, 1024)         0         ['group_normalization_313[0][0
 )                                                                  ]']                           
                                                                                                  
 conv2d_330 (Conv2D)         (None, 14, 14, 4096)         4194304   ['activation_330[0][0]']      
                                                                                                  
 add_103 (Add)               (None, 14, 14, 4096)         0         ['conv2d_330[0][0]',          
                                                                     'add_102[0][0]']             
                                                                                                  
 group_normalization_314 (G  (None, 14, 14, 4096)         8192      ['add_103[0][0]']             
 roupNormalization)                                                                               
                                                                                                  
 activation_331 (Activation  (None, 14, 14, 4096)         0         ['group_normalization_314[0][0
 )                                                                  ]']                           
                                                                                                  
 conv2d_331 (Conv2D)         (None, 14, 14, 1024)         4194304   ['activation_331[0][0]']      
                                                                                                  
 group_normalization_315 (G  (None, 14, 14, 1024)         2048      ['conv2d_331[0][0]']          
 roupNormalization)                                                                               
                                                                                                  
 activation_332 (Activation  (None, 14, 14, 1024)         0         ['group_normalization_315[0][0
 )                                                                  ]']                           
                                                                                                  
 padding_from_kernel_size_1  (None, 16, 16, 1024)         0         ['activation_332[0][0]']      
 10 (PaddingFromKernelSize)                                                                       
                                                                                                  
 conv2d_332 (Conv2D)         (None, 14, 14, 1024)         9437184   ['padding_from_kernel_size_110
                                                                    [0][0]']                      
                                                                                                  
 group_normalization_316 (G  (None, 14, 14, 1024)         2048      ['conv2d_332[0][0]']          
 roupNormalization)                                                                               
                                                                                                  
 activation_333 (Activation  (None, 14, 14, 1024)         0         ['group_normalization_316[0][0
 )                                                                  ]']                           
                                                                                                  
 conv2d_333 (Conv2D)         (None, 14, 14, 4096)         4194304   ['activation_333[0][0]']      
                                                                                                  
 add_104 (Add)               (None, 14, 14, 4096)         0         ['conv2d_333[0][0]',          
                                                                     'add_103[0][0]']             
                                                                                                  
 group_normalization_317 (G  (None, 14, 14, 4096)         8192      ['add_104[0][0]']             
 roupNormalization)                                                                               
                                                                                                  
 activation_334 (Activation  (None, 14, 14, 4096)         0         ['group_normalization_317[0][0
 )                                                                  ]']                           
                                                                                                  
 conv2d_334 (Conv2D)         (None, 14, 14, 1024)         4194304   ['activation_334[0][0]']      
                                                                                                  
 group_normalization_318 (G  (None, 14, 14, 1024)         2048      ['conv2d_334[0][0]']          
 roupNormalization)                                                                               
                                                                                                  
 activation_335 (Activation  (None, 14, 14, 1024)         0         ['group_normalization_318[0][0
 )                                                                  ]']                           
                                                                                                  
 padding_from_kernel_size_1  (None, 16, 16, 1024)         0         ['activation_335[0][0]']      
 11 (PaddingFromKernelSize)                                                                       
                                                                                                  
 conv2d_335 (Conv2D)         (None, 14, 14, 1024)         9437184   ['padding_from_kernel_size_111
                                                                    [0][0]']                      
                                                                                                  
 group_normalization_319 (G  (None, 14, 14, 1024)         2048      ['conv2d_335[0][0]']          
 roupNormalization)                                                                               
                                                                                                  
 activation_336 (Activation  (None, 14, 14, 1024)         0         ['group_normalization_319[0][0
 )                                                                  ]']                           
                                                                                                  
 conv2d_336 (Conv2D)         (None, 14, 14, 4096)         4194304   ['activation_336[0][0]']      
                                                                                                  
 add_105 (Add)               (None, 14, 14, 4096)         0         ['conv2d_336[0][0]',          
                                                                     'add_104[0][0]']             
                                                                                                  
 group_normalization_320 (G  (None, 14, 14, 4096)         8192      ['add_105[0][0]']             
 roupNormalization)                                                                               
                                                                                                  
 activation_337 (Activation  (None, 14, 14, 4096)         0         ['group_normalization_320[0][0
 )                                                                  ]']                           
                                                                                                  
 conv2d_337 (Conv2D)         (None, 14, 14, 1024)         4194304   ['activation_337[0][0]']      
                                                                                                  
 group_normalization_321 (G  (None, 14, 14, 1024)         2048      ['conv2d_337[0][0]']          
 roupNormalization)                                                                               
                                                                                                  
 activation_338 (Activation  (None, 14, 14, 1024)         0         ['group_normalization_321[0][0
 )                                                                  ]']                           
                                                                                                  
 padding_from_kernel_size_1  (None, 16, 16, 1024)         0         ['activation_338[0][0]']      
 12 (PaddingFromKernelSize)                                                                       
                                                                                                  
 conv2d_338 (Conv2D)         (None, 14, 14, 1024)         9437184   ['padding_from_kernel_size_112
                                                                    [0][0]']                      
                                                                                                  
 group_normalization_322 (G  (None, 14, 14, 1024)         2048      ['conv2d_338[0][0]']          
 roupNormalization)                                                                               
                                                                                                  
 activation_339 (Activation  (None, 14, 14, 1024)         0         ['group_normalization_322[0][0
 )                                                                  ]']                           
                                                                                                  
 conv2d_339 (Conv2D)         (None, 14, 14, 4096)         4194304   ['activation_339[0][0]']      
                                                                                                  
 add_106 (Add)               (None, 14, 14, 4096)         0         ['conv2d_339[0][0]',          
                                                                     'add_105[0][0]']             
                                                                                                  
 group_normalization_323 (G  (None, 14, 14, 4096)         8192      ['add_106[0][0]']             
 roupNormalization)                                                                               
                                                                                                  
 activation_340 (Activation  (None, 14, 14, 4096)         0         ['group_normalization_323[0][0
 )                                                                  ]']                           
                                                                                                  
 conv2d_340 (Conv2D)         (None, 14, 14, 1024)         4194304   ['activation_340[0][0]']      
                                                                                                  
 group_normalization_324 (G  (None, 14, 14, 1024)         2048      ['conv2d_340[0][0]']          
 roupNormalization)                                                                               
                                                                                                  
 activation_341 (Activation  (None, 14, 14, 1024)         0         ['group_normalization_324[0][0
 )                                                                  ]']                           
                                                                                                  
 padding_from_kernel_size_1  (None, 16, 16, 1024)         0         ['activation_341[0][0]']      
 13 (PaddingFromKernelSize)                                                                       
                                                                                                  
 conv2d_341 (Conv2D)         (None, 14, 14, 1024)         9437184   ['padding_from_kernel_size_113
                                                                    [0][0]']                      
                                                                                                  
 group_normalization_325 (G  (None, 14, 14, 1024)         2048      ['conv2d_341[0][0]']          
 roupNormalization)                                                                               
                                                                                                  
 activation_342 (Activation  (None, 14, 14, 1024)         0         ['group_normalization_325[0][0
 )                                                                  ]']                           
                                                                                                  
 conv2d_342 (Conv2D)         (None, 14, 14, 4096)         4194304   ['activation_342[0][0]']      
                                                                                                  
 add_107 (Add)               (None, 14, 14, 4096)         0         ['conv2d_342[0][0]',          
                                                                     'add_106[0][0]']             
                                                                                                  
 group_normalization_326 (G  (None, 14, 14, 4096)         8192      ['add_107[0][0]']             
 roupNormalization)                                                                               
                                                                                                  
 activation_343 (Activation  (None, 14, 14, 4096)         0         ['group_normalization_326[0][0
 )                                                                  ]']                           
                                                                                                  
 conv2d_343 (Conv2D)         (None, 14, 14, 1024)         4194304   ['activation_343[0][0]']      
                                                                                                  
 group_normalization_327 (G  (None, 14, 14, 1024)         2048      ['conv2d_343[0][0]']          
 roupNormalization)                                                                               
                                                                                                  
 activation_344 (Activation  (None, 14, 14, 1024)         0         ['group_normalization_327[0][0
 )                                                                  ]']                           
                                                                                                  
 padding_from_kernel_size_1  (None, 16, 16, 1024)         0         ['activation_344[0][0]']      
 14 (PaddingFromKernelSize)                                                                       
                                                                                                  
 conv2d_344 (Conv2D)         (None, 14, 14, 1024)         9437184   ['padding_from_kernel_size_114
                                                                    [0][0]']                      
                                                                                                  
 group_normalization_328 (G  (None, 14, 14, 1024)         2048      ['conv2d_344[0][0]']          
 roupNormalization)                                                                               
                                                                                                  
 activation_345 (Activation  (None, 14, 14, 1024)         0         ['group_normalization_328[0][0
 )                                                                  ]']                           
                                                                                                  
 conv2d_345 (Conv2D)         (None, 14, 14, 4096)         4194304   ['activation_345[0][0]']      
                                                                                                  
 add_108 (Add)               (None, 14, 14, 4096)         0         ['conv2d_345[0][0]',          
                                                                     'add_107[0][0]']             
                                                                                                  
 group_normalization_329 (G  (None, 14, 14, 4096)         8192      ['add_108[0][0]']             
 roupNormalization)                                                                               
                                                                                                  
 activation_346 (Activation  (None, 14, 14, 4096)         0         ['group_normalization_329[0][0
 )                                                                  ]']                           
                                                                                                  
 conv2d_346 (Conv2D)         (None, 14, 14, 1024)         4194304   ['activation_346[0][0]']      
                                                                                                  
 group_normalization_330 (G  (None, 14, 14, 1024)         2048      ['conv2d_346[0][0]']          
 roupNormalization)                                                                               
                                                                                                  
 activation_347 (Activation  (None, 14, 14, 1024)         0         ['group_normalization_330[0][0
 )                                                                  ]']                           
                                                                                                  
 padding_from_kernel_size_1  (None, 16, 16, 1024)         0         ['activation_347[0][0]']      
 15 (PaddingFromKernelSize)                                                                       
                                                                                                  
 conv2d_347 (Conv2D)         (None, 14, 14, 1024)         9437184   ['padding_from_kernel_size_115
                                                                    [0][0]']                      
                                                                                                  
 group_normalization_331 (G  (None, 14, 14, 1024)         2048      ['conv2d_347[0][0]']          
 roupNormalization)                                                                               
                                                                                                  
 activation_348 (Activation  (None, 14, 14, 1024)         0         ['group_normalization_331[0][0
 )                                                                  ]']                           
                                                                                                  
 conv2d_348 (Conv2D)         (None, 14, 14, 4096)         4194304   ['activation_348[0][0]']      
                                                                                                  
 add_109 (Add)               (None, 14, 14, 4096)         0         ['conv2d_348[0][0]',          
                                                                     'add_108[0][0]']             
                                                                                                  
 group_normalization_332 (G  (None, 14, 14, 4096)         8192      ['add_109[0][0]']             
 roupNormalization)                                                                               
                                                                                                  
 activation_349 (Activation  (None, 14, 14, 4096)         0         ['group_normalization_332[0][0
 )                                                                  ]']                           
                                                                                                  
 conv2d_349 (Conv2D)         (None, 14, 14, 1024)         4194304   ['activation_349[0][0]']      
                                                                                                  
 group_normalization_333 (G  (None, 14, 14, 1024)         2048      ['conv2d_349[0][0]']          
 roupNormalization)                                                                               
                                                                                                  
 activation_350 (Activation  (None, 14, 14, 1024)         0         ['group_normalization_333[0][0
 )                                                                  ]']                           
                                                                                                  
 padding_from_kernel_size_1  (None, 16, 16, 1024)         0         ['activation_350[0][0]']      
 16 (PaddingFromKernelSize)                                                                       
                                                                                                  
 conv2d_350 (Conv2D)         (None, 14, 14, 1024)         9437184   ['padding_from_kernel_size_116
                                                                    [0][0]']                      
                                                                                                  
 group_normalization_334 (G  (None, 14, 14, 1024)         2048      ['conv2d_350[0][0]']          
 roupNormalization)                                                                               
                                                                                                  
 activation_351 (Activation  (None, 14, 14, 1024)         0         ['group_normalization_334[0][0
 )                                                                  ]']                           
                                                                                                  
 conv2d_351 (Conv2D)         (None, 14, 14, 4096)         4194304   ['activation_351[0][0]']      
                                                                                                  
 add_110 (Add)               (None, 14, 14, 4096)         0         ['conv2d_351[0][0]',          
                                                                     'add_109[0][0]']             
                                                                                                  
 group_normalization_335 (G  (None, 14, 14, 4096)         8192      ['add_110[0][0]']             
 roupNormalization)                                                                               
                                                                                                  
 activation_352 (Activation  (None, 14, 14, 4096)         0         ['group_normalization_335[0][0
 )                                                                  ]']                           
                                                                                                  
 conv2d_352 (Conv2D)         (None, 14, 14, 1024)         4194304   ['activation_352[0][0]']      
                                                                                                  
 group_normalization_336 (G  (None, 14, 14, 1024)         2048      ['conv2d_352[0][0]']          
 roupNormalization)                                                                               
                                                                                                  
 activation_353 (Activation  (None, 14, 14, 1024)         0         ['group_normalization_336[0][0
 )                                                                  ]']                           
                                                                                                  
 padding_from_kernel_size_1  (None, 16, 16, 1024)         0         ['activation_353[0][0]']      
 17 (PaddingFromKernelSize)                                                                       
                                                                                                  
 conv2d_353 (Conv2D)         (None, 14, 14, 1024)         9437184   ['padding_from_kernel_size_117
                                                                    [0][0]']                      
                                                                                                  
 group_normalization_337 (G  (None, 14, 14, 1024)         2048      ['conv2d_353[0][0]']          
 roupNormalization)                                                                               
                                                                                                  
 activation_354 (Activation  (None, 14, 14, 1024)         0         ['group_normalization_337[0][0
 )                                                                  ]']                           
                                                                                                  
 conv2d_354 (Conv2D)         (None, 14, 14, 4096)         4194304   ['activation_354[0][0]']      
                                                                                                  
 add_111 (Add)               (None, 14, 14, 4096)         0         ['conv2d_354[0][0]',          
                                                                     'add_110[0][0]']             
                                                                                                  
 group_normalization_338 (G  (None, 14, 14, 4096)         8192      ['add_111[0][0]']             
 roupNormalization)                                                                               
                                                                                                  
 activation_355 (Activation  (None, 14, 14, 4096)         0         ['group_normalization_338[0][0
 )                                                                  ]']                           
                                                                                                  
 conv2d_355 (Conv2D)         (None, 14, 14, 1024)         4194304   ['activation_355[0][0]']      
                                                                                                  
 group_normalization_339 (G  (None, 14, 14, 1024)         2048      ['conv2d_355[0][0]']          
 roupNormalization)                                                                               
                                                                                                  
 activation_356 (Activation  (None, 14, 14, 1024)         0         ['group_normalization_339[0][0
 )                                                                  ]']                           
                                                                                                  
 padding_from_kernel_size_1  (None, 16, 16, 1024)         0         ['activation_356[0][0]']      
 18 (PaddingFromKernelSize)                                                                       
                                                                                                  
 conv2d_356 (Conv2D)         (None, 14, 14, 1024)         9437184   ['padding_from_kernel_size_118
                                                                    [0][0]']                      
                                                                                                  
 group_normalization_340 (G  (None, 14, 14, 1024)         2048      ['conv2d_356[0][0]']          
 roupNormalization)                                                                               
                                                                                                  
 activation_357 (Activation  (None, 14, 14, 1024)         0         ['group_normalization_340[0][0
 )                                                                  ]']                           
                                                                                                  
 conv2d_357 (Conv2D)         (None, 14, 14, 4096)         4194304   ['activation_357[0][0]']      
                                                                                                  
 add_112 (Add)               (None, 14, 14, 4096)         0         ['conv2d_357[0][0]',          
                                                                     'add_111[0][0]']             
                                                                                                  
 group_normalization_341 (G  (None, 14, 14, 4096)         8192      ['add_112[0][0]']             
 roupNormalization)                                                                               
                                                                                                  
 activation_358 (Activation  (None, 14, 14, 4096)         0         ['group_normalization_341[0][0
 )                                                                  ]']                           
                                                                                                  
 conv2d_359 (Conv2D)         (None, 14, 14, 2048)         8388608   ['activation_358[0][0]']      
                                                                                                  
 group_normalization_342 (G  (None, 14, 14, 2048)         4096      ['conv2d_359[0][0]']          
 roupNormalization)                                                                               
                                                                                                  
 activation_359 (Activation  (None, 14, 14, 2048)         0         ['group_normalization_342[0][0
 )                                                                  ]']                           
                                                                                                  
 padding_from_kernel_size_1  (None, 16, 16, 2048)         0         ['activation_359[0][0]']      
 19 (PaddingFromKernelSize)                                                                       
                                                                                                  
 conv2d_360 (Conv2D)         (None, 7, 7, 2048)           3774873   ['padding_from_kernel_size_119
                                                          6         [0][0]']                      
                                                                                                  
 group_normalization_343 (G  (None, 7, 7, 2048)           4096      ['conv2d_360[0][0]']          
 roupNormalization)                                                                               
                                                                                                  
 activation_360 (Activation  (None, 7, 7, 2048)           0         ['group_normalization_343[0][0
 )                                                                  ]']                           
                                                                                                  
 conv2d_361 (Conv2D)         (None, 7, 7, 8192)           1677721   ['activation_360[0][0]']      
                                                          6                                       
                                                                                                  
 conv2d_358 (Conv2D)         (None, 7, 7, 8192)           3355443   ['activation_358[0][0]']      
                                                          2                                       
                                                                                                  
 add_113 (Add)               (None, 7, 7, 8192)           0         ['conv2d_361[0][0]',          
                                                                     'conv2d_358[0][0]']          
                                                                                                  
 group_normalization_344 (G  (None, 7, 7, 8192)           16384     ['add_113[0][0]']             
 roupNormalization)                                                                               
                                                                                                  
 activation_361 (Activation  (None, 7, 7, 8192)           0         ['group_normalization_344[0][0
 )                                                                  ]']                           
                                                                                                  
 conv2d_362 (Conv2D)         (None, 7, 7, 2048)           1677721   ['activation_361[0][0]']      
                                                          6                                       
                                                                                                  
 group_normalization_345 (G  (None, 7, 7, 2048)           4096      ['conv2d_362[0][0]']          
 roupNormalization)                                                                               
                                                                                                  
 activation_362 (Activation  (None, 7, 7, 2048)           0         ['group_normalization_345[0][0
 )                                                                  ]']                           
                                                                                                  
 padding_from_kernel_size_1  (None, 9, 9, 2048)           0         ['activation_362[0][0]']      
 20 (PaddingFromKernelSize)                                                                       
                                                                                                  
 conv2d_363 (Conv2D)         (None, 7, 7, 2048)           3774873   ['padding_from_kernel_size_120
                                                          6         [0][0]']                      
                                                                                                  
 group_normalization_346 (G  (None, 7, 7, 2048)           4096      ['conv2d_363[0][0]']          
 roupNormalization)                                                                               
                                                                                                  
 activation_363 (Activation  (None, 7, 7, 2048)           0         ['group_normalization_346[0][0
 )                                                                  ]']                           
                                                                                                  
 conv2d_364 (Conv2D)         (None, 7, 7, 8192)           1677721   ['activation_363[0][0]']      
                                                          6                                       
                                                                                                  
 add_114 (Add)               (None, 7, 7, 8192)           0         ['conv2d_364[0][0]',          
                                                                     'add_113[0][0]']             
                                                                                                  
 group_normalization_347 (G  (None, 7, 7, 8192)           16384     ['add_114[0][0]']             
 roupNormalization)                                                                               
                                                                                                  
 activation_364 (Activation  (None, 7, 7, 8192)           0         ['group_normalization_347[0][0
 )                                                                  ]']                           
                                                                                                  
 conv2d_365 (Conv2D)         (None, 7, 7, 2048)           1677721   ['activation_364[0][0]']      
                                                          6                                       
                                                                                                  
 group_normalization_348 (G  (None, 7, 7, 2048)           4096      ['conv2d_365[0][0]']          
 roupNormalization)                                                                               
                                                                                                  
 activation_365 (Activation  (None, 7, 7, 2048)           0         ['group_normalization_348[0][0
 )                                                                  ]']                           
                                                                                                  
 padding_from_kernel_size_1  (None, 9, 9, 2048)           0         ['activation_365[0][0]']      
 21 (PaddingFromKernelSize)                                                                       
                                                                                                  
 conv2d_366 (Conv2D)         (None, 7, 7, 2048)           3774873   ['padding_from_kernel_size_121
                                                          6         [0][0]']                      
                                                                                                  
 group_normalization_349 (G  (None, 7, 7, 2048)           4096      ['conv2d_366[0][0]']          
 roupNormalization)                                                                               
                                                                                                  
 activation_366 (Activation  (None, 7, 7, 2048)           0         ['group_normalization_349[0][0
 )                                                                  ]']                           
                                                                                                  
 conv2d_367 (Conv2D)         (None, 7, 7, 8192)           1677721   ['activation_366[0][0]']      
                                                          6                                       
                                                                                                  
 add_115 (Add)               (None, 7, 7, 8192)           0         ['conv2d_367[0][0]',          
                                                                     'add_114[0][0]']             
                                                                                                  
 activation_367 (Activation  (None, 7, 7, 8192)           0         ['add_115[0][0]']             
 )                                                                                                
                                                                                                  
 group_normalization_350 (G  (None, 7, 7, 8192)           16384     ['activation_367[0][0]']      
 roupNormalization)                                                                               
                                                                                                  
 global_average_pooling2d_2  (None, 8192)                 0         ['group_normalization_350[0][0
  (GlobalAveragePooling2D)                                          ]']                           
                                                                                                  
 predictions (Dense)         (None, 1000)                 8193000   ['global_average_pooling2d_2[0
                                                                    ][0]']                        
                                                                                                  
 activation_368 (Activation  (None, 1000)                 0         ['predictions[0][0]']         
 )                                                                                                
                                                                                                  
==================================================================================================
Total params: 936258856 (-549931872.00 Byte)
Trainable params: 936258856 (-549931872.00 Byte)
…
