Model: "BiT-S-R101x3"
__________________________________________________________________________________________________
 Layer (type)                Output Shape                 Param #   Connected to                  
==================================================================================================
 input_15 (InputLayer)       [(None, 224, 224, 3)]        0         []                            
                                                                                                  
 padding_from_kernel_size_1  (None, 230, 230, 3)          0         ['input_15[0][0]']            
 93 (PaddingFromKernelSize)                                                                       
                                                                                                  
 conv2d_578 (Conv2D)         (None, 112, 112, 64)         9408      ['padding_from_kernel_size_193
                                                                    [0][0]']                      
                                                                                                  
 padding_from_kernel_size_1  (None, 114, 114, 64)         0         ['conv2d_578[0][0]']          
 94 (PaddingFromKernelSize)                                                                       
                                                                                                  
 max_pooling2d_9 (MaxPoolin  (None, 56, 56, 64)           0         ['padding_from_kernel_size_194
 g2D)                                                               [0][0]']                      
                                                                                                  
 group_normalization_549 (G  (None, 56, 56, 64)           128       ['max_pooling2d_9[0][0]']     
 roupNormalization)                                                                               
                                                                                                  
 activation_570 (Activation  (None, 56, 56, 64)           0         ['group_normalization_549[0][0
 )                                                                  ]']                           
                                                                                                  
 conv2d_580 (Conv2D)         (None, 56, 56, 192)          12288     ['activation_570[0][0]']      
                                                                                                  
 group_normalization_550 (G  (None, 56, 56, 192)          384       ['conv2d_580[0][0]']          
 roupNormalization)                                                                               
                                                                                                  
 activation_571 (Activation  (None, 56, 56, 192)          0         ['group_normalization_550[0][0
 )                                                                  ]']                           
                                                                                                  
 padding_from_kernel_size_1  (None, 58, 58, 192)          0         ['activation_571[0][0]']      
 95 (PaddingFromKernelSize)                                                                       
                                                                                                  
 conv2d_581 (Conv2D)         (None, 56, 56, 192)          331776    ['padding_from_kernel_size_195
                                                                    [0][0]']                      
                                                                                                  
 group_normalization_551 (G  (None, 56, 56, 192)          384       ['conv2d_581[0][0]']          
 roupNormalization)                                                                               
                                                                                                  
 activation_572 (Activation  (None, 56, 56, 192)          0         ['group_normalization_551[0][0
 )                                                                  ]']                           
                                                                                                  
 conv2d_582 (Conv2D)         (None, 56, 56, 768)          147456    ['activation_572[0][0]']      
                                                                                                  
 conv2d_579 (Conv2D)         (None, 56, 56, 768)          49152     ['activation_570[0][0]']      
                                                                                                  
 add_181 (Add)               (None, 56, 56, 768)          0         ['conv2d_582[0][0]',          
                                                                     'conv2d_579[0][0]']          
                                                                                                  
 group_normalization_552 (G  (None, 56, 56, 768)          1536      ['add_181[0][0]']             
 roupNormalization)                                                                               
                                                                                                  
 activation_573 (Activation  (None, 56, 56, 768)          0         ['group_normalization_552[0][0
 )                                                                  ]']                           
                                                                                                  
 conv2d_583 (Conv2D)         (None, 56, 56, 192)          147456    ['activation_573[0][0]']      
                                                                                                  
 group_normalization_553 (G  (None, 56, 56, 192)          384       ['conv2d_583[0][0]']          
 roupNormalization)                                                                               
                                                                                                  
 activation_574 (Activation  (None, 56, 56, 192)          0         ['group_normalization_553[0][0
 )                                                                  ]']                           
                                                                                                  
 padding_from_kernel_size_1  (None, 58, 58, 192)          0         ['activation_574[0][0]']      
 96 (PaddingFromKernelSize)                                                                       
                                                                                                  
 conv2d_584 (Conv2D)         (None, 56, 56, 192)          331776    ['padding_from_kernel_size_196
                                                                    [0][0]']                      
                                                                                                  
 group_normalization_554 (G  (None, 56, 56, 192)          384       ['conv2d_584[0][0]']          
 roupNormalization)                                                                               
                                                                                                  
 activation_575 (Activation  (None, 56, 56, 192)          0         ['group_normalization_554[0][0
 )                                                                  ]']                           
                                                                                                  
 conv2d_585 (Conv2D)         (None, 56, 56, 768)          147456    ['activation_575[0][0]']      
                                                                                                  
 add_182 (Add)               (None, 56, 56, 768)          0         ['conv2d_585[0][0]',          
                                                                     'add_181[0][0]']             
                                                                                                  
 group_normalization_555 (G  (None, 56, 56, 768)          1536      ['add_182[0][0]']             
 roupNormalization)                                                                               
                                                                                                  
 activation_576 (Activation  (None, 56, 56, 768)          0         ['group_normalization_555[0][0
 )                                                                  ]']                           
                                                                                                  
 conv2d_586 (Conv2D)         (None, 56, 56, 192)          147456    ['activation_576[0][0]']      
                                                                                                  
 group_normalization_556 (G  (None, 56, 56, 192)          384       ['conv2d_586[0][0]']          
 roupNormalization)                                                                               
                                                                                                  
 activation_577 (Activation  (None, 56, 56, 192)          0         ['group_normalization_556[0][0
 )                                                                  ]']                           
                                                                                                  
 padding_from_kernel_size_1  (None, 58, 58, 192)          0         ['activation_577[0][0]']      
 97 (PaddingFromKernelSize)                                                                       
                                                                                                  
 conv2d_587 (Conv2D)         (None, 56, 56, 192)          331776    ['padding_from_kernel_size_197
                                                                    [0][0]']                      
                                                                                                  
 group_normalization_557 (G  (None, 56, 56, 192)          384       ['conv2d_587[0][0]']          
 roupNormalization)                                                                               
                                                                                                  
 activation_578 (Activation  (None, 56, 56, 192)          0         ['group_normalization_557[0][0
 )                                                                  ]']                           
                                                                                                  
 conv2d_588 (Conv2D)         (None, 56, 56, 768)          147456    ['activation_578[0][0]']      
                                                                                                  
 add_183 (Add)               (None, 56, 56, 768)          0         ['conv2d_588[0][0]',          
                                                                     'add_182[0][0]']             
                                                                                                  
 group_normalization_558 (G  (None, 56, 56, 768)          1536      ['add_183[0][0]']             
 roupNormalization)                                                                               
                                                                                                  
 activation_579 (Activation  (None, 56, 56, 768)          0         ['group_normalization_558[0][0
 )                                                                  ]']                           
                                                                                                  
 conv2d_590 (Conv2D)         (None, 56, 56, 384)          294912    ['activation_579[0][0]']      
                                                                                                  
 group_normalization_559 (G  (None, 56, 56, 384)          768       ['conv2d_590[0][0]']          
 roupNormalization)                                                                               
                                                                                                  
 activation_580 (Activation  (None, 56, 56, 384)          0         ['group_normalization_559[0][0
 )                                                                  ]']                           
                                                                                                  
 padding_from_kernel_size_1  (None, 58, 58, 384)          0         ['activation_580[0][0]']      
 98 (PaddingFromKernelSize)                                                                       
                                                                                                  
 conv2d_591 (Conv2D)         (None, 28, 28, 384)          1327104   ['padding_from_kernel_size_198
                                                                    [0][0]']                      
                                                                                                  
 group_normalization_560 (G  (None, 28, 28, 384)          768       ['conv2d_591[0][0]']          
 roupNormalization)                                                                               
                                                                                                  
 activation_581 (Activation  (None, 28, 28, 384)          0         ['group_normalization_560[0][0
 )                                                                  ]']                           
                                                                                                  
 conv2d_592 (Conv2D)         (None, 28, 28, 1536)         589824    ['activation_581[0][0]']      
                                                                                                  
 conv2d_589 (Conv2D)         (None, 28, 28, 1536)         1179648   ['activation_579[0][0]']      
                                                                                                  
 add_184 (Add)               (None, 28, 28, 1536)         0         ['conv2d_592[0][0]',          
                                                                     'conv2d_589[0][0]']          
                                                                                                  
 group_normalization_561 (G  (None, 28, 28, 1536)         3072      ['add_184[0][0]']             
 roupNormalization)                                                                               
                                                                                                  
 activation_582 (Activation  (None, 28, 28, 1536)         0         ['group_normalization_561[0][0
 )                                                                  ]']                           
                                                                                                  
 conv2d_593 (Conv2D)         (None, 28, 28, 384)          589824    ['activation_582[0][0]']      
                                                                                                  
 group_normalization_562 (G  (None, 28, 28, 384)          768       ['conv2d_593[0][0]']          
 roupNormalization)                                                                               
                                                                                                  
 activation_583 (Activation  (None, 28, 28, 384)          0         ['group_normalization_562[0][0
 )                                                                  ]']                           
                                                                                                  
 padding_from_kernel_size_1  (None, 30, 30, 384)          0         ['activation_583[0][0]']      
 99 (PaddingFromKernelSize)                                                                       
                                                                                                  
 conv2d_594 (Conv2D)         (None, 28, 28, 384)          1327104   ['padding_from_kernel_size_199
                                                                    [0][0]']                      
                                                                                                  
 group_normalization_563 (G  (None, 28, 28, 384)          768       ['conv2d_594[0][0]']          
 roupNormalization)                                                                               
                                                                                                  
 activation_584 (Activation  (None, 28, 28, 384)          0         ['group_normalization_563[0][0
 )                                                                  ]']                           
                                                                                                  
 conv2d_595 (Conv2D)         (None, 28, 28, 1536)         589824    ['activation_584[0][0]']      
                                                                                                  
 add_185 (Add)               (None, 28, 28, 1536)         0         ['conv2d_595[0][0]',          
                                                                     'add_184[0][0]']             
                                                                                                  
 group_normalization_564 (G  (None, 28, 28, 1536)         3072      ['add_185[0][0]']             
 roupNormalization)                                                                               
                                                                                                  
 activation_585 (Activation  (None, 28, 28, 1536)         0         ['group_normalization_564[0][0
 )                                                                  ]']                           
                                                                                                  
 conv2d_596 (Conv2D)         (None, 28, 28, 384)          589824    ['activation_585[0][0]']      
                                                                                                  
 group_normalization_565 (G  (None, 28, 28, 384)          768       ['conv2d_596[0][0]']          
 roupNormalization)                                                                               
                                                                                                  
 activation_586 (Activation  (None, 28, 28, 384)          0         ['group_normalization_565[0][0
 )                                                                  ]']                           
                                                                                                  
 padding_from_kernel_size_2  (None, 30, 30, 384)          0         ['activation_586[0][0]']      
 00 (PaddingFromKernelSize)                                                                       
                                                                                                  
 conv2d_597 (Conv2D)         (None, 28, 28, 384)          1327104   ['padding_from_kernel_size_200
                                                                    [0][0]']                      
                                                                                                  
 group_normalization_566 (G  (None, 28, 28, 384)          768       ['conv2d_597[0][0]']          
 roupNormalization)                                                                               
                                                                                                  
 activation_587 (Activation  (None, 28, 28, 384)          0         ['group_normalization_566[0][0
 )                                                                  ]']                           
                                                                                                  
 conv2d_598 (Conv2D)         (None, 28, 28, 1536)         589824    ['activation_587[0][0]']      
                                                                                                  
 add_186 (Add)               (None, 28, 28, 1536)         0         ['conv2d_598[0][0]',          
                                                                     'add_185[0][0]']             
                                                                                                  
 group_normalization_567 (G  (None, 28, 28, 1536)         3072      ['add_186[0][0]']             
 roupNormalization)                                                                               
                                                                                                  
 activation_588 (Activation  (None, 28, 28, 1536)         0         ['group_normalization_567[0][0
 )                                                                  ]']                           
                                                                                                  
 conv2d_599 (Conv2D)         (None, 28, 28, 384)          589824    ['activation_588[0][0]']      
                                                                                                  
 group_normalization_568 (G  (None, 28, 28, 384)          768       ['conv2d_599[0][0]']          
 roupNormalization)                                                                               
                                                                                                  
 activation_589 (Activation  (None, 28, 28, 384)          0         ['group_normalization_568[0][0
 )                                                                  ]']                           
                                                                                                  
 padding_from_kernel_size_2  (None, 30, 30, 384)          0         ['activation_589[0][0]']      
 01 (PaddingFromKernelSize)                                                                       
                                                                                                  
 conv2d_600 (Conv2D)         (None, 28, 28, 384)          1327104   ['padding_from_kernel_size_201
                                                                    [0][0]']                      
                                                                                                  
 group_normalization_569 (G  (None, 28, 28, 384)          768       ['conv2d_600[0][0]']          
 roupNormalization)                                                                               
                                                                                                  
 activation_590 (Activation  (None, 28, 28, 384)          0         ['group_normalization_569[0][0
 )                                                                  ]']                           
                                                                                                  
 conv2d_601 (Conv2D)         (None, 28, 28, 1536)         589824    ['activation_590[0][0]']      
                                                                                                  
 add_187 (Add)               (None, 28, 28, 1536)         0         ['conv2d_601[0][0]',          
                                                                     'add_186[0][0]']             
                                                                                                  
 group_normalization_570 (G  (None, 28, 28, 1536)         3072      ['add_187[0][0]']             
 roupNormalization)                                                                               
                                                                                                  
 activation_591 (Activation  (None, 28, 28, 1536)         0         ['group_normalization_570[0][0
 )                                                                  ]']                           
                                                                                                  
 conv2d_603 (Conv2D)         (None, 28, 28, 768)          1179648   ['activation_591[0][0]']      
                                                                                                  
 group_normalization_571 (G  (None, 28, 28, 768)          1536      ['conv2d_603[0][0]']          
 roupNormalization)                                                                               
                                                                                                  
 activation_592 (Activation  (None, 28, 28, 768)          0         ['group_normalization_571[0][0
 )                                                                  ]']                           
                                                                                                  
 padding_from_kernel_size_2  (None, 30, 30, 768)          0         ['activation_592[0][0]']      
 02 (PaddingFromKernelSize)                                                                       
                                                                                                  
 conv2d_604 (Conv2D)         (None, 14, 14, 768)          5308416   ['padding_from_kernel_size_202
                                                                    [0][0]']                      
                                                                                                  
 group_normalization_572 (G  (None, 14, 14, 768)          1536      ['conv2d_604[0][0]']          
 roupNormalization)                                                                               
                                                                                                  
 activation_593 (Activation  (None, 14, 14, 768)          0         ['group_normalization_572[0][0
 )                                                                  ]']                           
                                                                                                  
 conv2d_605 (Conv2D)         (None, 14, 14, 3072)         2359296   ['activation_593[0][0]']      
                                                                                                  
 conv2d_602 (Conv2D)         (None, 14, 14, 3072)         4718592   ['activation_591[0][0]']      
                                                                                                  
 add_188 (Add)               (None, 14, 14, 3072)         0         ['conv2d_605[0][0]',          
                                                                     'conv2d_602[0][0]']          
                                                                                                  
 group_normalization_573 (G  (None, 14, 14, 3072)         6144      ['add_188[0][0]']             
 roupNormalization)                                                                               
                                                                                                  
 activation_594 (Activation  (None, 14, 14, 3072)         0         ['group_normalization_573[0][0
 )                                                                  ]']                           
                                                                                                  
 conv2d_606 (Conv2D)         (None, 14, 14, 768)          2359296   ['activation_594[0][0]']      
                                                                                                  
 group_normalization_574 (G  (None, 14, 14, 768)          1536      ['conv2d_606[0][0]']          
 roupNormalization)                                                                               
                                                                                                  
 activation_595 (Activation  (None, 14, 14, 768)          0         ['group_normalization_574[0][0
 )                                                                  ]']                           
                                                                                                  
 padding_from_kernel_size_2  (None, 16, 16, 768)          0         ['activation_595[0][0]']      
 03 (PaddingFromKernelSize)                                                                       
                                                                                                  
 conv2d_607 (Conv2D)         (None, 14, 14, 768)          5308416   ['padding_from_kernel_size_203
                                                                    [0][0]']                      
                                                                                                  
 group_normalization_575 (G  (None, 14, 14, 768)          1536      ['conv2d_607[0][0]']          
 roupNormalization)                                                                               
                                                                                                  
 activation_596 (Activation  (None, 14, 14, 768)          0         ['group_normalization_575[0][0
 )                                                                  ]']                           
                                                                                                  
 conv2d_608 (Conv2D)         (None, 14, 14, 3072)         2359296   ['activation_596[0][0]']      
                                                                                                  
 add_189 (Add)               (None, 14, 14, 3072)         0         ['conv2d_608[0][0]',          
                                                                     'add_188[0][0]']             
                                                                                                  
 group_normalization_576 (G  (None, 14, 14, 3072)         6144      ['add_189[0][0]']             
 roupNormalization)                                                                               
                                                                                                  
 activation_597 (Activation  (None, 14, 14, 3072)         0         ['group_normalization_576[0][0
 )                                                                  ]']                           
                                                                                                  
 conv2d_609 (Conv2D)         (None, 14, 14, 768)          2359296   ['activation_597[0][0]']      
                                                                                                  
 group_normalization_577 (G  (None, 14, 14, 768)          1536      ['conv2d_609[0][0]']          
 roupNormalization)                                                                               
                                                                                                  
 activation_598 (Activation  (None, 14, 14, 768)          0         ['group_normalization_577[0][0
 )                                                                  ]']                           
                                                                                                  
 padding_from_kernel_size_2  (None, 16, 16, 768)          0         ['activation_598[0][0]']      
 04 (PaddingFromKernelSize)                                                                       
                                                                                                  
 conv2d_610 (Conv2D)         (None, 14, 14, 768)          5308416   ['padding_from_kernel_size_204
                                                                    [0][0]']                      
                                                                                                  
 group_normalization_578 (G  (None, 14, 14, 768)          1536      ['conv2d_610[0][0]']          
 roupNormalization)                                                                               
                                                                                                  
 activation_599 (Activation  (None, 14, 14, 768)          0         ['group_normalization_578[0][0
 )                                                                  ]']                           
                                                                                                  
 conv2d_611 (Conv2D)         (None, 14, 14, 3072)         2359296   ['activation_599[0][0]']      
                                                                                                  
 add_190 (Add)               (None, 14, 14, 3072)         0         ['conv2d_611[0][0]',          
                                                                     'add_189[0][0]']             
                                                                                                  
 group_normalization_579 (G  (None, 14, 14, 3072)         6144      ['add_190[0][0]']             
 roupNormalization)                                                                               
                                                                                                  
 activation_600 (Activation  (None, 14, 14, 3072)         0         ['group_normalization_579[0][0
 )                                                                  ]']                           
                                                                                                  
 conv2d_612 (Conv2D)         (None, 14, 14, 768)          2359296   ['activation_600[0][0]']      
                                                                                                  
 group_normalization_580 (G  (None, 14, 14, 768)          1536      ['conv2d_612[0][0]']          
 roupNormalization)                                                                               
                                                                                                  
 activation_601 (Activation  (None, 14, 14, 768)          0         ['group_normalization_580[0][0
 )                                                                  ]']                           
                                                                                                  
 padding_from_kernel_size_2  (None, 16, 16, 768)          0         ['activation_601[0][0]']      
 05 (PaddingFromKernelSize)                                                                       
                                                                                                  
 conv2d_613 (Conv2D)         (None, 14, 14, 768)          5308416   ['padding_from_kernel_size_205
                                                                    [0][0]']                      
                                                                                                  
 group_normalization_581 (G  (None, 14, 14, 768)          1536      ['conv2d_613[0][0]']          
 roupNormalization)                                                                               
                                                                                                  
 activation_602 (Activation  (None, 14, 14, 768)          0         ['group_normalization_581[0][0
 )                                                                  ]']                           
                                                                                                  
 conv2d_614 (Conv2D)         (None, 14, 14, 3072)         2359296   ['activation_602[0][0]']      
                                                                                                  
 add_191 (Add)               (None, 14, 14, 3072)         0         ['conv2d_614[0][0]',          
                                                                     'add_190[0][0]']             
                                                                                                  
 group_normalization_582 (G  (None, 14, 14, 3072)         6144      ['add_191[0][0]']             
 roupNormalization)                                                                               
                                                                                                  
 activation_603 (Activation  (None, 14, 14, 3072)         0         ['group_normalization_582[0][0
 )                                                                  ]']                           
                                                                                                  
 conv2d_615 (Conv2D)         (None, 14, 14, 768)          2359296   ['activation_603[0][0]']      
                                                                                                  
 group_normalization_583 (G  (None, 14, 14, 768)          1536      ['conv2d_615[0][0]']          
 roupNormalization)                                                                               
                                                                                                  
 activation_604 (Activation  (None, 14, 14, 768)          0         ['group_normalization_583[0][0
 )                                                                  ]']                           
                                                                                                  
 padding_from_kernel_size_2  (None, 16, 16, 768)          0         ['activation_604[0][0]']      
 06 (PaddingFromKernelSize)                                                                       
                                                                                                  
 conv2d_616 (Conv2D)         (None, 14, 14, 768)          5308416   ['padding_from_kernel_size_206
                                                                    [0][0]']                      
                                                                                                  
 group_normalization_584 (G  (None, 14, 14, 768)          1536      ['conv2d_616[0][0]']          
 roupNormalization)                                                                               
                                                                                                  
 activation_605 (Activation  (None, 14, 14, 768)          0         ['group_normalization_584[0][0
 )                                                                  ]']                           
                                                                                                  
 conv2d_617 (Conv2D)         (None, 14, 14, 3072)         2359296   ['activation_605[0][0]']      
                                                                                                  
 add_192 (Add)               (None, 14, 14, 3072)         0         ['conv2d_617[0][0]',          
                                                                     'add_191[0][0]']             
                                                                                                  
 group_normalization_585 (G  (None, 14, 14, 3072)         6144      ['add_192[0][0]']             
 roupNormalization)                                                                               
                                                                                                  
 activation_606 (Activation  (None, 14, 14, 3072)         0         ['group_normalization_585[0][0
 )                                                                  ]']                           
                                                                                                  
 conv2d_618 (Conv2D)         (None, 14, 14, 768)          2359296   ['activation_606[0][0]']      
                                                                                                  
 group_normalization_586 (G  (None, 14, 14, 768)          1536      ['conv2d_618[0][0]']          
 roupNormalization)                                                                               
                                                                                                  
 activation_607 (Activation  (None, 14, 14, 768)          0         ['group_normalization_586[0][0
 )                                                                  ]']                           
                                                                                                  
 padding_from_kernel_size_2  (None, 16, 16, 768)          0         ['activation_607[0][0]']      
 07 (PaddingFromKernelSize)                                                                       
                                                                                                  
 conv2d_619 (Conv2D)         (None, 14, 14, 768)          5308416   ['padding_from_kernel_size_207
                                                                    [0][0]']                      
                                                                                                  
 group_normalization_587 (G  (None, 14, 14, 768)          1536      ['conv2d_619[0][0]']          
 roupNormalization)                                                                               
                                                                                                  
 activation_608 (Activation  (None, 14, 14, 768)          0         ['group_normalization_587[0][0
 )                                                                  ]']                           
                                                                                                  
 conv2d_620 (Conv2D)         (None, 14, 14, 3072)         2359296   ['activation_608[0][0]']      
                                                                                                  
 add_193 (Add)               (None, 14, 14, 3072)         0         ['conv2d_620[0][0]',          
                                                                     'add_192[0][0]']             
                                                                                                  
 group_normalization_588 (G  (None, 14, 14, 3072)         6144      ['add_193[0][0]']             
 roupNormalization)                                                                               
                                                                                                  
 activation_609 (Activation  (None, 14, 14, 3072)         0         ['group_normalization_588[0][0
 )                                                                  ]']                           
                                                                                                  
 conv2d_621 (Conv2D)         (None, 14, 14, 768)          2359296   ['activation_609[0][0]']      
                                                                                                  
 group_normalization_589 (G  (None, 14, 14, 768)          1536      ['conv2d_621[0][0]']          
 roupNormalization)                                                                               
                                                                                                  
 activation_610 (Activation  (None, 14, 14, 768)          0         ['group_normalization_589[0][0
 )                                                                  ]']                           
                                                                                                  
 padding_from_kernel_size_2  (None, 16, 16, 768)          0         ['activation_610[0][0]']      
 08 (PaddingFromKernelSize)                                                                       
                                                                                                  
 conv2d_622 (Conv2D)         (None, 14, 14, 768)          5308416   ['padding_from_kernel_size_208
                                                                    [0][0]']                      
                                                                                                  
 group_normalization_590 (G  (None, 14, 14, 768)          1536      ['conv2d_622[0][0]']          
 roupNormalization)                                                                               
                                                                                                  
 activation_611 (Activation  (None, 14, 14, 768)          0         ['group_normalization_590[0][0
 )                                                                  ]']                           
                                                                                                  
 conv2d_623 (Conv2D)         (None, 14, 14, 3072)         2359296   ['activation_611[0][0]']      
                                                                                                  
 add_194 (Add)               (None, 14, 14, 3072)         0         ['conv2d_623[0][0]',          
                                                                     'add_193[0][0]']             
                                                                                                  
 group_normalization_591 (G  (None, 14, 14, 3072)         6144      ['add_194[0][0]']             
 roupNormalization)                                                                               
                                                                                                  
 activation_612 (Activation  (None, 14, 14, 3072)         0         ['group_normalization_591[0][0
 )                                                                  ]']                           
                                                                                                  
 conv2d_624 (Conv2D)         (None, 14, 14, 768)          2359296   ['activation_612[0][0]']      
                                                                                                  
 group_normalization_592 (G  (None, 14, 14, 768)          1536      ['conv2d_624[0][0]']          
 roupNormalization)                                                                               
                                                                                                  
 activation_613 (Activation  (None, 14, 14, 768)          0         ['group_normalization_592[0][0
 )                                                                  ]']                           
                                                                                                  
 padding_from_kernel_size_2  (None, 16, 16, 768)          0         ['activation_613[0][0]']      
 09 (PaddingFromKernelSize)                                                                       
                                                                                                  
 conv2d_625 (Conv2D)         (None, 14, 14, 768)          5308416   ['padding_from_kernel_size_209
                                                                    [0][0]']                      
                                                                                                  
 group_normalization_593 (G  (None, 14, 14, 768)          1536      ['conv2d_625[0][0]']          
 roupNormalization)                                                                               
                                                                                                  
 activation_614 (Activation  (None, 14, 14, 768)          0         ['group_normalization_593[0][0
 )                                                                  ]']                           
                                                                                                  
 conv2d_626 (Conv2D)         (None, 14, 14, 3072)         2359296   ['activation_614[0][0]']      
                                                                                                  
 add_195 (Add)               (None, 14, 14, 3072)         0         ['conv2d_626[0][0]',          
                                                                     'add_194[0][0]']             
                                                                                                  
 group_normalization_594 (G  (None, 14, 14, 3072)         6144      ['add_195[0][0]']             
 roupNormalization)                                                                               
                                                                                                  
 activation_615 (Activation  (None, 14, 14, 3072)         0         ['group_normalization_594[0][0
 )                                                                  ]']                           
                                                                                                  
 conv2d_627 (Conv2D)         (None, 14, 14, 768)          2359296   ['activation_615[0][0]']      
                                                                                                  
 group_normalization_595 (G  (None, 14, 14, 768)          1536      ['conv2d_627[0][0]']          
 roupNormalization)                                                                               
                                                                                                  
 activation_616 (Activation  (None, 14, 14, 768)          0         ['group_normalization_595[0][0
 )                                                                  ]']                           
                                                                                                  
 padding_from_kernel_size_2  (None, 16, 16, 768)          0         ['activation_616[0][0]']      
 10 (PaddingFromKernelSize)                                                                       
                                                                                                  
 conv2d_628 (Conv2D)         (None, 14, 14, 768)          5308416   ['padding_from_kernel_size_210
                                                                    [0][0]']                      
                                                                                                  
 group_normalization_596 (G  (None, 14, 14, 768)          1536      ['conv2d_628[0][0]']          
 roupNormalization)                                                                               
                                                                                                  
 activation_617 (Activation  (None, 14, 14, 768)          0         ['group_normalization_596[0][0
 )                                                                  ]']                           
                                                                                                  
 conv2d_629 (Conv2D)         (None, 14, 14, 3072)         2359296   ['activation_617[0][0]']      
                                                                                                  
 add_196 (Add)               (None, 14, 14, 3072)         0         ['conv2d_629[0][0]',          
                                                                     'add_195[0][0]']             
                                                                                                  
 group_normalization_597 (G  (None, 14, 14, 3072)         6144      ['add_196[0][0]']             
 roupNormalization)                                                                               
                                                                                                  
 activation_618 (Activation  (None, 14, 14, 3072)         0         ['group_normalization_597[0][0
 )                                                                  ]']                           
                                                                                                  
 conv2d_630 (Conv2D)         (None, 14, 14, 768)          2359296   ['activation_618[0][0]']      
                                                                                                  
 group_normalization_598 (G  (None, 14, 14, 768)          1536      ['conv2d_630[0][0]']          
 roupNormalization)                                                                               
                                                                                                  
 activation_619 (Activation  (None, 14, 14, 768)          0         ['group_normalization_598[0][0
 )                                                                  ]']                           
                                                                                                  
 padding_from_kernel_size_2  (None, 16, 16, 768)          0         ['activation_619[0][0]']      
 11 (PaddingFromKernelSize)                                                                       
                                                                                                  
 conv2d_631 (Conv2D)         (None, 14, 14, 768)          5308416   ['padding_from_kernel_size_211
                                                                    [0][0]']                      
                                                                                                  
 group_normalization_599 (G  (None, 14, 14, 768)          1536      ['conv2d_631[0][0]']          
 roupNormalization)                                                                               
                                                                                                  
 activation_620 (Activation  (None, 14, 14, 768)          0         ['group_normalization_599[0][0
 )                                                                  ]']                           
                                                                                                  
 conv2d_632 (Conv2D)         (None, 14, 14, 3072)         2359296   ['activation_620[0][0]']      
                                                                                                  
 add_197 (Add)               (None, 14, 14, 3072)         0         ['conv2d_632[0][0]',          
                                                                     'add_196[0][0]']             
                                                                                                  
 group_normalization_600 (G  (None, 14, 14, 3072)         6144      ['add_197[0][0]']             
 roupNormalization)                                                                               
                                                                                                  
 activation_621 (Activation  (None, 14, 14, 3072)         0         ['group_normalization_600[0][0
 )                                                                  ]']                           
                                                                                                  
 conv2d_633 (Conv2D)         (None, 14, 14, 768)          2359296   ['activation_621[0][0]']      
                                                                                                  
 group_normalization_601 (G  (None, 14, 14, 768)          1536      ['conv2d_633[0][0]']          
 roupNormalization)                                                                               
                                                                                                  
 activation_622 (Activation  (None, 14, 14, 768)          0         ['group_normalization_601[0][0
 )                                                                  ]']                           
                                                                                                  
 padding_from_kernel_size_2  (None, 16, 16, 768)          0         ['activation_622[0][0]']      
 12 (PaddingFromKernelSize)                                                                       
                                                                                                  
 conv2d_634 (Conv2D)         (None, 14, 14, 768)          5308416   ['padding_from_kernel_size_212
                                                                    [0][0]']                      
                                                                                                  
 group_normalization_602 (G  (None, 14, 14, 768)          1536      ['conv2d_634[0][0]']          
 roupNormalization)                                                                               
                                                                                                  
 activation_623 (Activation  (None, 14, 14, 768)          0         ['group_normalization_602[0][0
 )                                                                  ]']                           
                                                                                                  
 conv2d_635 (Conv2D)         (None, 14, 14, 3072)         2359296   ['activation_623[0][0]']      
                                                                                                  
 add_198 (Add)               (None, 14, 14, 3072)         0         ['conv2d_635[0][0]',          
                                                                     'add_197[0][0]']             
                                                                                                  
 group_normalization_603 (G  (None, 14, 14, 3072)         6144      ['add_198[0][0]']             
 roupNormalization)                                                                               
                                                                                                  
 activation_624 (Activation  (None, 14, 14, 3072)         0         ['group_normalization_603[0][0
 )                                                                  ]']                           
                                                                                                  
 conv2d_636 (Conv2D)         (None, 14, 14, 768)          2359296   ['activation_624[0][0]']      
                                                                                                  
 group_normalization_604 (G  (None, 14, 14, 768)          1536      ['conv2d_636[0][0]']          
 roupNormalization)                                                                               
                                                                                                  
 activation_625 (Activation  (None, 14, 14, 768)          0         ['group_normalization_604[0][0
 )                                                                  ]']                           
                                                                                                  
 padding_from_kernel_size_2  (None, 16, 16, 768)          0         ['activation_625[0][0]']      
 13 (PaddingFromKernelSize)                                                                       
                                                                                                  
 conv2d_637 (Conv2D)         (None, 14, 14, 768)          5308416   ['padding_from_kernel_size_213
                                                                    [0][0]']                      
                                                                                                  
 group_normalization_605 (G  (None, 14, 14, 768)          1536      ['conv2d_637[0][0]']          
 roupNormalization)                                                                               
                                                                                                  
 activation_626 (Activation  (None, 14, 14, 768)          0         ['group_normalization_605[0][0
 )                                                                  ]']                           
                                                                                                  
 conv2d_638 (Conv2D)         (None, 14, 14, 3072)         2359296   ['activation_626[0][0]']      
                                                                                                  
 add_199 (Add)               (None, 14, 14, 3072)         0         ['conv2d_638[0][0]',          
                                                                     'add_198[0][0]']             
                                                                                                  
 group_normalization_606 (G  (None, 14, 14, 3072)         6144      ['add_199[0][0]']             
 roupNormalization)                                                                               
                                                                                                  
 activation_627 (Activation  (None, 14, 14, 3072)         0         ['group_normalization_606[0][0
 )                                                                  ]']                           
                                                                                                  
 conv2d_639 (Conv2D)         (None, 14, 14, 768)          2359296   ['activation_627[0][0]']      
                                                                                                  
 group_normalization_607 (G  (None, 14, 14, 768)          1536      ['conv2d_639[0][0]']          
 roupNormalization)                                                                               
                                                                                                  
 activation_628 (Activation  (None, 14, 14, 768)          0         ['group_normalization_607[0][0
 )                                                                  ]']                           
                                                                                                  
 padding_from_kernel_size_2  (None, 16, 16, 768)          0         ['activation_628[0][0]']      
 14 (PaddingFromKernelSize)                                                                       
                                                                                                  
 conv2d_640 (Conv2D)         (None, 14, 14, 768)          5308416   ['padding_from_kernel_size_214
                                                                    [0][0]']                      
                                                                                                  
 group_normalization_608 (G  (None, 14, 14, 768)          1536      ['conv2d_640[0][0]']          
 roupNormalization)                                                                               
                                                                                                  
 activation_629 (Activation  (None, 14, 14, 768)          0         ['group_normalization_608[0][0
 )                                                                  ]']                           
                                                                                                  
 conv2d_641 (Conv2D)         (None, 14, 14, 3072)         2359296   ['activation_629[0][0]']      
                                                                                                  
 add_200 (Add)               (None, 14, 14, 3072)         0         ['conv2d_641[0][0]',          
                                                                     'add_199[0][0]']             
                                                                                                  
 group_normalization_609 (G  (None, 14, 14, 3072)         6144      ['add_200[0][0]']             
 roupNormalization)                                                                               
                                                                                                  
 activation_630 (Activation  (None, 14, 14, 3072)         0         ['group_normalization_609[0][0
 )                                                                  ]']                           
                                                                                                  
 conv2d_642 (Conv2D)         (None, 14, 14, 768)          2359296   ['activation_630[0][0]']      
                                                                                                  
 group_normalization_610 (G  (None, 14, 14, 768)          1536      ['conv2d_642[0][0]']          
 roupNormalization)                                                                               
                                                                                                  
 activation_631 (Activation  (None, 14, 14, 768)          0         ['group_normalization_610[0][0
 )                                                                  ]']                           
                                                                                                  
 padding_from_kernel_size_2  (None, 16, 16, 768)          0         ['activation_631[0][0]']      
 15 (PaddingFromKernelSize)                                                                       
                                                                                                  
 conv2d_643 (Conv2D)         (None, 14, 14, 768)          5308416   ['padding_from_kernel_size_215
                                                                    [0][0]']                      
                                                                                                  
 group_normalization_611 (G  (None, 14, 14, 768)          1536      ['conv2d_643[0][0]']          
 roupNormalization)                                                                               
                                                                                                  
 activation_632 (Activation  (None, 14, 14, 768)          0         ['group_normalization_611[0][0
 )                                                                  ]']                           
                                                                                                  
 conv2d_644 (Conv2D)         (None, 14, 14, 3072)         2359296   ['activation_632[0][0]']      
                                                                                                  
 add_201 (Add)               (None, 14, 14, 3072)         0         ['conv2d_644[0][0]',          
                                                                     'add_200[0][0]']             
                                                                                                  
 group_normalization_612 (G  (None, 14, 14, 3072)         6144      ['add_201[0][0]']             
 roupNormalization)                                                                               
                                                                                                  
 activation_633 (Activation  (None, 14, 14, 3072)         0         ['group_normalization_612[0][0
 )                                                                  ]']                           
                                                                                                  
 conv2d_645 (Conv2D)         (None, 14, 14, 768)          2359296   ['activation_633[0][0]']      
                                                                                                  
 group_normalization_613 (G  (None, 14, 14, 768)          1536      ['conv2d_645[0][0]']          
 roupNormalization)                                                                               
                                                                                                  
 activation_634 (Activation  (None, 14, 14, 768)          0         ['group_normalization_613[0][0
 )                                                                  ]']                           
                                                                                                  
 padding_from_kernel_size_2  (None, 16, 16, 768)          0         ['activation_634[0][0]']      
 16 (PaddingFromKernelSize)                                                                       
                                                                                                  
 conv2d_646 (Conv2D)         (None, 14, 14, 768)          5308416   ['padding_from_kernel_size_216
                                                                    [0][0]']                      
                                                                                                  
 group_normalization_614 (G  (None, 14, 14, 768)          1536      ['conv2d_646[0][0]']          
 roupNormalization)                                                                               
                                                                                                  
 activation_635 (Activation  (None, 14, 14, 768)          0         ['group_normalization_614[0][0
 )                                                                  ]']                           
                                                                                                  
 conv2d_647 (Conv2D)         (None, 14, 14, 3072)         2359296   ['activation_635[0][0]']      
                                                                                                  
 add_202 (Add)               (None, 14, 14, 3072)         0         ['conv2d_647[0][0]',          
                                                                     'add_201[0][0]']             
                                                                                                  
 group_normalization_615 (G  (None, 14, 14, 3072)         6144      ['add_202[0][0]']             
 roupNormalization)                                                                               
                                                                                                  
 activation_636 (Activation  (None, 14, 14, 3072)         0         ['group_normalization_615[0][0
 )                                                                  ]']                           
                                                                                                  
 conv2d_648 (Conv2D)         (None, 14, 14, 768)          2359296   ['activation_636[0][0]']      
                                                                                                  
 group_normalization_616 (G  (None, 14, 14, 768)          1536      ['conv2d_648[0][0]']          
 roupNormalization)                                                                               
                                                                                                  
 activation_637 (Activation  (None, 14, 14, 768)          0         ['group_normalization_616[0][0
 )                                                                  ]']                           
                                                                                                  
 padding_from_kernel_size_2  (None, 16, 16, 768)          0         ['activation_637[0][0]']      
 17 (PaddingFromKernelSize)                                                                       
                                                                                                  
 conv2d_649 (Conv2D)         (None, 14, 14, 768)          5308416   ['padding_from_kernel_size_217
                                                                    [0][0]']                      
                                                                                                  
 group_normalization_617 (G  (None, 14, 14, 768)          1536      ['conv2d_649[0][0]']          
 roupNormalization)                                                                               
                                                                                                  
 activation_638 (Activation  (None, 14, 14, 768)          0         ['group_normalization_617[0][0
 )                                                                  ]']                           
                                                                                                  
 conv2d_650 (Conv2D)         (None, 14, 14, 3072)         2359296   ['activation_638[0][0]']      
                                                                                                  
 add_203 (Add)               (None, 14, 14, 3072)         0         ['conv2d_650[0][0]',          
                                                                     'add_202[0][0]']             
                                                                                                  
 group_normalization_618 (G  (None, 14, 14, 3072)         6144      ['add_203[0][0]']             
 roupNormalization)                                                                               
                                                                                                  
 activation_639 (Activation  (None, 14, 14, 3072)         0         ['group_normalization_618[0][0
 )                                                                  ]']                           
                                                                                                  
 conv2d_651 (Conv2D)         (None, 14, 14, 768)          2359296   ['activation_639[0][0]']      
                                                                                                  
 group_normalization_619 (G  (None, 14, 14, 768)          1536      ['conv2d_651[0][0]']          
 roupNormalization)                                                                               
                                                                                                  
 activation_640 (Activation  (None, 14, 14, 768)          0         ['group_normalization_619[0][0
 )                                                                  ]']                           
                                                                                                  
 padding_from_kernel_size_2  (None, 16, 16, 768)          0         ['activation_640[0][0]']      
 18 (PaddingFromKernelSize)                                                                       
                                                                                                  
 conv2d_652 (Conv2D)         (None, 14, 14, 768)          5308416   ['padding_from_kernel_size_218
                                                                    [0][0]']                      
                                                                                                  
 group_normalization_620 (G  (None, 14, 14, 768)          1536      ['conv2d_652[0][0]']          
 roupNormalization)                                                                               
                                                                                                  
 activation_641 (Activation  (None, 14, 14, 768)          0         ['group_normalization_620[0][0
 )                                                                  ]']                           
                                                                                                  
 conv2d_653 (Conv2D)         (None, 14, 14, 3072)         2359296   ['activation_641[0][0]']      
                                                                                                  
 add_204 (Add)               (None, 14, 14, 3072)         0         ['conv2d_653[0][0]',          
                                                                     'add_203[0][0]']             
                                                                                                  
 group_normalization_621 (G  (None, 14, 14, 3072)         6144      ['add_204[0][0]']             
 roupNormalization)                                                                               
                                                                                                  
 activation_642 (Activation  (None, 14, 14, 3072)         0         ['group_normalization_621[0][0
 )                                                                  ]']                           
                                                                                                  
 conv2d_654 (Conv2D)         (None, 14, 14, 768)          2359296   ['activation_642[0][0]']      
                                                                                                  
 group_normalization_622 (G  (None, 14, 14, 768)          1536      ['conv2d_654[0][0]']          
 roupNormalization)                                                                               
                                                                                                  
 activation_643 (Activation  (None, 14, 14, 768)          0         ['group_normalization_622[0][0
 )                                                                  ]']                           
                                                                                                  
 padding_from_kernel_size_2  (None, 16, 16, 768)          0         ['activation_643[0][0]']      
 19 (PaddingFromKernelSize)                                                                       
                                                                                                  
 conv2d_655 (Conv2D)         (None, 14, 14, 768)          5308416   ['padding_from_kernel_size_219
                                                                    [0][0]']                      
                                                                                                  
 group_normalization_623 (G  (None, 14, 14, 768)          1536      ['conv2d_655[0][0]']          
 roupNormalization)                                                                               
                                                                                                  
 activation_644 (Activation  (None, 14, 14, 768)          0         ['group_normalization_623[0][0
 )                                                                  ]']                           
                                                                                                  
 conv2d_656 (Conv2D)         (None, 14, 14, 3072)         2359296   ['activation_644[0][0]']      
                                                                                                  
 add_205 (Add)               (None, 14, 14, 3072)         0         ['conv2d_656[0][0]',          
                                                                     'add_204[0][0]']             
                                                                                                  
 group_normalization_624 (G  (None, 14, 14, 3072)         6144      ['add_205[0][0]']             
 roupNormalization)                                                                               
                                                                                                  
 activation_645 (Activation  (None, 14, 14, 3072)         0         ['group_normalization_624[0][0
 )                                                                  ]']                           
                                                                                                  
 conv2d_657 (Conv2D)         (None, 14, 14, 768)          2359296   ['activation_645[0][0]']      
                                                                                                  
 group_normalization_625 (G  (None, 14, 14, 768)          1536      ['conv2d_657[0][0]']          
 roupNormalization)                                                                               
                                                                                                  
 activation_646 (Activation  (None, 14, 14, 768)          0         ['group_normalization_625[0][0
 )                                                                  ]']                           
                                                                                                  
 padding_from_kernel_size_2  (None, 16, 16, 768)          0         ['activation_646[0][0]']      
 20 (PaddingFromKernelSize)                                                                       
                                                                                                  
 conv2d_658 (Conv2D)         (None, 14, 14, 768)          5308416   ['padding_from_kernel_size_220
                                                                    [0][0]']                      
                                                                                                  
 group_normalization_626 (G  (None, 14, 14, 768)          1536      ['conv2d_658[0][0]']          
 roupNormalization)                                                                               
                                                                                                  
 activation_647 (Activation  (None, 14, 14, 768)          0         ['group_normalization_626[0][0
 )                                                                  ]']                           
                                                                                                  
 conv2d_659 (Conv2D)         (None, 14, 14, 3072)         2359296   ['activation_647[0][0]']      
                                                                                                  
 add_206 (Add)               (None, 14, 14, 3072)         0         ['conv2d_659[0][0]',          
                                                                     'add_205[0][0]']             
                                                                                                  
 group_normalization_627 (G  (None, 14, 14, 3072)         6144      ['add_206[0][0]']             
 roupNormalization)                                                                               
                                                                                                  
 activation_648 (Activation  (None, 14, 14, 3072)         0         ['group_normalization_627[0][0
 )                                                                  ]']                           
                                                                                                  
 conv2d_660 (Conv2D)         (None, 14, 14, 768)          2359296   ['activation_648[0][0]']      
                                                                                                  
 group_normalization_628 (G  (None, 14, 14, 768)          1536      ['conv2d_660[0][0]']          
 roupNormalization)                                                                               
                                                                                                  
 activation_649 (Activation  (None, 14, 14, 768)          0         ['group_normalization_628[0][0
 )                                                                  ]']                           
                                                                                                  
 padding_from_kernel_size_2  (None, 16, 16, 768)          0         ['activation_649[0][0]']      
 21 (PaddingFromKernelSize)                                                                       
                                                                                                  
 conv2d_661 (Conv2D)         (None, 14, 14, 768)          5308416   ['padding_from_kernel_size_221
                                                                    [0][0]']                      
                                                                                                  
 group_normalization_629 (G  (None, 14, 14, 768)          1536      ['conv2d_661[0][0]']          
 roupNormalization)                                                                               
                                                                                                  
 activation_650 (Activation  (None, 14, 14, 768)          0         ['group_normalization_629[0][0
 )                                                                  ]']                           
                                                                                                  
 conv2d_662 (Conv2D)         (None, 14, 14, 3072)         2359296   ['activation_650[0][0]']      
                                                                                                  
 add_207 (Add)               (None, 14, 14, 3072)         0         ['conv2d_662[0][0]',          
                                                                     'add_206[0][0]']             
                                                                                                  
 group_normalization_630 (G  (None, 14, 14, 3072)         6144      ['add_207[0][0]']             
 roupNormalization)                                                                               
                                                                                                  
 activation_651 (Activation  (None, 14, 14, 3072)         0         ['group_normalization_630[0][0
 )                                                                  ]']                           
                                                                                                  
 conv2d_663 (Conv2D)         (None, 14, 14, 768)          2359296   ['activation_651[0][0]']      
                                                                                                  
 group_normalization_631 (G  (None, 14, 14, 768)          1536      ['conv2d_663[0][0]']          
 roupNormalization)                                                                               
                                                                                                  
 activation_652 (Activation  (None, 14, 14, 768)          0         ['group_normalization_631[0][0
 )                                                                  ]']                           
                                                                                                  
 padding_from_kernel_size_2  (None, 16, 16, 768)          0         ['activation_652[0][0]']      
 22 (PaddingFromKernelSize)                                                                       
                                                                                                  
 conv2d_664 (Conv2D)         (None, 14, 14, 768)          5308416   ['padding_from_kernel_size_222
                                                                    [0][0]']                      
                                                                                                  
 group_normalization_632 (G  (None, 14, 14, 768)          1536      ['conv2d_664[0][0]']          
 roupNormalization)                                                                               
                                                                                                  
 activation_653 (Activation  (None, 14, 14, 768)          0         ['group_normalization_632[0][0
 )                                                                  ]']                           
                                                                                                  
 conv2d_665 (Conv2D)         (None, 14, 14, 3072)         2359296   ['activation_653[0][0]']      
                                                                                                  
 add_208 (Add)               (None, 14, 14, 3072)         0         ['conv2d_665[0][0]',          
                                                                     'add_207[0][0]']             
                                                                                                  
 group_normalization_633 (G  (None, 14, 14, 3072)         6144      ['add_208[0][0]']             
 roupNormalization)                                                                               
                                                                                                  
 activation_654 (Activation  (None, 14, 14, 3072)         0         ['group_normalization_633[0][0
 )                                                                  ]']                           
                                                                                                  
 conv2d_666 (Conv2D)         (None, 14, 14, 768)          2359296   ['activation_654[0][0]']      
                                                                                                  
 group_normalization_634 (G  (None, 14, 14, 768)          1536      ['conv2d_666[0][0]']          
 roupNormalization)                                                                               
                                                                                                  
 activation_655 (Activation  (None, 14, 14, 768)          0         ['group_normalization_634[0][0
 )                                                                  ]']                           
                                                                                                  
 padding_from_kernel_size_2  (None, 16, 16, 768)          0         ['activation_655[0][0]']      
 23 (PaddingFromKernelSize)                                                                       
                                                                                                  
 conv2d_667 (Conv2D)         (None, 14, 14, 768)          5308416   ['padding_from_kernel_size_223
                                                                    [0][0]']                      
                                                                                                  
 group_normalization_635 (G  (None, 14, 14, 768)          1536      ['conv2d_667[0][0]']          
 roupNormalization)                                                                               
                                                                                                  
 activation_656 (Activation  (None, 14, 14, 768)          0         ['group_normalization_635[0][0
 )                                                                  ]']                           
                                                                                                  
 conv2d_668 (Conv2D)         (None, 14, 14, 3072)         2359296   ['activation_656[0][0]']      
                                                                                                  
 add_209 (Add)               (None, 14, 14, 3072)         0         ['conv2d_668[0][0]',          
                                                                     'add_208[0][0]']             
                                                                                                  
 group_normalization_636 (G  (None, 14, 14, 3072)         6144      ['add_209[0][0]']             
 roupNormalization)                                                                               
                                                                                                  
 activation_657 (Activation  (None, 14, 14, 3072)         0         ['group_normalization_636[0][0
 )                                                                  ]']                           
                                                                                                  
 conv2d_669 (Conv2D)         (None, 14, 14, 768)          2359296   ['activation_657[0][0]']      
                                                                                                  
 group_normalization_637 (G  (None, 14, 14, 768)          1536      ['conv2d_669[0][0]']          
 roupNormalization)                                                                               
                                                                                                  
 activation_658 (Activation  (None, 14, 14, 768)          0         ['group_normalization_637[0][0
 )                                                                  ]']                           
                                                                                                  
 padding_from_kernel_size_2  (None, 16, 16, 768)          0         ['activation_658[0][0]']      
 24 (PaddingFromKernelSize)                                                                       
                                                                                                  
 conv2d_670 (Conv2D)         (None, 14, 14, 768)          5308416   ['padding_from_kernel_size_224
                                                                    [0][0]']                      
                                                                                                  
 group_normalization_638 (G  (None, 14, 14, 768)          1536      ['conv2d_670[0][0]']          
 roupNormalization)                                                                               
                                                                                                  
 activation_659 (Activation  (None, 14, 14, 768)          0         ['group_normalization_638[0][0
 )                                                                  ]']                           
                                                                                                  
 conv2d_671 (Conv2D)         (None, 14, 14, 3072)         2359296   ['activation_659[0][0]']      
                                                                                                  
 add_210 (Add)               (None, 14, 14, 3072)         0         ['conv2d_671[0][0]',          
                                                                     'add_209[0][0]']             
                                                                                                  
 group_normalization_639 (G  (None, 14, 14, 3072)         6144      ['add_210[0][0]']             
 roupNormalization)                                                                               
                                                                                                  
 activation_660 (Activation  (None, 14, 14, 3072)         0         ['group_normalization_639[0][0
 )                                                                  ]']                           
                                                                                                  
 conv2d_673 (Conv2D)         (None, 14, 14, 1536)         4718592   ['activation_660[0][0]']      
                                                                                                  
 group_normalization_640 (G  (None, 14, 14, 1536)         3072      ['conv2d_673[0][0]']          
 roupNormalization)                                                                               
                                                                                                  
 activation_661 (Activation  (None, 14, 14, 1536)         0         ['group_normalization_640[0][0
 )                                                                  ]']                           
                                                                                                  
 padding_from_kernel_size_2  (None, 16, 16, 1536)         0         ['activation_661[0][0]']      
 25 (PaddingFromKernelSize)                                                                       
                                                                                                  
 conv2d_674 (Conv2D)         (None, 7, 7, 1536)           2123366   ['padding_from_kernel_size_225
                                                          4         [0][0]']                      
                                                                                                  
 group_normalization_641 (G  (None, 7, 7, 1536)           3072      ['conv2d_674[0][0]']          
 roupNormalization)                                                                               
                                                                                                  
 activation_662 (Activation  (None, 7, 7, 1536)           0         ['group_normalization_641[0][0
 )                                                                  ]']                           
                                                                                                  
 conv2d_675 (Conv2D)         (None, 7, 7, 6144)           9437184   ['activation_662[0][0]']      
                                                                                                  
 conv2d_672 (Conv2D)         (None, 7, 7, 6144)           1887436   ['activation_660[0][0]']      
                                                          8                                       
                                                                                                  
 add_211 (Add)               (None, 7, 7, 6144)           0         ['conv2d_675[0][0]',          
                                                                     'conv2d_672[0][0]']          
                                                                                                  
 group_normalization_642 (G  (None, 7, 7, 6144)           12288     ['add_211[0][0]']             
 roupNormalization)                                                                               
                                                                                                  
 activation_663 (Activation  (None, 7, 7, 6144)           0         ['group_normalization_642[0][0
 )                                                                  ]']                           
                                                                                                  
 conv2d_676 (Conv2D)         (None, 7, 7, 1536)           9437184   ['activation_663[0][0]']      
                                                                                                  
 group_normalization_643 (G  (None, 7, 7, 1536)           3072      ['conv2d_676[0][0]']          
 roupNormalization)                                                                               
                                                                                                  
 activation_664 (Activation  (None, 7, 7, 1536)           0         ['group_normalization_643[0][0
 )                                                                  ]']                           
                                                                                                  
 padding_from_kernel_size_2  (None, 9, 9, 1536)           0         ['activation_664[0][0]']      
 26 (PaddingFromKernelSize)                                                                       
                                                                                                  
 conv2d_677 (Conv2D)         (None, 7, 7, 1536)           2123366   ['padding_from_kernel_size_226
                                                          4         [0][0]']                      
                                                                                                  
 group_normalization_644 (G  (None, 7, 7, 1536)           3072      ['conv2d_677[0][0]']          
 roupNormalization)                                                                               
                                                                                                  
 activation_665 (Activation  (None, 7, 7, 1536)           0         ['group_normalization_644[0][0
 )                                                                  ]']                           
                                                                                                  
 conv2d_678 (Conv2D)         (None, 7, 7, 6144)           9437184   ['activation_665[0][0]']      
                                                                                                  
 add_212 (Add)               (None, 7, 7, 6144)           0         ['conv2d_678[0][0]',          
                                                                     'add_211[0][0]']             
                                                                                                  
 group_normalization_645 (G  (None, 7, 7, 6144)           12288     ['add_212[0][0]']             
 roupNormalization)                                                                               
                                                                                                  
 activation_666 (Activation  (None, 7, 7, 6144)           0         ['group_normalization_645[0][0
 )                                                                  ]']                           
                                                                                                  
 conv2d_679 (Conv2D)         (None, 7, 7, 1536)           9437184   ['activation_666[0][0]']      
                                                                                                  
 group_normalization_646 (G  (None, 7, 7, 1536)           3072      ['conv2d_679[0][0]']          
 roupNormalization)                                                                               
                                                                                                  
 activation_667 (Activation  (None, 7, 7, 1536)           0         ['group_normalization_646[0][0
 )                                                                  ]']                           
                                                                                                  
 padding_from_kernel_size_2  (None, 9, 9, 1536)           0         ['activation_667[0][0]']      
 27 (PaddingFromKernelSize)                                                                       
                                                                                                  
 conv2d_680 (Conv2D)         (None, 7, 7, 1536)           2123366   ['padding_from_kernel_size_227
                                                          4         [0][0]']                      
                                                                                                  
 group_normalization_647 (G  (None, 7, 7, 1536)           3072      ['conv2d_680[0][0]']          
 roupNormalization)                                                                               
                                                                                                  
 activation_668 (Activation  (None, 7, 7, 1536)           0         ['group_normalization_647[0][0
 )                                                                  ]']                           
                                                                                                  
 conv2d_681 (Conv2D)         (None, 7, 7, 6144)           9437184   ['activation_668[0][0]']      
                                                                                                  
 add_213 (Add)               (None, 7, 7, 6144)           0         ['conv2d_681[0][0]',          
                                                                     'add_212[0][0]']             
                                                                                                  
 activation_669 (Activation  (None, 7, 7, 6144)           0         ['add_213[0][0]']             
 )                                                                                                
                                                                                                  
 group_normalization_648 (G  (None, 7, 7, 6144)           12288     ['activation_669[0][0]']      
 roupNormalization)                                                                               
                                                                                                  
 global_average_pooling2d_6  (None, 6144)                 0         ['group_normalization_648[0][0
  (GlobalAveragePooling2D)                                          ]']                           
                                                                                                  
 predictions (Dense)         (None, 1000)                 6145000   ['global_average_pooling2d_6[0
                                                                    ][0]']                        
                                                                                                  
 activation_670 (Activation  (None, 1000)                 0         ['predictions[0][0]']         
 )                                                                                                
                                                                                                  
==================================================================================================
Total params: 387792936 (1.44 GB)
Trainable params: 387792936 (1.44 GB)
…
