Model: "BiT-S-R101x1"
__________________________________________________________________________________________________
 Layer (type)                Output Shape                 Param #   Connected to                  
==================================================================================================
 input_14 (InputLayer)       [(None, 224, 224, 3)]        0         []                            
                                                                                                  
 padding_from_kernel_size_1  (None, 230, 230, 3)          0         ['input_14[0][0]']            
 58 (PaddingFromKernelSize)                                                                       
                                                                                                  
 conv2d_474 (Conv2D)         (None, 112, 112, 64)         9408      ['padding_from_kernel_size_158
                                                                    [0][0]']                      
                                                                                                  
 padding_from_kernel_size_1  (None, 114, 114, 64)         0         ['conv2d_474[0][0]']          
 59 (PaddingFromKernelSize)                                                                       
                                                                                                  
 max_pooling2d_8 (MaxPoolin  (None, 56, 56, 64)           0         ['padding_from_kernel_size_159
 g2D)                                                               [0][0]']                      
                                                                                                  
 group_normalization_449 (G  (None, 56, 56, 64)           128       ['max_pooling2d_8[0][0]']     
 roupNormalization)                                                                               
                                                                                                  
 activation_469 (Activation  (None, 56, 56, 64)           0         ['group_normalization_449[0][0
 )                                                                  ]']                           
                                                                                                  
 conv2d_476 (Conv2D)         (None, 56, 56, 64)           4096      ['activation_469[0][0]']      
                                                                                                  
 group_normalization_450 (G  (None, 56, 56, 64)           128       ['conv2d_476[0][0]']          
 roupNormalization)                                                                               
                                                                                                  
 activation_470 (Activation  (None, 56, 56, 64)           0         ['group_normalization_450[0][0
 )                                                                  ]']                           
                                                                                                  
 padding_from_kernel_size_1  (None, 58, 58, 64)           0         ['activation_470[0][0]']      
 60 (PaddingFromKernelSize)                                                                       
                                                                                                  
 conv2d_477 (Conv2D)         (None, 56, 56, 64)           36864     ['padding_from_kernel_size_160
                                                                    [0][0]']                      
                                                                                                  
 group_normalization_451 (G  (None, 56, 56, 64)           128       ['conv2d_477[0][0]']          
 roupNormalization)                                                                               
                                                                                                  
 activation_471 (Activation  (None, 56, 56, 64)           0         ['group_normalization_451[0][0
 )                                                                  ]']                           
                                                                                                  
 conv2d_478 (Conv2D)         (None, 56, 56, 256)          16384     ['activation_471[0][0]']      
                                                                                                  
 conv2d_475 (Conv2D)         (None, 56, 56, 256)          16384     ['activation_469[0][0]']      
                                                                                                  
 add_148 (Add)               (None, 56, 56, 256)          0         ['conv2d_478[0][0]',          
                                                                     'conv2d_475[0][0]']          
                                                                                                  
 group_normalization_452 (G  (None, 56, 56, 256)          512       ['add_148[0][0]']             
 roupNormalization)                                                                               
                                                                                                  
 activation_472 (Activation  (None, 56, 56, 256)          0         ['group_normalization_452[0][0
 )                                                                  ]']                           
                                                                                                  
 conv2d_479 (Conv2D)         (None, 56, 56, 64)           16384     ['activation_472[0][0]']      
                                                                                                  
 group_normalization_453 (G  (None, 56, 56, 64)           128       ['conv2d_479[0][0]']          
 roupNormalization)                                                                               
                                                                                                  
 activation_473 (Activation  (None, 56, 56, 64)           0         ['group_normalization_453[0][0
 )                                                                  ]']                           
                                                                                                  
 padding_from_kernel_size_1  (None, 58, 58, 64)           0         ['activation_473[0][0]']      
 61 (PaddingFromKernelSize)                                                                       
                                                                                                  
 conv2d_480 (Conv2D)         (None, 56, 56, 64)           36864     ['padding_from_kernel_size_161
                                                                    [0][0]']                      
                                                                                                  
 group_normalization_454 (G  (None, 56, 56, 64)           128       ['conv2d_480[0][0]']          
 roupNormalization)                                                                               
                                                                                                  
 activation_474 (Activation  (None, 56, 56, 64)           0         ['group_normalization_454[0][0
 )                                                                  ]']                           
                                                                                                  
 conv2d_481 (Conv2D)         (None, 56, 56, 256)          16384     ['activation_474[0][0]']      
                                                                                                  
 add_149 (Add)               (None, 56, 56, 256)          0         ['conv2d_481[0][0]',          
                                                                     'add_148[0][0]']             
                                                                                                  
 group_normalization_455 (G  (None, 56, 56, 256)          512       ['add_149[0][0]']             
 roupNormalization)                                                                               
                                                                                                  
 activation_475 (Activation  (None, 56, 56, 256)          0         ['group_normalization_455[0][0
 )                                                                  ]']                           
                                                                                                  
 conv2d_482 (Conv2D)         (None, 56, 56, 64)           16384     ['activation_475[0][0]']      
                                                                                                  
 group_normalization_456 (G  (None, 56, 56, 64)           128       ['conv2d_482[0][0]']          
 roupNormalization)                                                                               
                                                                                                  
 activation_476 (Activation  (None, 56, 56, 64)           0         ['group_normalization_456[0][0
 )                                                                  ]']                           
                                                                                                  
 padding_from_kernel_size_1  (None, 58, 58, 64)           0         ['activation_476[0][0]']      
 62 (PaddingFromKernelSize)                                                                       
                                                                                                  
 conv2d_483 (Conv2D)         (None, 56, 56, 64)           36864     ['padding_from_kernel_size_162
                                                                    [0][0]']                      
                                                                                                  
 group_normalization_457 (G  (None, 56, 56, 64)           128       ['conv2d_483[0][0]']          
 roupNormalization)                                                                               
                                                                                                  
 activation_477 (Activation  (None, 56, 56, 64)           0         ['group_normalization_457[0][0
 )                                                                  ]']                           
                                                                                                  
 conv2d_484 (Conv2D)         (None, 56, 56, 256)          16384     ['activation_477[0][0]']      
                                                                                                  
 add_150 (Add)               (None, 56, 56, 256)          0         ['conv2d_484[0][0]',          
                                                                     'add_149[0][0]']             
                                                                                                  
 group_normalization_458 (G  (None, 56, 56, 256)          512       ['add_150[0][0]']             
 roupNormalization)                                                                               
                                                                                                  
 activation_478 (Activation  (None, 56, 56, 256)          0         ['group_normalization_458[0][0
 )                                                                  ]']                           
                                                                                                  
 conv2d_486 (Conv2D)         (None, 56, 56, 128)          32768     ['activation_478[0][0]']      
                                                                                                  
 group_normalization_459 (G  (None, 56, 56, 128)          256       ['conv2d_486[0][0]']          
 roupNormalization)                                                                               
                                                                                                  
 activation_479 (Activation  (None, 56, 56, 128)          0         ['group_normalization_459[0][0
 )                                                                  ]']                           
                                                                                                  
 padding_from_kernel_size_1  (None, 58, 58, 128)          0         ['activation_479[0][0]']      
 63 (PaddingFromKernelSize)                                                                       
                                                                                                  
 conv2d_487 (Conv2D)         (None, 28, 28, 128)          147456    ['padding_from_kernel_size_163
                                                                    [0][0]']                      
                                                                                                  
 group_normalization_460 (G  (None, 28, 28, 128)          256       ['conv2d_487[0][0]']          
 roupNormalization)                                                                               
                                                                                                  
 activation_480 (Activation  (None, 28, 28, 128)          0         ['group_normalization_460[0][0
 )                                                                  ]']                           
                                                                                                  
 conv2d_488 (Conv2D)         (None, 28, 28, 512)          65536     ['activation_480[0][0]']      
                                                                                                  
 conv2d_485 (Conv2D)         (None, 28, 28, 512)          131072    ['activation_478[0][0]']      
                                                                                                  
 add_151 (Add)               (None, 28, 28, 512)          0         ['conv2d_488[0][0]',          
                                                                     'conv2d_485[0][0]']          
                                                                                                  
 group_normalization_461 (G  (None, 28, 28, 512)          1024      ['add_151[0][0]']             
 roupNormalization)                                                                               
                                                                                                  
 activation_481 (Activation  (None, 28, 28, 512)          0         ['group_normalization_461[0][0
 )                                                                  ]']                           
                                                                                                  
 conv2d_489 (Conv2D)         (None, 28, 28, 128)          65536     ['activation_481[0][0]']      
                                                                                                  
 group_normalization_462 (G  (None, 28, 28, 128)          256       ['conv2d_489[0][0]']          
 roupNormalization)                                                                               
                                                                                                  
 activation_482 (Activation  (None, 28, 28, 128)          0         ['group_normalization_462[0][0
 )                                                                  ]']                           
                                                                                                  
 padding_from_kernel_size_1  (None, 30, 30, 128)          0         ['activation_482[0][0]']      
 64 (PaddingFromKernelSize)                                                                       
                                                                                                  
 conv2d_490 (Conv2D)         (None, 28, 28, 128)          147456    ['padding_from_kernel_size_164
                                                                    [0][0]']                      
                                                                                                  
 group_normalization_463 (G  (None, 28, 28, 128)          256       ['conv2d_490[0][0]']          
 roupNormalization)                                                                               
                                                                                                  
 activation_483 (Activation  (None, 28, 28, 128)          0         ['group_normalization_463[0][0
 )                                                                  ]']                           
                                                                                                  
 conv2d_491 (Conv2D)         (None, 28, 28, 512)          65536     ['activation_483[0][0]']      
                                                                                                  
 add_152 (Add)               (None, 28, 28, 512)          0         ['conv2d_491[0][0]',          
                                                                     'add_151[0][0]']             
                                                                                                  
 group_normalization_464 (G  (None, 28, 28, 512)          1024      ['add_152[0][0]']             
 roupNormalization)                                                                               
                                                                                                  
 activation_484 (Activation  (None, 28, 28, 512)          0         ['group_normalization_464[0][0
 )                                                                  ]']                           
                                                                                                  
 conv2d_492 (Conv2D)         (None, 28, 28, 128)          65536     ['activation_484[0][0]']      
                                                                                                  
 group_normalization_465 (G  (None, 28, 28, 128)          256       ['conv2d_492[0][0]']          
 roupNormalization)                                                                               
                                                                                                  
 activation_485 (Activation  (None, 28, 28, 128)          0         ['group_normalization_465[0][0
 )                                                                  ]']                           
                                                                                                  
 padding_from_kernel_size_1  (None, 30, 30, 128)          0         ['activation_485[0][0]']      
 65 (PaddingFromKernelSize)                                                                       
                                                                                                  
 conv2d_493 (Conv2D)         (None, 28, 28, 128)          147456    ['padding_from_kernel_size_165
                                                                    [0][0]']                      
                                                                                                  
 group_normalization_466 (G  (None, 28, 28, 128)          256       ['conv2d_493[0][0]']          
 roupNormalization)                                                                               
                                                                                                  
 activation_486 (Activation  (None, 28, 28, 128)          0         ['group_normalization_466[0][0
 )                                                                  ]']                           
                                                                                                  
 conv2d_494 (Conv2D)         (None, 28, 28, 512)          65536     ['activation_486[0][0]']      
                                                                                                  
 add_153 (Add)               (None, 28, 28, 512)          0         ['conv2d_494[0][0]',          
                                                                     'add_152[0][0]']             
                                                                                                  
 group_normalization_467 (G  (None, 28, 28, 512)          1024      ['add_153[0][0]']             
 roupNormalization)                                                                               
                                                                                                  
 activation_487 (Activation  (None, 28, 28, 512)          0         ['group_normalization_467[0][0
 )                                                                  ]']                           
                                                                                                  
 conv2d_495 (Conv2D)         (None, 28, 28, 128)          65536     ['activation_487[0][0]']      
                                                                                                  
 group_normalization_468 (G  (None, 28, 28, 128)          256       ['conv2d_495[0][0]']          
 roupNormalization)                                                                               
                                                                                                  
 activation_488 (Activation  (None, 28, 28, 128)          0         ['group_normalization_468[0][0
 )                                                                  ]']                           
                                                                                                  
 padding_from_kernel_size_1  (None, 30, 30, 128)          0         ['activation_488[0][0]']      
 66 (PaddingFromKernelSize)                                                                       
                                                                                                  
 conv2d_496 (Conv2D)         (None, 28, 28, 128)          147456    ['padding_from_kernel_size_166
                                                                    [0][0]']                      
                                                                                                  
 group_normalization_469 (G  (None, 28, 28, 128)          256       ['conv2d_496[0][0]']          
 roupNormalization)                                                                               
                                                                                                  
 activation_489 (Activation  (None, 28, 28, 128)          0         ['group_normalization_469[0][0
 )                                                                  ]']                           
                                                                                                  
 conv2d_497 (Conv2D)         (None, 28, 28, 512)          65536     ['activation_489[0][0]']      
                                                                                                  
 add_154 (Add)               (None, 28, 28, 512)          0         ['conv2d_497[0][0]',          
                                                                     'add_153[0][0]']             
                                                                                                  
 group_normalization_470 (G  (None, 28, 28, 512)          1024      ['add_154[0][0]']             
 roupNormalization)                                                                               
                                                                                                  
 activation_490 (Activation  (None, 28, 28, 512)          0         ['group_normalization_470[0][0
 )                                                                  ]']                           
                                                                                                  
 conv2d_499 (Conv2D)         (None, 28, 28, 256)          131072    ['activation_490[0][0]']      
                                                                                                  
 group_normalization_471 (G  (None, 28, 28, 256)          512       ['conv2d_499[0][0]']          
 roupNormalization)                                                                               
                                                                                                  
 activation_491 (Activation  (None, 28, 28, 256)          0         ['group_normalization_471[0][0
 )                                                                  ]']                           
                                                                                                  
 padding_from_kernel_size_1  (None, 30, 30, 256)          0         ['activation_491[0][0]']      
 67 (PaddingFromKernelSize)                                                                       
                                                                                                  
 conv2d_500 (Conv2D)         (None, 14, 14, 256)          589824    ['padding_from_kernel_size_167
                                                                    [0][0]']                      
                                                                                                  
 group_normalization_472 (G  (None, 14, 14, 256)          512       ['conv2d_500[0][0]']          
 roupNormalization)                                                                               
                                                                                                  
 activation_492 (Activation  (None, 14, 14, 256)          0         ['group_normalization_472[0][0
 )                                                                  ]']                           
                                                                                                  
 conv2d_501 (Conv2D)         (None, 14, 14, 1024)         262144    ['activation_492[0][0]']      
                                                                                                  
 conv2d_498 (Conv2D)         (None, 14, 14, 1024)         524288    ['activation_490[0][0]']      
                                                                                                  
 add_155 (Add)               (None, 14, 14, 1024)         0         ['conv2d_501[0][0]',          
                                                                     'conv2d_498[0][0]']          
                                                                                                  
 group_normalization_473 (G  (None, 14, 14, 1024)         2048      ['add_155[0][0]']             
 roupNormalization)                                                                               
                                                                                                  
 activation_493 (Activation  (None, 14, 14, 1024)         0         ['group_normalization_473[0][0
 )                                                                  ]']                           
                                                                                                  
 conv2d_502 (Conv2D)         (None, 14, 14, 256)          262144    ['activation_493[0][0]']      
                                                                                                  
 group_normalization_474 (G  (None, 14, 14, 256)          512       ['conv2d_502[0][0]']          
 roupNormalization)                                                                               
                                                                                                  
 activation_494 (Activation  (None, 14, 14, 256)          0         ['group_normalization_474[0][0
 )                                                                  ]']                           
                                                                                                  
 padding_from_kernel_size_1  (None, 16, 16, 256)          0         ['activation_494[0][0]']      
 68 (PaddingFromKernelSize)                                                                       
                                                                                                  
 conv2d_503 (Conv2D)         (None, 14, 14, 256)          589824    ['padding_from_kernel_size_168
                                                                    [0][0]']                      
                                                                                                  
 group_normalization_475 (G  (None, 14, 14, 256)          512       ['conv2d_503[0][0]']          
 roupNormalization)                                                                               
                                                                                                  
 activation_495 (Activation  (None, 14, 14, 256)          0         ['group_normalization_475[0][0
 )                                                                  ]']                           
                                                                                                  
 conv2d_504 (Conv2D)         (None, 14, 14, 1024)         262144    ['activation_495[0][0]']      
                                                                                                  
 add_156 (Add)               (None, 14, 14, 1024)         0         ['conv2d_504[0][0]',          
                                                                     'add_155[0][0]']             
                                                                                                  
 group_normalization_476 (G  (None, 14, 14, 1024)         2048      ['add_156[0][0]']             
 roupNormalization)                                                                               
                                                                                                  
 activation_496 (Activation  (None, 14, 14, 1024)         0         ['group_normalization_476[0][0
 )                                                                  ]']                           
                                                                                                  
 conv2d_505 (Conv2D)         (None, 14, 14, 256)          262144    ['activation_496[0][0]']      
                                                                                                  
 group_normalization_477 (G  (None, 14, 14, 256)          512       ['conv2d_505[0][0]']          
 roupNormalization)                                                                               
                                                                                                  
 activation_497 (Activation  (None, 14, 14, 256)          0         ['group_normalization_477[0][0
 )                                                                  ]']                           
                                                                                                  
 padding_from_kernel_size_1  (None, 16, 16, 256)          0         ['activation_497[0][0]']      
 69 (PaddingFromKernelSize)                                                                       
                                                                                                  
 conv2d_506 (Conv2D)         (None, 14, 14, 256)          589824    ['padding_from_kernel_size_169
                                                                    [0][0]']                      
                                                                                                  
 group_normalization_478 (G  (None, 14, 14, 256)          512       ['conv2d_506[0][0]']          
 roupNormalization)                                                                               
                                                                                                  
 activation_498 (Activation  (None, 14, 14, 256)          0         ['group_normalization_478[0][0
 )                                                                  ]']                           
                                                                                                  
 conv2d_507 (Conv2D)         (None, 14, 14, 1024)         262144    ['activation_498[0][0]']      
                                                                                                  
 add_157 (Add)               (None, 14, 14, 1024)         0         ['conv2d_507[0][0]',          
                                                                     'add_156[0][0]']             
                                                                                                  
 group_normalization_479 (G  (None, 14, 14, 1024)         2048      ['add_157[0][0]']             
 roupNormalization)                                                                               
                                                                                                  
 activation_499 (Activation  (None, 14, 14, 1024)         0         ['group_normalization_479[0][0
 )                                                                  ]']                           
                                                                                                  
 conv2d_508 (Conv2D)         (None, 14, 14, 256)          262144    ['activation_499[0][0]']      
                                                                                                  
 group_normalization_480 (G  (None, 14, 14, 256)          512       ['conv2d_508[0][0]']          
 roupNormalization)                                                                               
                                                                                                  
 activation_500 (Activation  (None, 14, 14, 256)          0         ['group_normalization_480[0][0
 )                                                                  ]']                           
                                                                                                  
 padding_from_kernel_size_1  (None, 16, 16, 256)          0         ['activation_500[0][0]']      
 70 (PaddingFromKernelSize)                                                                       
                                                                                                  
 conv2d_509 (Conv2D)         (None, 14, 14, 256)          589824    ['padding_from_kernel_size_170
                                                                    [0][0]']                      
                                                                                                  
 group_normalization_481 (G  (None, 14, 14, 256)          512       ['conv2d_509[0][0]']          
 roupNormalization)                                                                               
                                                                                                  
 activation_501 (Activation  (None, 14, 14, 256)          0         ['group_normalization_481[0][0
 )                                                                  ]']                           
                                                                                                  
 conv2d_510 (Conv2D)         (None, 14, 14, 1024)         262144    ['activation_501[0][0]']      
                                                                                                  
 add_158 (Add)               (None, 14, 14, 1024)         0         ['conv2d_510[0][0]',          
                                                                     'add_157[0][0]']             
                                                                                                  
 group_normalization_482 (G  (None, 14, 14, 1024)         2048      ['add_158[0][0]']             
 roupNormalization)                                                                               
                                                                                                  
 activation_502 (Activation  (None, 14, 14, 1024)         0         ['group_normalization_482[0][0
 )                                                                  ]']                           
                                                                                                  
 conv2d_511 (Conv2D)         (None, 14, 14, 256)          262144    ['activation_502[0][0]']      
                                                                                                  
 group_normalization_483 (G  (None, 14, 14, 256)          512       ['conv2d_511[0][0]']          
 roupNormalization)                                                                               
                                                                                                  
 activation_503 (Activation  (None, 14, 14, 256)          0         ['group_normalization_483[0][0
 )                                                                  ]']                           
                                                                                                  
 padding_from_kernel_size_1  (None, 16, 16, 256)          0         ['activation_503[0][0]']      
 71 (PaddingFromKernelSize)                                                                       
                                                                                                  
 conv2d_512 (Conv2D)         (None, 14, 14, 256)          589824    ['padding_from_kernel_size_171
                                                                    [0][0]']                      
                                                                                                  
 group_normalization_484 (G  (None, 14, 14, 256)          512       ['conv2d_512[0][0]']          
 roupNormalization)                                                                               
                                                                                                  
 activation_504 (Activation  (None, 14, 14, 256)          0         ['group_normalization_484[0][0
 )                                                                  ]']                           
                                                                                                  
 conv2d_513 (Conv2D)         (None, 14, 14, 1024)         262144    ['activation_504[0][0]']      
                                                                                                  
 add_159 (Add)               (None, 14, 14, 1024)         0         ['conv2d_513[0][0]',          
                                                                     'add_158[0][0]']             
                                                                                                  
 group_normalization_485 (G  (None, 14, 14, 1024)         2048      ['add_159[0][0]']             
 roupNormalization)                                                                               
                                                                                                  
 activation_505 (Activation  (None, 14, 14, 1024)         0         ['group_normalization_485[0][0
 )                                                                  ]']                           
                                                                                                  
 conv2d_514 (Conv2D)         (None, 14, 14, 256)          262144    ['activation_505[0][0]']      
                                                                                                  
 group_normalization_486 (G  (None, 14, 14, 256)          512       ['conv2d_514[0][0]']          
 roupNormalization)                                                                               
                                                                                                  
 activation_506 (Activation  (None, 14, 14, 256)          0         ['group_normalization_486[0][0
 )                                                                  ]']                           
                                                                                                  
 padding_from_kernel_size_1  (None, 16, 16, 256)          0         ['activation_506[0][0]']      
 72 (PaddingFromKernelSize)                                                                       
                                                                                                  
 conv2d_515 (Conv2D)         (None, 14, 14, 256)          589824    ['padding_from_kernel_size_172
                                                                    [0][0]']                      
                                                                                                  
 group_normalization_487 (G  (None, 14, 14, 256)          512       ['conv2d_515[0][0]']          
 roupNormalization)                                                                               
                                                                                                  
 activation_507 (Activation  (None, 14, 14, 256)          0         ['group_normalization_487[0][0
 )                                                                  ]']                           
                                                                                                  
 conv2d_516 (Conv2D)         (None, 14, 14, 1024)         262144    ['activation_507[0][0]']      
                                                                                                  
 add_160 (Add)               (None, 14, 14, 1024)         0         ['conv2d_516[0][0]',          
                                                                     'add_159[0][0]']             
                                                                                                  
 group_normalization_488 (G  (None, 14, 14, 1024)         2048      ['add_160[0][0]']             
 roupNormalization)                                                                               
                                                                                                  
 activation_508 (Activation  (None, 14, 14, 1024)         0         ['group_normalization_488[0][0
 )                                                                  ]']                           
                                                                                                  
 conv2d_517 (Conv2D)         (None, 14, 14, 256)          262144    ['activation_508[0][0]']      
                                                                                                  
 group_normalization_489 (G  (None, 14, 14, 256)          512       ['conv2d_517[0][0]']          
 roupNormalization)                                                                               
                                                                                                  
 activation_509 (Activation  (None, 14, 14, 256)          0         ['group_normalization_489[0][0
 )                                                                  ]']                           
                                                                                                  
 padding_from_kernel_size_1  (None, 16, 16, 256)          0         ['activation_509[0][0]']      
 73 (PaddingFromKernelSize)                                                                       
                                                                                                  
 conv2d_518 (Conv2D)         (None, 14, 14, 256)          589824    ['padding_from_kernel_size_173
                                                                    [0][0]']                      
                                                                                                  
 group_normalization_490 (G  (None, 14, 14, 256)          512       ['conv2d_518[0][0]']          
 roupNormalization)                                                                               
                                                                                                  
 activation_510 (Activation  (None, 14, 14, 256)          0         ['group_normalization_490[0][0
 )                                                                  ]']                           
                                                                                                  
 conv2d_519 (Conv2D)         (None, 14, 14, 1024)         262144    ['activation_510[0][0]']      
                                                                                                  
 add_161 (Add)               (None, 14, 14, 1024)         0         ['conv2d_519[0][0]',          
                                                                     'add_160[0][0]']             
                                                                                                  
 group_normalization_491 (G  (None, 14, 14, 1024)         2048      ['add_161[0][0]']             
 roupNormalization)                                                                               
                                                                                                  
 activation_511 (Activation  (None, 14, 14, 1024)         0         ['group_normalization_491[0][0
 )                                                                  ]']                           
                                                                                                  
 conv2d_520 (Conv2D)         (None, 14, 14, 256)          262144    ['activation_511[0][0]']      
                                                                                                  
 group_normalization_492 (G  (None, 14, 14, 256)          512       ['conv2d_520[0][0]']          
 roupNormalization)                                                                               
                                                                                                  
 activation_512 (Activation  (None, 14, 14, 256)          0         ['group_normalization_492[0][0
 )                                                                  ]']                           
                                                                                                  
 padding_from_kernel_size_1  (None, 16, 16, 256)          0         ['activation_512[0][0]']      
 74 (PaddingFromKernelSize)                                                                       
                                                                                                  
 conv2d_521 (Conv2D)         (None, 14, 14, 256)          589824    ['padding_from_kernel_size_174
                                                                    [0][0]']                      
                                                                                                  
 group_normalization_493 (G  (None, 14, 14, 256)          512       ['conv2d_521[0][0]']          
 roupNormalization)                                                                               
                                                                                                  
 activation_513 (Activation  (None, 14, 14, 256)          0         ['group_normalization_493[0][0
 )                                                                  ]']                           
                                                                                                  
 conv2d_522 (Conv2D)         (None, 14, 14, 1024)         262144    ['activation_513[0][0]']      
                                                                                                  
 add_162 (Add)               (None, 14, 14, 1024)         0         ['conv2d_522[0][0]',          
                                                                     'add_161[0][0]']             
                                                                                                  
 group_normalization_494 (G  (None, 14, 14, 1024)         2048      ['add_162[0][0]']             
 roupNormalization)                                                                               
                                                                                                  
 activation_514 (Activation  (None, 14, 14, 1024)         0         ['group_normalization_494[0][0
 )                                                                  ]']                           
                                                                                                  
 conv2d_523 (Conv2D)         (None, 14, 14, 256)          262144    ['activation_514[0][0]']      
                                                                                                  
 group_normalization_495 (G  (None, 14, 14, 256)          512       ['conv2d_523[0][0]']          
 roupNormalization)                                                                               
                                                                                                  
 activation_515 (Activation  (None, 14, 14, 256)          0         ['group_normalization_495[0][0
 )                                                                  ]']                           
                                                                                                  
 padding_from_kernel_size_1  (None, 16, 16, 256)          0         ['activation_515[0][0]']      
 75 (PaddingFromKernelSize)                                                                       
                                                                                                  
 conv2d_524 (Conv2D)         (None, 14, 14, 256)          589824    ['padding_from_kernel_size_175
                                                                    [0][0]']                      
                                                                                                  
 group_normalization_496 (G  (None, 14, 14, 256)          512       ['conv2d_524[0][0]']          
 roupNormalization)                                                                               
                                                                                                  
 activation_516 (Activation  (None, 14, 14, 256)          0         ['group_normalization_496[0][0
 )                                                                  ]']                           
                                                                                                  
 conv2d_525 (Conv2D)         (None, 14, 14, 1024)         262144    ['activation_516[0][0]']      
                                                                                                  
 add_163 (Add)               (None, 14, 14, 1024)         0         ['conv2d_525[0][0]',          
                                                                     'add_162[0][0]']             
                                                                                                  
 group_normalization_497 (G  (None, 14, 14, 1024)         2048      ['add_163[0][0]']             
 roupNormalization)                                                                               
                                                                                                  
 activation_517 (Activation  (None, 14, 14, 1024)         0         ['group_normalization_497[0][0
 )                                                                  ]']                           
                                                                                                  
 conv2d_526 (Conv2D)         (None, 14, 14, 256)          262144    ['activation_517[0][0]']      
                                                                                                  
 group_normalization_498 (G  (None, 14, 14, 256)          512       ['conv2d_526[0][0]']          
 roupNormalization)                                                                               
                                                                                                  
 activation_518 (Activation  (None, 14, 14, 256)          0         ['group_normalization_498[0][0
 )                                                                  ]']                           
                                                                                                  
 padding_from_kernel_size_1  (None, 16, 16, 256)          0         ['activation_518[0][0]']      
 76 (PaddingFromKernelSize)                                                                       
                                                                                                  
 conv2d_527 (Conv2D)         (None, 14, 14, 256)          589824    ['padding_from_kernel_size_176
                                                                    [0][0]']                      
                                                                                                  
 group_normalization_499 (G  (None, 14, 14, 256)          512       ['conv2d_527[0][0]']          
 roupNormalization)                                                                               
                                                                                                  
 activation_519 (Activation  (None, 14, 14, 256)          0         ['group_normalization_499[0][0
 )                                                                  ]']                           
                                                                                                  
 conv2d_528 (Conv2D)         (None, 14, 14, 1024)         262144    ['activation_519[0][0]']      
                                                                                                  
 add_164 (Add)               (None, 14, 14, 1024)         0         ['conv2d_528[0][0]',          
                                                                     'add_163[0][0]']             
                                                                                                  
 group_normalization_500 (G  (None, 14, 14, 1024)         2048      ['add_164[0][0]']             
 roupNormalization)                                                                               
                                                                                                  
 activation_520 (Activation  (None, 14, 14, 1024)         0         ['group_normalization_500[0][0
 )                                                                  ]']                           
                                                                                                  
 conv2d_529 (Conv2D)         (None, 14, 14, 256)          262144    ['activation_520[0][0]']      
                                                                                                  
 group_normalization_501 (G  (None, 14, 14, 256)          512       ['conv2d_529[0][0]']          
 roupNormalization)                                                                               
                                                                                                  
 activation_521 (Activation  (None, 14, 14, 256)          0         ['group_normalization_501[0][0
 )                                                                  ]']                           
                                                                                                  
 padding_from_kernel_size_1  (None, 16, 16, 256)          0         ['activation_521[0][0]']      
 77 (PaddingFromKernelSize)                                                                       
                                                                                                  
 conv2d_530 (Conv2D)         (None, 14, 14, 256)          589824    ['padding_from_kernel_size_177
                                                                    [0][0]']                      
                                                                                                  
 group_normalization_502 (G  (None, 14, 14, 256)          512       ['conv2d_530[0][0]']          
 roupNormalization)                                                                               
                                                                                                  
 activation_522 (Activation  (None, 14, 14, 256)          0         ['group_normalization_502[0][0
 )                                                                  ]']                           
                                                                                                  
 conv2d_531 (Conv2D)         (None, 14, 14, 1024)         262144    ['activation_522[0][0]']      
                                                                                                  
 add_165 (Add)               (None, 14, 14, 1024)         0         ['conv2d_531[0][0]',          
                                                                     'add_164[0][0]']             
                                                                                                  
 group_normalization_503 (G  (None, 14, 14, 1024)         2048      ['add_165[0][0]']             
 roupNormalization)                                                                               
                                                                                                  
 activation_523 (Activation  (None, 14, 14, 1024)         0         ['group_normalization_503[0][0
 )                                                                  ]']                           
                                                                                                  
 conv2d_532 (Conv2D)         (None, 14, 14, 256)          262144    ['activation_523[0][0]']      
                                                                                                  
 group_normalization_504 (G  (None, 14, 14, 256)          512       ['conv2d_532[0][0]']          
 roupNormalization)                                                                               
                                                                                                  
 activation_524 (Activation  (None, 14, 14, 256)          0         ['group_normalization_504[0][0
 )                                                                  ]']                           
                                                                                                  
 padding_from_kernel_size_1  (None, 16, 16, 256)          0         ['activation_524[0][0]']      
 78 (PaddingFromKernelSize)                                                                       
                                                                                                  
 conv2d_533 (Conv2D)         (None, 14, 14, 256)          589824    ['padding_from_kernel_size_178
                                                                    [0][0]']                      
                                                                                                  
 group_normalization_505 (G  (None, 14, 14, 256)          512       ['conv2d_533[0][0]']          
 roupNormalization)                                                                               
                                                                                                  
 activation_525 (Activation  (None, 14, 14, 256)          0         ['group_normalization_505[0][0
 )                                                                  ]']                           
                                                                                                  
 conv2d_534 (Conv2D)         (None, 14, 14, 1024)         262144    ['activation_525[0][0]']      
                                                                                                  
 add_166 (Add)               (None, 14, 14, 1024)         0         ['conv2d_534[0][0]',          
                                                                     'add_165[0][0]']             
                                                                                                  
 group_normalization_506 (G  (None, 14, 14, 1024)         2048      ['add_166[0][0]']             
 roupNormalization)                                                                               
                                                                                                  
 activation_526 (Activation  (None, 14, 14, 1024)         0         ['group_normalization_506[0][0
 )                                                                  ]']                           
                                                                                                  
 conv2d_535 (Conv2D)         (None, 14, 14, 256)          262144    ['activation_526[0][0]']      
                                                                                                  
 group_normalization_507 (G  (None, 14, 14, 256)          512       ['conv2d_535[0][0]']          
 roupNormalization)                                                                               
                                                                                                  
 activation_527 (Activation  (None, 14, 14, 256)          0         ['group_normalization_507[0][0
 )                                                                  ]']                           
                                                                                                  
 padding_from_kernel_size_1  (None, 16, 16, 256)          0         ['activation_527[0][0]']      
 79 (PaddingFromKernelSize)                                                                       
                                                                                                  
 conv2d_536 (Conv2D)         (None, 14, 14, 256)          589824    ['padding_from_kernel_size_179
                                                                    [0][0]']                      
                                                                                                  
 group_normalization_508 (G  (None, 14, 14, 256)          512       ['conv2d_536[0][0]']          
 roupNormalization)                                                                               
                                                                                                  
 activation_528 (Activation  (None, 14, 14, 256)          0         ['group_normalization_508[0][0
 )                                                                  ]']                           
                                                                                                  
 conv2d_537 (Conv2D)         (None, 14, 14, 1024)         262144    ['activation_528[0][0]']      
                                                                                                  
 add_167 (Add)               (None, 14, 14, 1024)         0         ['conv2d_537[0][0]',          
                                                                     'add_166[0][0]']             
                                                                                                  
 group_normalization_509 (G  (None, 14, 14, 1024)         2048      ['add_167[0][0]']             
 roupNormalization)                                                                               
                                                                                                  
 activation_529 (Activation  (None, 14, 14, 1024)         0         ['group_normalization_509[0][0
 )                                                                  ]']                           
                                                                                                  
 conv2d_538 (Conv2D)         (None, 14, 14, 256)          262144    ['activation_529[0][0]']      
                                                                                                  
 group_normalization_510 (G  (None, 14, 14, 256)          512       ['conv2d_538[0][0]']          
 roupNormalization)                                                                               
                                                                                                  
 activation_530 (Activation  (None, 14, 14, 256)          0         ['group_normalization_510[0][0
 )                                                                  ]']                           
                                                                                                  
 padding_from_kernel_size_1  (None, 16, 16, 256)          0         ['activation_530[0][0]']      
 80 (PaddingFromKernelSize)                                                                       
                                                                                                  
 conv2d_539 (Conv2D)         (None, 14, 14, 256)          589824    ['padding_from_kernel_size_180
                                                                    [0][0]']                      
                                                                                                  
 group_normalization_511 (G  (None, 14, 14, 256)          512       ['conv2d_539[0][0]']          
 roupNormalization)                                                                               
                                                                                                  
 activation_531 (Activation  (None, 14, 14, 256)          0         ['group_normalization_511[0][0
 )                                                                  ]']                           
                                                                                                  
 conv2d_540 (Conv2D)         (None, 14, 14, 1024)         262144    ['activation_531[0][0]']      
                                                                                                  
 add_168 (Add)               (None, 14, 14, 1024)         0         ['conv2d_540[0][0]',          
                                                                     'add_167[0][0]']             
                                                                                                  
 group_normalization_512 (G  (None, 14, 14, 1024)         2048      ['add_168[0][0]']             
 roupNormalization)                                                                               
                                                                                                  
 activation_532 (Activation  (None, 14, 14, 1024)         0         ['group_normalization_512[0][0
 )                                                                  ]']                           
                                                                                                  
 conv2d_541 (Conv2D)         (None, 14, 14, 256)          262144    ['activation_532[0][0]']      
                                                                                                  
 group_normalization_513 (G  (None, 14, 14, 256)          512       ['conv2d_541[0][0]']          
 roupNormalization)                                                                               
                                                                                                  
 activation_533 (Activation  (None, 14, 14, 256)          0         ['group_normalization_513[0][0
 )                                                                  ]']                           
                                                                                                  
 padding_from_kernel_size_1  (None, 16, 16, 256)          0         ['activation_533[0][0]']      
 81 (PaddingFromKernelSize)                                                                       
                                                                                                  
 conv2d_542 (Conv2D)         (None, 14, 14, 256)          589824    ['padding_from_kernel_size_181
                                                                    [0][0]']                      
                                                                                                  
 group_normalization_514 (G  (None, 14, 14, 256)          512       ['conv2d_542[0][0]']          
 roupNormalization)                                                                               
                                                                                                  
 activation_534 (Activation  (None, 14, 14, 256)          0         ['group_normalization_514[0][0
 )                                                                  ]']                           
                                                                                                  
 conv2d_543 (Conv2D)         (None, 14, 14, 1024)         262144    ['activation_534[0][0]']      
                                                                                                  
 add_169 (Add)               (None, 14, 14, 1024)         0         ['conv2d_543[0][0]',          
                                                                     'add_168[0][0]']             
                                                                                                  
 group_normalization_515 (G  (None, 14, 14, 1024)         2048      ['add_169[0][0]']             
 roupNormalization)                                                                               
                                                                                                  
 activation_535 (Activation  (None, 14, 14, 1024)         0         ['group_normalization_515[0][0
 )                                                                  ]']                           
                                                                                                  
 conv2d_544 (Conv2D)         (None, 14, 14, 256)          262144    ['activation_535[0][0]']      
                                                                                                  
 group_normalization_516 (G  (None, 14, 14, 256)          512       ['conv2d_544[0][0]']          
 roupNormalization)                                                                               
                                                                                                  
 activation_536 (Activation  (None, 14, 14, 256)          0         ['group_normalization_516[0][0
 )                                                                  ]']                           
                                                                                                  
 padding_from_kernel_size_1  (None, 16, 16, 256)          0         ['activation_536[0][0]']      
 82 (PaddingFromKernelSize)                                                                       
                                                                                                  
 conv2d_545 (Conv2D)         (None, 14, 14, 256)          589824    ['padding_from_kernel_size_182
                                                                    [0][0]']                      
                                                                                                  
 group_normalization_517 (G  (None, 14, 14, 256)          512       ['conv2d_545[0][0]']          
 roupNormalization)                                                                               
                                                                                                  
 activation_537 (Activation  (None, 14, 14, 256)          0         ['group_normalization_517[0][0
 )                                                                  ]']                           
                                                                                                  
 conv2d_546 (Conv2D)         (None, 14, 14, 1024)         262144    ['activation_537[0][0]']      
                                                                                                  
 add_170 (Add)               (None, 14, 14, 1024)         0         ['conv2d_546[0][0]',          
                                                                     'add_169[0][0]']             
                                                                                                  
 group_normalization_518 (G  (None, 14, 14, 1024)         2048      ['add_170[0][0]']             
 roupNormalization)                                                                               
                                                                                                  
 activation_538 (Activation  (None, 14, 14, 1024)         0         ['group_normalization_518[0][0
 )                                                                  ]']                           
                                                                                                  
 conv2d_547 (Conv2D)         (None, 14, 14, 256)          262144    ['activation_538[0][0]']      
                                                                                                  
 group_normalization_519 (G  (None, 14, 14, 256)          512       ['conv2d_547[0][0]']          
 roupNormalization)                                                                               
                                                                                                  
 activation_539 (Activation  (None, 14, 14, 256)          0         ['group_normalization_519[0][0
 )                                                                  ]']                           
                                                                                                  
 padding_from_kernel_size_1  (None, 16, 16, 256)          0         ['activation_539[0][0]']      
 83 (PaddingFromKernelSize)                                                                       
                                                                                                  
 conv2d_548 (Conv2D)         (None, 14, 14, 256)          589824    ['padding_from_kernel_size_183
                                                                    [0][0]']                      
                                                                                                  
 group_normalization_520 (G  (None, 14, 14, 256)          512       ['conv2d_548[0][0]']          
 roupNormalization)                                                                               
                                                                                                  
 activation_540 (Activation  (None, 14, 14, 256)          0         ['group_normalization_520[0][0
 )                                                                  ]']                           
                                                                                                  
 conv2d_549 (Conv2D)         (None, 14, 14, 1024)         262144    ['activation_540[0][0]']      
                                                                                                  
 add_171 (Add)               (None, 14, 14, 1024)         0         ['conv2d_549[0][0]',          
                                                                     'add_170[0][0]']             
                                                                                                  
 group_normalization_521 (G  (None, 14, 14, 1024)         2048      ['add_171[0][0]']             
 roupNormalization)                                                                               
                                                                                                  
 activation_541 (Activation  (None, 14, 14, 1024)         0         ['group_normalization_521[0][0
 )                                                                  ]']                           
                                                                                                  
 conv2d_550 (Conv2D)         (None, 14, 14, 256)          262144    ['activation_541[0][0]']      
                                                                                                  
 group_normalization_522 (G  (None, 14, 14, 256)          512       ['conv2d_550[0][0]']          
 roupNormalization)                                                                               
                                                                                                  
 activation_542 (Activation  (None, 14, 14, 256)          0         ['group_normalization_522[0][0
 )                                                                  ]']                           
                                                                                                  
 padding_from_kernel_size_1  (None, 16, 16, 256)          0         ['activation_542[0][0]']      
 84 (PaddingFromKernelSize)                                                                       
                                                                                                  
 conv2d_551 (Conv2D)         (None, 14, 14, 256)          589824    ['padding_from_kernel_size_184
                                                                    [0][0]']                      
                                                                                                  
 group_normalization_523 (G  (None, 14, 14, 256)          512       ['conv2d_551[0][0]']          
 roupNormalization)                                                                               
                                                                                                  
 activation_543 (Activation  (None, 14, 14, 256)          0         ['group_normalization_523[0][0
 )                                                                  ]']                           
                                                                                                  
 conv2d_552 (Conv2D)         (None, 14, 14, 1024)         262144    ['activation_543[0][0]']      
                                                                                                  
 add_172 (Add)               (None, 14, 14, 1024)         0         ['conv2d_552[0][0]',          
                                                                     'add_171[0][0]']             
                                                                                                  
 group_normalization_524 (G  (None, 14, 14, 1024)         2048      ['add_172[0][0]']             
 roupNormalization)                                                                               
                                                                                                  
 activation_544 (Activation  (None, 14, 14, 1024)         0         ['group_normalization_524[0][0
 )                                                                  ]']                           
                                                                                                  
 conv2d_553 (Conv2D)         (None, 14, 14, 256)          262144    ['activation_544[0][0]']      
                                                                                                  
 group_normalization_525 (G  (None, 14, 14, 256)          512       ['conv2d_553[0][0]']          
 roupNormalization)                                                                               
                                                                                                  
 activation_545 (Activation  (None, 14, 14, 256)          0         ['group_normalization_525[0][0
 )                                                                  ]']                           
                                                                                                  
 padding_from_kernel_size_1  (None, 16, 16, 256)          0         ['activation_545[0][0]']      
 85 (PaddingFromKernelSize)                                                                       
                                                                                                  
 conv2d_554 (Conv2D)         (None, 14, 14, 256)          589824    ['padding_from_kernel_size_185
                                                                    [0][0]']                      
                                                                                                  
 group_normalization_526 (G  (None, 14, 14, 256)          512       ['conv2d_554[0][0]']          
 roupNormalization)                                                                               
                                                                                                  
 activation_546 (Activation  (None, 14, 14, 256)          0         ['group_normalization_526[0][0
 )                                                                  ]']                           
                                                                                                  
 conv2d_555 (Conv2D)         (None, 14, 14, 1024)         262144    ['activation_546[0][0]']      
                                                                                                  
 add_173 (Add)               (None, 14, 14, 1024)         0         ['conv2d_555[0][0]',          
                                                                     'add_172[0][0]']             
                                                                                                  
 group_normalization_527 (G  (None, 14, 14, 1024)         2048      ['add_173[0][0]']             
 roupNormalization)                                                                               
                                                                                                  
 activation_547 (Activation  (None, 14, 14, 1024)         0         ['group_normalization_527[0][0
 )                                                                  ]']                           
                                                                                                  
 conv2d_556 (Conv2D)         (None, 14, 14, 256)          262144    ['activation_547[0][0]']      
                                                                                                  
 group_normalization_528 (G  (None, 14, 14, 256)          512       ['conv2d_556[0][0]']          
 roupNormalization)                                                                               
                                                                                                  
 activation_548 (Activation  (None, 14, 14, 256)          0         ['group_normalization_528[0][0
 )                                                                  ]']                           
                                                                                                  
 padding_from_kernel_size_1  (None, 16, 16, 256)          0         ['activation_548[0][0]']      
 86 (PaddingFromKernelSize)                                                                       
                                                                                                  
 conv2d_557 (Conv2D)         (None, 14, 14, 256)          589824    ['padding_from_kernel_size_186
                                                                    [0][0]']                      
                                                                                                  
 group_normalization_529 (G  (None, 14, 14, 256)          512       ['conv2d_557[0][0]']          
 roupNormalization)                                                                               
                                                                                                  
 activation_549 (Activation  (None, 14, 14, 256)          0         ['group_normalization_529[0][0
 )                                                                  ]']                           
                                                                                                  
 conv2d_558 (Conv2D)         (None, 14, 14, 1024)         262144    ['activation_549[0][0]']      
                                                                                                  
 add_174 (Add)               (None, 14, 14, 1024)         0         ['conv2d_558[0][0]',          
                                                                     'add_173[0][0]']             
                                                                                                  
 group_normalization_530 (G  (None, 14, 14, 1024)         2048      ['add_174[0][0]']             
 roupNormalization)                                                                               
                                                                                                  
 activation_550 (Activation  (None, 14, 14, 1024)         0         ['group_normalization_530[0][0
 )                                                                  ]']                           
                                                                                                  
 conv2d_559 (Conv2D)         (None, 14, 14, 256)          262144    ['activation_550[0][0]']      
                                                                                                  
 group_normalization_531 (G  (None, 14, 14, 256)          512       ['conv2d_559[0][0]']          
 roupNormalization)                                                                               
                                                                                                  
 activation_551 (Activation  (None, 14, 14, 256)          0         ['group_normalization_531[0][0
 )                                                                  ]']                           
                                                                                                  
 padding_from_kernel_size_1  (None, 16, 16, 256)          0         ['activation_551[0][0]']      
 87 (PaddingFromKernelSize)                                                                       
                                                                                                  
 conv2d_560 (Conv2D)         (None, 14, 14, 256)          589824    ['padding_from_kernel_size_187
                                                                    [0][0]']                      
                                                                                                  
 group_normalization_532 (G  (None, 14, 14, 256)          512       ['conv2d_560[0][0]']          
 roupNormalization)                                                                               
                                                                                                  
 activation_552 (Activation  (None, 14, 14, 256)          0         ['group_normalization_532[0][0
 )                                                                  ]']                           
                                                                                                  
 conv2d_561 (Conv2D)         (None, 14, 14, 1024)         262144    ['activation_552[0][0]']      
                                                                                                  
 add_175 (Add)               (None, 14, 14, 1024)         0         ['conv2d_561[0][0]',          
                                                                     'add_174[0][0]']             
                                                                                                  
 group_normalization_533 (G  (None, 14, 14, 1024)         2048      ['add_175[0][0]']             
 roupNormalization)                                                                               
                                                                                                  
 activation_553 (Activation  (None, 14, 14, 1024)         0         ['group_normalization_533[0][0
 )                                                                  ]']                           
                                                                                                  
 conv2d_562 (Conv2D)         (None, 14, 14, 256)          262144    ['activation_553[0][0]']      
                                                                                                  
 group_normalization_534 (G  (None, 14, 14, 256)          512       ['conv2d_562[0][0]']          
 roupNormalization)                                                                               
                                                                                                  
 activation_554 (Activation  (None, 14, 14, 256)          0         ['group_normalization_534[0][0
 )                                                                  ]']                           
                                                                                                  
 padding_from_kernel_size_1  (None, 16, 16, 256)          0         ['activation_554[0][0]']      
 88 (PaddingFromKernelSize)                                                                       
                                                                                                  
 conv2d_563 (Conv2D)         (None, 14, 14, 256)          589824    ['padding_from_kernel_size_188
                                                                    [0][0]']                      
                                                                                                  
 group_normalization_535 (G  (None, 14, 14, 256)          512       ['conv2d_563[0][0]']          
 roupNormalization)                                                                               
                                                                                                  
 activation_555 (Activation  (None, 14, 14, 256)          0         ['group_normalization_535[0][0
 )                                                                  ]']                           
                                                                                                  
 conv2d_564 (Conv2D)         (None, 14, 14, 1024)         262144    ['activation_555[0][0]']      
                                                                                                  
 add_176 (Add)               (None, 14, 14, 1024)         0         ['conv2d_564[0][0]',          
                                                                     'add_175[0][0]']             
                                                                                                  
 group_normalization_536 (G  (None, 14, 14, 1024)         2048      ['add_176[0][0]']             
 roupNormalization)                                                                               
                                                                                                  
 activation_556 (Activation  (None, 14, 14, 1024)         0         ['group_normalization_536[0][0
 )                                                                  ]']                           
                                                                                                  
 conv2d_565 (Conv2D)         (None, 14, 14, 256)          262144    ['activation_556[0][0]']      
                                                                                                  
 group_normalization_537 (G  (None, 14, 14, 256)          512       ['conv2d_565[0][0]']          
 roupNormalization)                                                                               
                                                                                                  
 activation_557 (Activation  (None, 14, 14, 256)          0         ['group_normalization_537[0][0
 )                                                                  ]']                           
                                                                                                  
 padding_from_kernel_size_1  (None, 16, 16, 256)          0         ['activation_557[0][0]']      
 89 (PaddingFromKernelSize)                                                                       
                                                                                                  
 conv2d_566 (Conv2D)         (None, 14, 14, 256)          589824    ['padding_from_kernel_size_189
                                                                    [0][0]']                      
                                                                                                  
 group_normalization_538 (G  (None, 14, 14, 256)          512       ['conv2d_566[0][0]']          
 roupNormalization)                                                                               
                                                                                                  
 activation_558 (Activation  (None, 14, 14, 256)          0         ['group_normalization_538[0][0
 )                                                                  ]']                           
                                                                                                  
 conv2d_567 (Conv2D)         (None, 14, 14, 1024)         262144    ['activation_558[0][0]']      
                                                                                                  
 add_177 (Add)               (None, 14, 14, 1024)         0         ['conv2d_567[0][0]',          
                                                                     'add_176[0][0]']             
                                                                                                  
 group_normalization_539 (G  (None, 14, 14, 1024)         2048      ['add_177[0][0]']             
 roupNormalization)                                                                               
                                                                                                  
 activation_559 (Activation  (None, 14, 14, 1024)         0         ['group_normalization_539[0][0
 )                                                                  ]']                           
                                                                                                  
 conv2d_569 (Conv2D)         (None, 14, 14, 512)          524288    ['activation_559[0][0]']      
                                                                                                  
 group_normalization_540 (G  (None, 14, 14, 512)          1024      ['conv2d_569[0][0]']          
 roupNormalization)                                                                               
                                                                                                  
 activation_560 (Activation  (None, 14, 14, 512)          0         ['group_normalization_540[0][0
 )                                                                  ]']                           
                                                                                                  
 padding_from_kernel_size_1  (None, 16, 16, 512)          0         ['activation_560[0][0]']      
 90 (PaddingFromKernelSize)                                                                       
                                                                                                  
 conv2d_570 (Conv2D)         (None, 7, 7, 512)            2359296   ['padding_from_kernel_size_190
                                                                    [0][0]']                      
                                                                                                  
 group_normalization_541 (G  (None, 7, 7, 512)            1024      ['conv2d_570[0][0]']          
 roupNormalization)                                                                               
                                                                                                  
 activation_561 (Activation  (None, 7, 7, 512)            0         ['group_normalization_541[0][0
 )                                                                  ]']                           
                                                                                                  
 conv2d_571 (Conv2D)         (None, 7, 7, 2048)           1048576   ['activation_561[0][0]']      
                                                                                                  
 conv2d_568 (Conv2D)         (None, 7, 7, 2048)           2097152   ['activation_559[0][0]']      
                                                                                                  
 add_178 (Add)               (None, 7, 7, 2048)           0         ['conv2d_571[0][0]',          
                                                                     'conv2d_568[0][0]']          
                                                                                                  
 group_normalization_542 (G  (None, 7, 7, 2048)           4096      ['add_178[0][0]']             
 roupNormalization)                                                                               
                                                                                                  
 activation_562 (Activation  (None, 7, 7, 2048)           0         ['group_normalization_542[0][0
 )                                                                  ]']                           
                                                                                                  
 conv2d_572 (Conv2D)         (None, 7, 7, 512)            1048576   ['activation_562[0][0]']      
                                                                                                  
 group_normalization_543 (G  (None, 7, 7, 512)            1024      ['conv2d_572[0][0]']          
 roupNormalization)                                                                               
                                                                                                  
 activation_563 (Activation  (None, 7, 7, 512)            0         ['group_normalization_543[0][0
 )                                                                  ]']                           
                                                                                                  
 padding_from_kernel_size_1  (None, 9, 9, 512)            0         ['activation_563[0][0]']      
 91 (PaddingFromKernelSize)                                                                       
                                                                                                  
 conv2d_573 (Conv2D)         (None, 7, 7, 512)            2359296   ['padding_from_kernel_size_191
                                                                    [0][0]']                      
                                                                                                  
 group_normalization_544 (G  (None, 7, 7, 512)            1024      ['conv2d_573[0][0]']          
 roupNormalization)                                                                               
                                                                                                  
 activation_564 (Activation  (None, 7, 7, 512)            0         ['group_normalization_544[0][0
 )                                                                  ]']                           
                                                                                                  
 conv2d_574 (Conv2D)         (None, 7, 7, 2048)           1048576   ['activation_564[0][0]']      
                                                                                                  
 add_179 (Add)               (None, 7, 7, 2048)           0         ['conv2d_574[0][0]',          
                                                                     'add_178[0][0]']             
                                                                                                  
 group_normalization_545 (G  (None, 7, 7, 2048)           4096      ['add_179[0][0]']             
 roupNormalization)                                                                               
                                                                                                  
 activation_565 (Activation  (None, 7, 7, 2048)           0         ['group_normalization_545[0][0
 )                                                                  ]']                           
                                                                                                  
 conv2d_575 (Conv2D)         (None, 7, 7, 512)            1048576   ['activation_565[0][0]']      
                                                                                                  
 group_normalization_546 (G  (None, 7, 7, 512)            1024      ['conv2d_575[0][0]']          
 roupNormalization)                                                                               
                                                                                                  
 activation_566 (Activation  (None, 7, 7, 512)            0         ['group_normalization_546[0][0
 )                                                                  ]']                           
                                                                                                  
 padding_from_kernel_size_1  (None, 9, 9, 512)            0         ['activation_566[0][0]']      
 92 (PaddingFromKernelSize)                                                                       
                                                                                                  
 conv2d_576 (Conv2D)         (None, 7, 7, 512)            2359296   ['padding_from_kernel_size_192
                                                                    [0][0]']                      
                                                                                                  
 group_normalization_547 (G  (None, 7, 7, 512)            1024      ['conv2d_576[0][0]']          
 roupNormalization)                                                                               
                                                                                                  
 activation_567 (Activation  (None, 7, 7, 512)            0         ['group_normalization_547[0][0
 )                                                                  ]']                           
                                                                                                  
 conv2d_577 (Conv2D)         (None, 7, 7, 2048)           1048576   ['activation_567[0][0]']      
                                                                                                  
 add_180 (Add)               (None, 7, 7, 2048)           0         ['conv2d_577[0][0]',          
                                                                     'add_179[0][0]']             
                                                                                                  
 activation_568 (Activation  (None, 7, 7, 2048)           0         ['add_180[0][0]']             
 )                                                                                                
                                                                                                  
 group_normalization_548 (G  (None, 7, 7, 2048)           4096      ['activation_568[0][0]']      
 roupNormalization)                                                                               
                                                                                                  
 global_average_pooling2d_5  (None, 2048)                 0         ['group_normalization_548[0][0
  (GlobalAveragePooling2D)                                          ]']                           
                                                                                                  
 predictions (Dense)         (None, 1000)                 2049000   ['global_average_pooling2d_5[0
                                                                    ][0]']                        
                                                                                                  
 activation_569 (Activation  (None, 1000)                 0         ['predictions[0][0]']         
 )                                                                                                
                                                                                                  
==================================================================================================
Total params: 44541480 (169.91 MB)
Trainable params: 44541480 (169.91 MB)
…
